save/lsqmobilenetv2_cifar100_ratio0516bit26rs0/actor.pkl (torch, 377607 bytes, 5 tensors)

fc1.weight f4 [300, 10]
0.382696 0.22170648 -0.1398849 -0.14847045 0.16071722 0.24122927 0.04856267 -0.026445204
-0.090882175 0.40513596 0.27899036 -0.31546855 0.20557807 0.26387018 0.16827579 -0.16932918
0.23127833 -0.08864466 0.111490734 -0.3554389 0.0066625327 0.33613774 -0.06156817 -0.23673567
0.33243293 -0.29984704 -0.20367041 0.087907545 0.1928383 0.29293406 0.16554737 -0.009730081
0.1295925 0.012654503 -0.16099663 -0.13988617 -0.17604327 0.33196065 0.13240576 -0.20406108
0.027267314 0.40395576 -0.27033824 -0.1654591 -0.23196845 -0.2212389 -0.5082951 0.27192962
0.313929 0.07098061 0.018201571 0.020196833 -0.001732446 0.021679386 0.028163303 -0.09488985
-0.03110635 -0.23488458 0.30398104 -0.035997156 -0.22135977 -0.2697177 -0.09296662 -0.24587518
0.26080775 0.23834497 -0.022579802 0.11055216 0.042309754 0.123656034 -0.16862082 -0.25164804
-0.3177971 0.03228241 0.30398643 -0.10611442 0.13047668 -0.19137575 -0.20071106 -0.13098337
0.07302244 0.24121548 -0.1916571 0.077543624 -0.16490674 0.14903755 0.34437057 -0.114360616
0.110426016 -0.25941944 -0.11844263 0.31379774 -0.08613399 0.12084901 0.073480025 -0.08578302
-0.22180396 0.19991724 0.16758801 0.20423874 0.124390766 -0.049737833 -0.40859503 -0.066560835
-0.24090114 0.20321031 0.18501902 0.08932795 -0.116962574 0.0058534457 -0.17279956 -0.04781348
0.21970773 0.04272629 -0.2750564 0.052972548 -0.21815889 -0.19344251 -0.03432318 0.09809829
0.3020229 -0.2057983 0.26920074 0.14563674 0.13920183 0.23011574 -0.43998486 -0.21496901
-0.18257497 -0.31046176 -0.2017476 0.3039082 0.107579455 0.110958256 0.21543743 -0.050863646
-0.010605268 -0.004653929 0.13289665 0.15144317 0.17224306 -0.09868204 -0.04982609 -0.27579114
-0.2576537 0.2399308 -0.29266995 -0.099789694 0.09731363 0.014520806 0.1254454 0.020809274
-0.00885318 0.14247799 -0.16132264 0.20738547 0.06933975 0.38678154 0.024213798 0.32945663
0.23021972 -0.35704365 0.0027133618 -0.0018039302 -0.1967806 -0.22884417 -0.26557812 -0.12734768
0.22257242 0.037604183 -0.2860345 0.29213768 -0.3004252 -0.11336968 0.25908738 -0.20308495
0.069750965 0.011562323 -0.26034844 0.109890886 0.10981893 0.13712941 -0.08081949 -0.2710161
0.013478275 -0.007505112 -0.13138363 -0.27119747 -0.0055116257 -0.27902737 -0.3039586 0.1202102
0.12983488 0.019386945 -0.12688528 0.19726133 0.22288519 -0.34210342 0.22961219 -0.3045876
-0.057278674 -0.23928751 -0.23681201 -0.08688115 0.069546655 -0.25772417 0.42495826 -0.18704396
0.111449905 0.32049513 -0.108957686 0.12625475 0.11736229 -0.24520393 0.059090547 0.17077154
-0.12003242 -0.20755859 0.31205875 0.19152503 -0.1403107 -0.26039144 0.15919465 -0.17598492
0.12078752 0.16773328 0.018132048 0.0802874 -0.032909382 0.3202163 0.29003987 0.10669834
0.069076635 0.2007419 -0.3140353 0.21317437 0.31999093 0.35221133 0.041494217 -0.27265584
-0.12249574 -0.01351368 -0.05146306 0.2840318 -0.12693568 0.2536379 0.06378012 0.07017697
-0.21958917 0.28156528 0.19929531 -0.046875257 0.074433945 -0.12598316 -0.27245542 -0.0023249486
00000000: bbf0 c33e 0607 633e fd3d 0fbe a308 18be
00000010: 0e93 243e ce04 773e a6e9 463d 9da3 d8bc
00000020: 6f20 babd fb6d cf3e d3d7 8e3e 1885 a1be
00000030: 0f83 523e fe19 873e 7d50 2c3e a164 2dbe
00000040: 3ad4 6c3e 558b b5bd 4155 e43d 16fc b5be
00000050: 6051 da3b 3f1a ac3e e82e 7cbd d66a 72be
00000060: a634 aa3e 8d85 99be fa8e 50be df08 b43d
00000070: 6777 453e 74fb 953e 4085 293e eb6a 1fbc
00000080: e5b3 043e d554 4f3c 4ddc 24be 523e 0fbe
00000090: b044 34be bff6 a93e 6095 073e 63f5 50be
000000a0: b45f df3c 4ad3 ce3e c669 8abe 1c6e 29be
000000b0: 2389 6dbe 738c 62be a11f 02bf 5c3a 8b3e
000000c0: 4dbb a03e 485e 913d 761b 953c d473 a53c
000000d0: 3e13 e3ba f898 b13c bab6 e63c 9c55 c2bd
000000e0: bed2 febc 9585 70be 67a3 9b3e c171 13bd
000000f0: 23ac 62be 7018 8abe 4965 bebd b4c6 7bbe
00000100: 9888 853e b410 743e 47f9 b8bc 2c69 e23d
00000110: fe4c 2d3d 603f fd3d f0aa 2cbe 03d8 80be
00000120: 4db6 a2be 8f3a 043d 1ca4 9b3e 8452 d9bd
00000130: ae9b 053e 01f8 43be 3387 4dbe 8120 06be
00000140: ca8c 953d 3101 773e c241 44be 31cf 9e3d
00000150: 50dd 28be 4d9d 183e 5751 b03e e635 eabd
00000160: 0927 e23d a0d2 84be 0d92 f2bd 19aa a03e
00000170: 0467 b0bd b07f f73d b27c 963d 02af afbd
00000180: 9420 63be 1bb7 4c3e 319c 2b3e f623 513e
00000190: 96c0 fe3d e6b9 4bbd 5e33 d1be 0c51 88bd
000001a0: caae 76be 5d16 503e a075 3d3e 92f1 b63d
000001b0: 138a efbd 43ce bf3b 5ef2 30be 11d8 43bd
000001c0: 10fb 603e c301 2f3d 31d4 8cbe bef9 583d
000001d0: 0b65 5fbe cb15 46be 7696 0cbd c2e7 c83d
000001e0: bfa2 9a3e cabc 52be aed4 893e cc21 153e
000001f0: ed8a 0e3e 76a3 6b3e b245 e1be d620 5cbe
00000200: eff4 3abe d8f4 9ebe ec96 4ebe db99 9b3e
00000210: 9e52 dc3d 153e e33d a19b 5c3e 6656 50bd
00000220: b8c1 2dbc fc7f 98bb 0f16 083e eb13 1b3e
00000230: 7c60 303e cf19 cabd 7116 4cbd 7f34 8dbe
00000240: 30eb 83be 6bb0 753e d6d8 95be 8a5e ccbd
00000250: 5e4c c73d ade8 6d3c c274 003e 3678 aa3c
00000260: ee0c 11bc c0e5 113e c331 25be db5c 543e
00000270: 0002 8e3d 3b08 c63e 045c c63c 8aae a83e
00000280: b8be 6b3e 6dce b6be a8d2 313b da71 ecba
00000290: db80 49be 2056 6abe dbf9 87be 6e67 02be
000002a0: 06ea 633e d806 1a3d 1d73 92be 1293 953e
000002b0: 55d1 99be 5d2e e8bd 1aa7 843e 80f5 4fbe
000002c0: 98d9 8e3d e66f 3d3c 644c 85be 790e e13d
000002d0: bfe8 e03d a76b 0c3e b084 a5bd 9fc2 8abe
000002e0: fcd3 5c3c 71ed f5bb 6e89 06be 65da 8abe
000002f0: de9a b4bb addc 8ebe 76a0 9bbe c430 f63d
00000300: 6ff3 043e 5fd1 9e3c 37ee 01be e0fe 493e
00000310: 043c 643e 2e28 afbe 751f 6b3e e8f2 9bbe
00000320: 0b9d 6abd c907 75be d97e 72be bfee b1bd
00000330: 7a6e 8e3d 6cf4 83be 2194 d93e 7488 3fbe
00000340: d93f e43d f017 a43e 3525 dfbd ed48 013e
00000350: a45b f03d bd16 7bbe ee08 723d bcde 2e3e
00000360: 8fd3 f5bd 3d8a 54be 2ac6 9f3e 231f 443e
00000370: 9cad 0fbe 0752 85be ec03 233e 6435 34be
00000380: 735f f73d 46c2 2b3e a989 943c b86d a43d
00000390: fdcb 06bd 64f3 a33e 1b80 943e a984 da3d
000003a0: 0d78 8d3d 498f 4d3e 3cc9 a0be 624a 5a3e
000003b0: dad5 a33e 0b55 b43e d7f5 293d 8c99 8bbe
000003c0: 0cdf fabd 7b68 5dbc eeca 52bd 9e6c 913e
000003d0: 6dfb 01be d4dc 813e 279f 823d f1b8 8f3d
000003e0: fcdb 60be 5329 903e 1214 4c3e 4500 40bd
000003f0: d370 983d bb01 01be 477f 8bbe 2a5e 18bb

fc1.bias f4 [300]
0.13789706 0.22363187 0.120895654 -0.047862146 -0.23130323 -0.30037192 0.08955797 0.105157696
0.16302149 -0.031304404 0.16145155 0.28650525 0.2681367 -0.23399018 -0.23101696 -0.24905688
0.21933453 -0.19466507 0.1620444 0.16354856 -0.076908715 0.058618233 -0.05474614 -0.19622001
-0.14915715 -0.13500768 -0.10961138 -0.013463031 -0.09303593 -0.11031614 -0.23724423 -0.19919695
0.21013112 0.35753903 0.032939028 0.04145122 0.0617308 -0.085665464 0.2400546 0.071324475
0.31295735 -0.18190962 0.010993503 -0.07592614 -0.108453475 -0.28802302 0.17073762 -0.019102944
0.17881836 -0.28086695 0.2261858 0.007566045 0.05919371 0.23956221 0.15126081 0.002952553
-0.18643278 -0.01827666 -0.14763832 0.20553143 0.068363905 -0.27859798 -0.032602776 -0.12987372
-0.16135482 -0.058597036 -0.29292214 -0.22565831 -0.15892911 -0.2495983 -0.08010699 -0.2339441
0.22096053 -0.114936054 -0.22631364 0.24677013 -0.29607946 -0.26828957 -0.040660877 -0.09308139
-0.20387535 -0.098057315 -0.0388018 -0.111611806 -0.06173491 0.15959989 0.23108323 -0.2240507
0.027398508 0.18642752 -0.37128574 -0.057996023 -0.11721997 0.012931927 -0.21177344 -0.1467047
-0.26090685 0.3039205 0.16700724 0.037227463 0.220152 -0.26875982 -0.084163405 -0.09731641
-0.1291141 0.21491858 0.25979772 0.2050025 0.20103513 -0.01157314 0.087684005 0.0900403
0.18801267 -0.06317107 0.14454204 0.2988659 -0.15414764 0.20892626 0.20053725 0.15117317
0.09027627 0.0047324193 -0.10947299 -0.05366708 -0.04769044 -0.23081698 -0.10671886 0.12075531
-0.2657441 0.22429708 -0.2104087 -0.1006189 0.13312723 -0.076829694 0.2288698 0.0346746
0.10775324 0.1452847 -0.15318584 -0.27167192 0.28970298 0.030536 0.14043376 0.16333698
-0.033259105 -0.2831824 -0.22924627 -0.11430796 0.014525948 0.0441215 0.20248558 -0.12079412
-0.09100248 0.12992606 0.018973337 0.12756498 -0.004646681 0.22050843 -0.0075459145 -0.23671912
-0.1760831 -0.13717292 0.058465097 0.15640819 -0.10295451 0.04921953 -0.1127691 -0.31708816
0.22322944 0.17765999 0.15444604 -0.110739775 -0.27433205 0.1470681 0.21778148 0.24903473
-0.124699205 0.12283553 -0.30382097 -0.014599791 0.09831321 0.2118469 -0.27759147 -0.04587109
0.06862135 -0.22430974 0.02041583 -0.22681443 -0.15393375 -0.31141767 -0.21379131 -0.06503137
-0.12980439 -0.22986251 0.07254245 0.11955711 -0.31220192 -0.25847048 -0.108373374 -0.25090364
0.27407646 0.08771015 0.08182282 0.19930537 0.2645555 0.24232991 0.12335216 -0.18182962
0.076938555 0.18246998 -0.01812395 0.17822038 0.22850433 0.06789529 -0.011294546 0.05231972
-0.2962888 -0.20696539 0.0111869825 -0.1036845 -0.01536407 0.02023647 0.26138908 -0.14807212
0.05088834 -0.09489243 0.18125452 -0.008303814 0.075372994 0.048785135 0.09508818 -0.10474523
0.22784872 0.101286136 -0.10919091 -0.0892048 0.06278065 0.058168173 -0.2758047 -0.0611219
0.0228748 -0.17488533 -0.15172048 -0.32012072 0.17956221 0.17657594 -0.14035344 -0.17211078
-0.2491019 -0.22127864 -0.041495368 -0.27157974 -0.3000332 0.08569578 0.31377655 0.033327304
00000000: e334 0d3e c1ff 643e 2498 f73d 190b 44bd
00000010: c1da 6cbe 59ca 99be 2b6a b73d eb5c d73d
00000020: 1bef 263e 0c39 00bd 8e53 253e d1b0 923e
00000030: 3749 893e 1f9b 6fbe b68f 6cbe c408 7fbe
00000040: 3b99 603e 4856 47be f8ee 253e 4679 273e
00000050: 5182 9dbd ac19 703d 7d3d 60bd e6ed 48be
00000060: a7bc 18be 743f 0abe ee7b e0bd 0b94 5cbc
00000070: 9f89 bebd 6eed e1bd 27f0 72be 49fa 4bbe
00000080: 9d2c 573e 5b0f b73e 13eb 063d c1c8 293d
00000090: 6fd9 7c3d 6071 afbd e0d0 753e 9112 923d
000000a0: f23b a03e 8446 3abe 181e 343c 2a7f 9bbd
000000b0: db1c debd c177 93be d8d5 2e3e c77d 9cbc
000000c0: 291c 373e cbcd 8fbe 409d 673e 96ec f73b
000000d0: 1b75 723d cc4f 753e 1de4 1a3e 9f7f 413b
000000e0: 3ce8 3ebe efb8 95bc 802e 17be d576 523e
000000f0: 6002 8c3d 65a4 8ebe 7d8a 05bd 9efd 04be
00000100: 333a 25be 7203 70bd e4f9 95be f912 67be
00000110: 50be 22be b296 7fbe 220f a4bd 0b8f 6fbe
00000120: 7a43 623e 9863 ebbd c3be 67be 4fb1 7c3e
00000130: ba97 97be 405d 89be 058c 26bd 75a1 bebd
00000140: b3c4 50be 46d2 c8bd a3ee 1ebd bb94 e4bd
00000150: bfdd 7cbd 276e 233e 15a1 6c3e 8c6d 65be
00000160: d672 e03c dbe6 3e3e 2a19 bebe 3d8d 6dbd
00000170: 0611 f0bd 6fe0 533c 23db 58be c239 16be
00000180: 9595 85be 789b 9b3e f203 2b3e d37b 183d
00000190: 876f 613e e39a 89be dd5d acbd d34d c7bd
000001a0: 7d36 04be 9e13 5c3e 3504 853e 2dec 513e
000001b0: 27dc 4d3e 449d 3dbc ac93 b33d 0c67 b83d
000001c0: 6586 403e d55f 81bd d402 143e f404 993e
000001d0: e1d8 1dbe c4f0 553e a359 4d3e 24cd 1a3e
000001e0: c4e2 b83d 6912 9b3b 6033 e0bd 03d2 5bbd
000001f0: 0d57 43bd 495b 6cbe 6b8f dabd 8f4e f73d
00000200: 9c0f 88be 22ae 653e 6175 57be 4811 cebd
00000210: 8152 083e e358 9dbd d85c 6a3e f406 0e3d
00000220: bbad dc3d 83c5 143e c0dc 1cbe 9518 8bbe
00000230: f353 943e a226 fa3c decd 0f3e cf41 273e
00000240: b33a 08bd 49fd 90be 89bf 6abe 4b1a eabd
00000250: 3efe 6d3c bfb8 343d 6158 4f3e e862 f7bd
00000260: 825f babd 560b 053e f96d 9b3c 65a0 023e
00000270: 2f43 98bb f6cc 613e b843 f7bb 7f66 72be
00000280: 214f 34be 0f77 0cbe 1979 6f3d 7829 203e
00000290: d0d9 d2bd 6b9a 493d 7cf3 e6bd 6159 a2be
000002a0: 4296 643e 80ec 353e 1a27 1e3e 89cb e2bd
000002b0: 4075 8cbe 0599 163e 1c02 5f3e f602 7f3e
000002c0: 4c62 ffbd 3291 fb3d 6c8e 9bbe f633 6fbc
000002d0: 7058 c93d 65ee 583e 7820 8ebe 53e3 3bbd
000002e0: 5a89 8c3d 74b1 65be 193f a73c 0b42 68be
000002f0: cfa0 1dbe 2372 9fbe 1cec 5abe 2b2f 85bd
00000300: 71eb 04be 1461 6bbe 2391 943d 5cda f43d
00000310: eed8 9fbe 3e56 84be dcf2 ddbd 7176 80be
00000320: c053 8c3e 61a1 b33d b992 a73d b516 4c3e
00000330: d273 873e 5525 783e 0fa0 fc3d 8b31 3abe
00000340: f691 9d3d 69d9 3a3e ae78 94bc 677f 363e
00000350: 0afd 693e b00c 8b3d c20c 39bc 344d 563d
00000360: 2ab3 97be bcee 53be 9b49 373c 8a58 d4bd
00000370: 95b9 7bbc f4c6 a53c cad4 853e 38a0 17be
00000380: 4b70 503d f656 c2bd c99a 393e b80c 08bc
00000390: 285d 9a3d ecd2 473d 97bd c23d ab84 d6bd
000003a0: 2d51 693e 1b6f cf3d 7c9f dfbd 02b1 b6bd
000003b0: 2493 803d c041 6e3d 4636 8dbe f55a 7abd
000003c0: ef63 bb3c 2415 33be 9d5c 1bbe dde6 a3be
000003d0: 28df 373e 53d0 343e d0b8 0fbe cf3d 30be
000003e0: 9214 7fbe de96 62be 0cf7 29bd 800c 8bbe
000003f0: f49d 99be 4581 af3d 52a7 a03e 3682 083d

fc2.weight f4 [300, 300]
0.07993226 0.020758761 0.043849297 -0.14907517 -0.07000105 -0.13920364 0.024080321 -0.07829273
-0.018685734 -0.0020497607 0.114178434 0.05761021 0.045345467 0.046729155 -0.016839538 0.07722407
0.0029447707 -0.047874656 -0.039690997 -0.03427323 -0.26702544 0.047663406 0.14030552 0.047588862
0.0041177776 -0.025276849 0.0087289475 -0.010883998 -0.0034657286 0.046528757 -0.12024335 -0.011383341
0.010409082 0.09744137 0.07284275 0.10747864 0.13791375 -0.015174023 -0.039634373 0.11947895
0.030715358 -0.19197899 0.11917408 0.04290096 0.04584314 0.0026903825 0.052759912 0.059553325
-0.01143875 -0.004526427 0.07787519 -0.04510936 0.07010906 0.03478853 0.047423787 -0.0076057063
-0.25867683 0.004126684 0.051787183 0.020890066 0.014476919 -0.0011899037 -0.004543337 -0.10284186
-0.053659793 0.043068487 0.022870213 0.0646953 -0.020465767 0.033232387 -0.05953876 -0.17168547
0.038298883 0.094795 0.18463586 -0.041209612 -0.24123318 0.014410016 0.107951686 0.018807905
-0.13769747 -0.02072977 0.18637818 0.086413704 0.23132056 -0.018213166 0.04264948 -0.022044923
-0.02384533 0.02628446 0.046498362 -0.028527532 -0.060190972 -0.067229815 0.045705743 0.03885328
-0.100007236 -0.08592047 0.027617594 -0.026490519 0.004216651 -0.027905367 0.12847301 0.12987709
-0.0068090246 0.1348514 -0.02155016 -0.11945863 0.25477907 0.16878423 -0.085501485 0.0087020565
0.034537755 0.052666727 -0.02815088 -0.09466415 0.015493511 -0.020302577 0.004767082 0.040692948
0.060221344 -0.12560093 0.05967377 0.007090048 -0.0007130701 0.09328309 -0.0756471 -0.081585415
-0.052657478 -0.0215386 -0.08649949 -0.0076047177 -0.16474079 0.0027249216 0.06550105 0.016552793
-0.027454771 -0.07323855 -0.02623678 -0.05934954 -0.05098305 0.013387954 -0.021336798 0.0379782
0.011556077 -0.03700683 0.03255892 0.033168968 0.002863226 0.06071463 -0.014032597 0.13940927
-0.0733565 -0.12510273 0.0139850285 0.014794244 0.0419917 0.011769292 -0.07811831 -0.0013401393
0.12937199 0.021745823 -0.14461955 -0.009630873 -0.25639322 0.10917875 0.11783683 0.074150145
-0.080763325 0.00627562 0.11359772 0.07875671 -0.108637676 0.0809271 0.14875372 0.061707236
0.1362366 0.04343012 0.043349016 0.037425425 0.1525318 -0.036940545 -0.12897925 0.04978739
-0.053791452 -0.00085451873 -0.007716155 0.14170772 0.02375031 -0.044356897 0.0502838 0.067005396
0.053509526 -0.001958395 0.02518248 0.11212113 0.020431703 0.019343784 0.019502461 0.0056182416
0.03816682 -0.040386014 0.14072536 -0.0023807047 -0.003390183 0.011194983 0.029687792 -0.0069202813
0.029409109 0.09491195 0.029459585 0.060761705 0.082890406 0.003650286 0.020862043 0.0037551776
-0.2601555 0.010304818 -0.18620384 0.041007552 -0.0537418 -0.010307247 0.007926737 0.074471906
0.01937296 0.055392597 0.07904988 0.068576835 0.12581423 -0.025661044 -0.05432133 0.068861626
0.039525576 0.08575171 -0.03334412 0.11468927 0.03537231 -0.029436095 0.054869752 -0.06066597
-0.22600372 -0.16825855 -0.25032485 0.046365555 0.01567941 0.042856943 -0.049257636 0.121215776
-0.66834474 0.046290137 0.029848943 -0.048314802 0.015709588 -0.33178356 0.07528591 -0.10276247
00000000: 86b3 a33d 470e aa3c 529b 333d 29a7 18be
00000010: b65c 8fbd 668b 0ebe 1844 c53c f057 a0bd
00000020: d312 99bc 4755 06bb 62d6 e93d aff8 6b3d
00000030: 2bbc 393d 1267 3f3d 12f3 89bc a727 9e3d
00000040: 0efd 403b 3718 44bd 0793 22bd 1662 0cbd
00000050: 8fb7 88be b43a 433d 40ac 0f3e 8aec 423d
00000060: 6cee 863b 6511 cfbc dc03 0f3c cc52 32bc
00000070: 4721 63bb f094 3e3d 2542 f6bd 3181 3abc
00000080: db8a 2a3c 578f c73d 942e 953d c31d dc3d
00000090: 4339 0d3e 779c 78bc a757 22bd 61b1 f43d
000000a0: c69e fb3c 2496 44be 8a11 f43d ebb8 2f3d
000000b0: 04c6 3b3d 2151 303b c71a 583d 30ee 733d
000000c0: 9869 3bbc 6c52 94bb 077d 9f3d 98c4 38bd
000000d0: 5795 8f3d 6b7e 0e3d 723f 423d 4a39 f9bb
000000e0: 4a71 84be 2239 873b cc1e 543d a521 ab3c
000000f0: 9930 6d3c 8bf6 9bba 46e0 94bb c19e d2bd
00000100: 5fca 5bbd 9568 303d 505a bb3c f87e 843d
00000110: d3a7 a7bc af1e 083d eade 73bd 51ce 2fbe
00000120: 4adf 1c3d e223 c23d 2f11 3d3e 69cb 28bd
00000130: d505 77be fd17 6c3c c615 dd3d 0913 9a3c
00000140: 9100 0dbe 7bd1 a9bc ecd9 3e3e abf9 b03d
00000150: 4cdf 6c3e c733 95bc 39b1 2e3d 8e97 b4bc
00000160: 4857 c3bc 8252 d73c 1175 3e3d 92b2 e9bc
00000170: cf8a 76bd c9af 89bd f235 3b3d 9e24 1f3d
00000180: 98d0 ccbd 12f7 afbd 4b3e e23c a502 d9bc
00000190: d52b 8a3b cc99 e4bc 6e8e 033e 80fe 043e
000001a0: 3d1e dfbb 7c16 0a3e f689 b0bc baa6 f4bd
000001b0: 6772 823e c6d5 2c3e 671b afbd 1293 0e3c
000001c0: 7677 0d3d 11b9 573d ad9c e6bc 47df c1bd
000001d0: 7fd8 7d3c 9751 a6bc 2f35 9c3b a6ad 263d
000001e0: a8aa 763d 889d 00be 7c6c 743d a253 e83b
000001f0: 53ed 3aba 340b bf3d deec 9abd 4116 a7bd
00000200: 5eaf 57bd b871 b0bc a526 b1bd ff30 f9bb
00000210: cfb1 28be 9994 323b 6a25 863d b999 873c
00000220: d4e8 e0bc 18fe 95bd 84ee d6bc 8118 73bd
00000230: 9ad3 50bd 2659 5b3c 82ca aebc 078f 1b3d
00000240: b355 3d3c 7994 17bd 815c 053d 2fdc 073d
00000250: f6a4 3b3b e7af 783d fae8 65bc 4ec1 0e3e
00000260: ef3b 96bd ee1a 00be 7621 653c 8f63 723c
00000270: 7dff 2b3d fdd3 403c 7efc 9fbd 9da7 afba
00000280: 177a 043e 4c24 b23c 2617 14be cfca 1dbc
00000290: f945 83be 1c99 df3d 7054 f13d 08dc 973d
000002a0: 3e67 a5bd b7a3 cd3b eca5 e83d 334b a13d
000002b0: 6e7d debd 1bbd a53d e552 183e bac0 7c3d
000002c0: 9b81 0b3e c8e3 313d bd8e 313d 674b 193d
000002d0: 4c31 1c3e f84e 17bd 2313 04be dded 4b3d
000002e0: 6d54 5cbd c801 60ba cdd7 fcbb d41b 113e
000002f0: 0390 c23c 94af 35bd 63f6 4d3d 203a 893d
00000300: ce2c 5b3d 6a58 00bb 7d4b ce3c c39f e53d
00000310: 6360 a73c db76 9e3c a0c3 9f3c 3a19 b83b
00000320: d054 1c3d ce6b 25bd 4f1a 103e 9905 1cbb
00000330: d52d 5ebb 296b 373c d033 f33c 87c3 e2bb
00000340: 5feb f03c 3261 c23d 3a55 f13c 44e1 783d
00000350: 72c2 a93d a339 6f3b e0e6 aa3c 6d19 763b
00000360: 1a33 85be 8ad5 283c 38ac 3ebe 89f7 273d
00000370: 5d20 5cbd badf 28bc 25df 013c ba84 983d
00000380: 0bb4 9e3c 59e3 623d e7e4 a13d 0372 8c3d
00000390: 72d5 003e 1c37 d2bc 0b80 5ebd 5307 8d3d
000003a0: 92e5 213d 989e af3d d893 08bd 35e2 ea3d
000003b0: 8ee2 103d f723 f1bc 1bbf 603d e17c 78bd
000003c0: 856d 67be f84b 2cbe 942a 80be cfe9 3d3d
000003d0: 1b72 803c c38a 2f3d 60c2 49bd fa3f f83d
000003e0: a418 2bbf ba9a 3d3d c585 f43c bee5 45bd
000003f0: 65b1 803c 89df a9be 802f 9a3d 2175 d2bd

fc2.bias f4 [300]
-0.022815961 -0.014487835 -0.0030400874 0.035230882 0.006766261 0.06413448 -0.017903224 -0.0570344
-0.057439875 0.0068160095 -0.018188445 0.032281406 -0.06578905 0.033325564 0.015127887 0.030322878
0.026917148 -0.01947739 -0.006727438 -0.032629326 -0.019344633 0.009392367 0.002433351 0.045086514
0.00038305987 -0.0109800575 -0.06629716 -0.01899918 -0.018791934 -0.0011920885 -0.011290316 -0.020843372
-0.034551866 0.0071480838 0.0023572962 -0.051858217 -0.051526472 0.050810814 -0.0046056174 -0.0038661512
-0.055419873 0.04313804 0.05039864 0.02505764 -0.023344548 -0.04853555 0.021221815 -0.05851797
0.04268751 0.061718 -0.028274028 0.031361002 -0.014141944 -0.021298464 -0.046790473 -0.024459945
-0.047199436 0.002066796 0.010301692 -0.025264796 -0.0406963 -0.031511936 -0.04413731 0.032279577
-0.039223567 0.020254709 0.06792939 -0.022545997 0.026376408 -0.07209994 0.04853986 0.0694089
-0.027769102 0.00067536446 0.033071697 0.017718695 -0.049776178 -0.0023344161 0.05196521 0.0129784485
0.027906962 -0.003107769 -0.025966104 -0.024360966 0.022376254 0.033093203 -0.044521075 0.03756838
-0.01684101 0.05889887 -0.048774492 -0.055993024 0.031005578 0.052540664 -0.004981473 0.0003192178
0.051539462 0.049547207 -0.024589244 -0.07299497 -0.030876223 0.04777492 0.05481033 0.035412543
0.017006317 -0.03036652 0.051955476 -0.008927308 0.030198967 0.06542421 -0.037490677 -0.016757956
0.013496057 -0.031083355 0.0024288318 -0.013723152 0.026527578 0.021557394 0.044643138 -0.004122166
-0.014953812 -0.020084236 0.031560276 -0.013022814 -0.009971774 0.05108129 0.072227344 0.0038835746
0.014359255 -0.050114628 -0.029772624 0.036732245 -0.05868846 0.045461357 0.042857885 -0.024700794
-0.02598445 0.03478388 0.029369842 -0.01983455 0.043146316 0.016104704 -0.043534167 -0.021404296
0.0103751235 -0.026947415 0.0095963515 -0.017015906 0.012524193 0.026334945 0.018327035 0.0012634099
0.020413527 -0.05036633 0.05344897 0.034590714 0.009011829 0.017991455 0.017851641 0.04579047
-0.01371023 0.07514772 -0.0004419437 -0.030104686 0.03834647 0.008589105 0.066907726 -0.011304733
-0.052958984 0.011554339 -0.04383993 0.003493646 -0.01864702 -0.0024409406 0.04278097 -0.01305792
0.008136655 -0.0020041778 -0.0367519 0.06517503 0.058846645 0.05663588 0.038817734 0.013984138
-0.0077146664 0.00392982 0.0663271 -0.064463615 0.03330464 -0.009832635 -0.00410315 0.031807937
0.051794074 -0.0040687798 -0.036571227 0.032601163 -0.012123243 0.016821599 -0.041248146 -0.010720352
0.03930866 -0.0020440018 0.010943933 -0.038628567 0.014593336 0.019408425 -0.051987894 0.06252413
0.0071660853 0.045232307 -0.04457142 0.010422978 0.038781945 0.0059926035 0.015528354 -0.0028223288
0.0072422433 -0.04413424 -0.05552637 -0.045121223 0.031390946 0.04424263 0.016593475 0.030620916
-0.032673858 -0.042057164 -0.021181425 -0.02787211 0.031284768 0.04585999 0.065059185 0.047438823
0.028695147 0.06595242 0.019627774 0.050849166 0.039347492 0.008502938 0.0321564 -0.010362938
-0.02733887 -0.046072543 0.07228054 0.017106496 0.040037036 -0.01596595 -0.049394596 -0.05983856
0.052597094 0.024444956 -0.043785833 0.014953002 0.018435186 -0.01188159 0.044642955 -0.010335782
00000000: 8ae8 babc 625e 6dbc 343c 47bb 424e 103d
00000010: 83b7 dd3b f058 833d c8a9 92bc e79c 69bd
00000020: 1346 6bbd d558 df3b efff 94bc 8239 043d
00000030: 69bc 86bd 6380 083d f5da 773c af67 f83c
00000040: 5a81 dc3c 0c8f 9fbc d771 dcbb 54a6 05bd
00000050: a378 9ebc 71e2 193c db78 1f3b a3ac 383d
00000060: 6dd5 c839 b3e5 33bc cec6 87bd 2ba4 9bbc
00000070: 8bf1 99bc da3f 9cba 04fb 38bc b8bf aabc
00000080: 4286 0dbd 793a ea3b de7c 1a3b 4869 54bd
00000090: 6c0d 53bd 001f 503d b8ea 96bb 415f 7dbb
000000a0: f3ff 62bd 83b1 303d ce6e 4e3d ae45 cd3c
000000b0: 113d bfbc 36cd 46bd 5fd9 ad3c 8ab0 6fbd
000000c0: 19d9 2e3d 03cc 7c3d ef9e e7bc 6574 003d
000000d0: 9db3 67bc 1e7a aebc 5ea7 3fbd 3960 c8bc
000000e0: 3254 41bd 1573 073b 6ec8 283c 1ef8 cebc
000000f0: 2ab1 26bd a912 01bd 53c9 34bd 9737 043d
00000100: e4a8 20bd 34ed a53c 901e 8b3d 62b2 b8bc
00000110: 5613 d83c 22a9 93bd bbd1 463d 4126 8e3d
00000120: 077c e3bc f10a 313a 3076 073d cc26 913c
00000130: 1be2 4bbd 01fd 18bb 79d9 543d 8fa3 543c
00000140: 249d e43c b6ab 4bbb deb6 d4bc a690 c7bc
00000150: 684e b73c bd8c 073d bb5b 36bd 4de1 193d
00000160: 28f6 89bc f13f 713d c3c7 47bd f158 65bd
00000170: 69ff fd3c e134 573d a03b a3bb b05c a739
00000180: 0b1b 533d 03f2 4a3d 626f c9bc 637e 95bd
00000190: 22f0 fcbc a2af 433d cc80 603d be0c 113d
000001a0: d550 8b3c 35c3 f8bc 44cf 543d d843 12bc
000001b0: d363 f73c 21fd 853d d38f 19bd fb47 89bc
000001c0: 911e 5d3c 85a2 febc 092d 1f3b 12d7 60bc
000001d0: 5d50 d93c 2299 b03c b9db 363d 3c13 87bb
000001e0: d500 75bc b287 a4bc 5945 013d a45d 55bc
000001f0: a760 23bc 9d3a 513d eeeb 933d 9283 7e3b
00000200: 1543 6b3c ff44 4dbd b8e5 f3bc 8d74 163d
00000210: 5063 70bd b035 3a3d c08b 2f3d 5259 cabc
00000220: 57dd d4bc 8b79 0e3d 0699 f03c 117c a2bc
00000230: 31ba 303d 03ee 833c e250 32bd 1058 afbc
00000240: 6cfc 293c d3c0 dcbc 043a 1d3c f164 8bbc
00000250: 4632 4d3c 62bc d73c 9422 963c 0099 a53a
00000260: 453a a73c ed4c 4ebd 4fed 5a3d feae 0d3d
00000270: 5aa6 133c d162 933c 9b3d 923c ca8e 3b3d
00000280: dfa0 60bc 0ce7 993d aeb4 e7b9 1a9e f6bc
00000290: 3011 1d3d 51b9 0c3c eb06 893d 7d37 39bc
000002a0: 85eb 58bd 694e 3d3c 8091 33bd a7f5 643b
000002b0: a3c1 98bc 30f8 1fbb 193b 2f3d e3f0 55bc
000002c0: 9b4f 053c 8658 03bb 2989 16bd 7c7a 853d
000002d0: 2e09 713d 06fb 673d 58ff 1e3d ba1d 653c
000002e0: 50cb fcbb b8c5 803b 81d6 873d 8005 84bd
000002f0: 726a 083d 0f19 21bc b873 86bb 0a49 023d
00000300: 0626 543d 6653 85bb b6cb 15bd cc88 053d
00000310: 91a0 46bc 73cd 893c d1f3 28bd 6aa4 2fbc
00000320: 1e02 213d a9f4 05bb 2f4e 333c fd38 1ebd
00000330: e318 6f3c 6bfe 9e3c 42f1 54bd a70c 803d
00000340: 7bd1 ea3b 8345 393d 8590 36bd 23c5 2a3c
00000350: d1d9 1e3d 9a5d c43b a36a 7e3c d2f6 38bb
00000360: 5750 ed3b 1bc6 34bd 9e6f 63bd 08d1 38bd
00000370: cb93 003d c337 353d 0aef 873c b7d8 fa3c
00000380: 06d5 05bd 2244 2cbd ab84 adbc 0d54 e4bc
00000390: 7524 003d afd7 3b3d c03d 853d 364f 423d
000003a0: 1612 eb3c 1012 873d 6dca a03c 3747 503d
000003b0: d62a 213d e84f 0b3c 6eb6 033d 50c9 29bc
000003c0: c4f5 dfbc 90b6 3cbd d207 943d ec22 8c3c
000003d0: e0fd 233d 06cb 82bc fd51 4abd 4719 75bd
000003e0: 0d70 573d ca40 c83c c658 33bd 70fd 743c
000003f0: 6305 973c 00ab 42bc 88db 363d 6957 29bc

fc3.weight f4 [1, 300]
-0.117379524 0.098907456 -0.01855398 0.057690058 0.3256361 -0.07484958 0.06372405 0.35893056
0.03009574 0.6321868 0.092687875 -0.08641507 -0.1686009 -0.2077474 -0.049062356 0.089287296
0.045348976 -0.023059418 -0.069352195 -0.024108438 -0.033358812 0.60645765 -0.05355002 -0.048419394
0.08543774 -0.04177073 0.54461664 0.067282796 -0.082300454 -0.05531965 0.6112502 -0.04021325
0.05599758 0.285693 0.08157951 0.013510534 0.22616528 -0.0076545877 0.012042283 -0.009354854
0.27049908 0.04765482 -0.07865003 -0.030039348 -0.005870672 -0.027221464 0.0019483758 -0.010960462
0.05294307 0.079622194 0.0048595727 -0.060903225 0.07560144 0.092024915 0.11558647 -0.031648945
-0.20976125 -0.043979276 0.054049667 0.8957427 0.12535954 0.84287643 0.025124874 -0.014457745
-0.04787547 0.081828155 -0.216906 -0.053928845 -0.17744102 -0.0309746 -0.027322028 0.1101761
-0.19160739 -0.052069418 -0.05222858 -0.0048670582 0.82801074 -0.039483257 0.10890384 -0.048667584
0.8214377 0.37437913 -0.06104741 -0.056337297 0.025602726 0.13679317 0.32298955 -0.0332518
-0.0375643 0.13991158 -0.040330328 0.00428019 0.3337718 0.09542561 0.6056288 -0.05456393
0.07443525 0.0700067 -0.0032206427 0.72463983 0.10169831 -0.0009921391 -0.073749825 -0.13992035
-0.017511507 0.015437831 0.07074643 -0.033357516 -0.035515223 0.07640789 -0.003327785 -0.050529674
0.056547876 -0.0753735 0.7967721 -0.10879143 -0.018533032 0.098804936 -0.06648009 -0.05228927
-0.02009047 0.37666157 -0.06858017 -0.10907155 0.0818144 0.072970174 0.10253779 0.37634167
-0.015739614 -0.04148901 0.660436 0.091726825 -0.000481528 -0.21436878 -0.021884298 -0.008354625
-0.03850182 -0.3675413 0.10178489 0.07647465 0.00019445273 -0.0519766 -0.022826506 -0.08693687
0.09617904 0.08559636 0.2752118 -0.22285864 -0.0844918 0.0814919 -0.012912919 -0.00994424
-0.045829147 -0.016236037 0.080903344 0.0512268 -0.026802855 0.07367907 -0.032037105 -0.06639169
-0.054480296 0.07688535 -0.10500115 -0.0054126433 0.75870365 0.09472894 0.09013535 -0.23514742
-0.036335275 -0.098137744 0.012279413 -0.016711524 0.0867914 -0.026249187 0.081984386 -0.0029315616
-0.0674966 -0.030436138 -0.032839254 0.09816933 0.05457098 0.052984204 -0.007723138 -0.05156047
0.14798774 -0.09807486 0.049301036 0.6402245 -0.11098212 0.014408748 0.047849093 -0.096395165
-0.05080043 0.087439805 -0.042575177 0.11832702 0.09110656 0.087930724 0.085944265 -0.048332766
-0.050312627 0.023115935 0.053838387 -0.02938127 -0.04164103 0.056528423 -0.053196 -0.09833059
0.08856038 -0.01997579 -0.051310927 -0.046257265 -0.030348744 -0.26935446 -0.015895916 -0.017777454
1.1463093 0.96715987 0.30528384 0.047339253 -0.072722524 0.593284 -0.03670119 0.081482455
-0.16887805 0.29809967 0.08699905 0.24774791 0.14019495 -0.047569945 -0.08923887 0.10642653
0.08312091 0.09290377 -0.06202725 -0.073194 -0.23364322 0.031573202 -0.12206022 0.08069009
0.67515236 -0.061627064 0.13946363 0.22433226 -0.091142304 0.034410536 -0.05590154 -0.0037804646
-0.022617312 0.19235963 0.07229823 0.0936967 -0.12144631 0.13609283 0.49917632 0.21512537
00000000: ad64 f0bd fe8f ca3d 84fe 97bc 694c 6c3d
00000010: c6b9 a63e bd4a 99bd c181 823d bfc5 b73e
00000020: 578b f63c fed6 213f 24d3 bd3d 62fa b0bd
00000030: b7a5 2cbe bcbb 54be 9cf5 48bd 42dc b63d
00000040: d9bf 393d 1be7 bcbc 8608 8ebd 0f7f c5bc
00000050: 40a3 08bd cf40 1b3f 4457 5bbd 6a53 46bd
00000060: fbf9 ae3d c917 2bbd ff6b 0b3f 90cb 893d
00000070: 248d a8bd db96 62bd e57a 1c3f a6b6 24bd
00000080: b85d 653d 5a46 923e 2813 a73d 495b 5d3c
00000090: df97 673e 56d3 fabb ff4c 453c 1a45 19bc
000000a0: db7e 8a3e b331 433d 4413 a1bd 1415 f6bc
000000b0: c45e c0bb 8cff debc a560 ff3a 8293 33bc
000000c0: d5da 583d f610 a33d 0d3d 9f3b a975 79bd
000000d0: eed4 9a3d 8f77 bc3d 99b8 ec3d 53a2 01bd
000000e0: a7cb 56be 9d23 34bd 2f63 5d3d 654f 653f
000000f0: 405e 003e c0c6 573f aed2 cd3c 2de0 6cbc
00000100: 1219 44bd 8595 a73d 9b1c 5ebe 7ee4 5cbd
00000110: 19b3 35be 72be fdbc 72d2 dfbc 02a4 e13d
00000120: ba34 44be be46 55bd a3ed 55bd d87b 9fbb
00000130: 83f8 533f 32b9 21bd fa08 df3d a957 47bd
00000140: be49 523f 9fae bf3e d90c 7abd f0c1 66bd
00000150: cfbc d13c 8213 0c3e e35e a53e 0a33 08bd
00000160: 06dd 19bd fb44 0f3e 6a31 25bd d640 8c3b
00000170: 23e4 aa3e 816e c33d 7d0a 1b3f 6d7e 5fbd
00000180: 8271 983d ac5f 8f3d 6b11 53bb ff81 393f
00000190: 3447 d03d aa0a 82ba 260a 97bd 4847 0fbe
000001a0: 4b74 8fbc f5ee 7c3c 81e3 903d e4a1 08bd
000001b0: 6978 11bd bd7b 9c3d f816 5abb 34f8 4ebd
000001c0: bf9e 673d 6c5d 9abd 42f9 4b3f 0bce debd
000001d0: 96d2 97bc 3e5a ca3d b726 88bd 462d 56bd
000001e0: c594 a4bc c9d9 c03e c373 8cbd e860 dfbd
000001f0: 4f8e a73d 6371 953d 55ff d13d dbaf c03e
00000200: 5df0 80bc 61f0 29bd 5512 293f 46db bb3d
00000210: 9875 fcb9 7d83 5bbe b346 b3bc d6e1 08bc
00000220: 16b4 1dbd 602e bcbe 9974 d03d be9e 9c3d
00000230: 02e6 4b39 6ae5 54bd a7fe babc f50b b2bd
00000240: 84f9 c43d 254d af3d 90e8 8c3e 0e35 64be
00000250: 090a adbd 3ae5 a63d b590 53bc 2aed 22bc
00000260: 58b7 3bbd 7001 85bc a7b0 a53d 31d3 513d
00000270: a991 dbbc 0de5 963d 5739 03bd 5ef8 87bd
00000280: bb26 5fbd 1176 9d3d d80a d7bd 8b5c b1bb
00000290: 673a 423f 3f01 c23d e298 b83d 7cca 70be
000002a0: 4cd4 14bd 71fc c8bd 972f 493c 9be6 88bc
000002b0: b1bf b13d 8908 d7bc 6ee7 a73d 711f 40bb
000002c0: a83b 8abd 3555 f9bc 7482 06bd 000d c93d
000002d0: d285 5f3d f705 593d 6112 fdbb 1231 53bd
000002e0: 198a 173e 79db c8bd e2ef 493d c1e5 233f
000002f0: 984a e3bd ab12 6c3c 69fd 433d d46a c5bd
00000300: 1d14 50bd a413 b33d 4f63 2ebd 7055 f23d
00000310: 1396 ba3d 0615 b43d 8c03 b03d 94f8 45bd
00000320: 9d14 4ebd a15d bd3c a485 5c3d fdb0 f0bc
00000330: c98f 2abd 598a 673d 0de4 59bd 8c61 c9bd
00000340: 255f b53d 45a4 a3bc 682b 52bd 4278 3dbd
00000350: ee9d f8bc d4e8 89be 2738 82bc 06a2 91bc
00000360: 43ba 923f ca97 773f 2a4e 9c3e cee6 413d
00000370: 8cef 94bd 76e1 173f fd53 16bd 46e0 a63d
00000380: 5eee 2cbe 85a0 983e 8f2c b23d a1b1 7d3e
00000390: 448f 0f3e b4d8 42bd dec2 b6bd 27f6 d93d
000003a0: 4c3b aa3d 5544 be3d 4910 7ebd bce6 95bd
000003b0: 2b40 6fbe e752 013d b5fa f9bd d940 a53d
000003c0: c9d6 2c3f a96c 7cbd 8ecf 0e3e 5bb7 653e
000003d0: d1a8 babd 10f2 0c3d 03f9 64bd acc1 77bb
000003e0: f147 b9bc ecf9 443e 1811 943d 0ee4 bf3d
000003f0: d8b8 f8bd eb5b 0b3e 0a94 ff3e d349 5c3e
