save/lsqmobilenetv2_cifar100_ratio0516bit26rs0/critic.pkl (torch, 380421 bytes, 7 tensors)

fc11.weight f4 [300, 10]
00000000: 7f3b 2bbe 5d69 e23e 1166 7dbe cc29 00be
00000010: 56a5 c4be dae2 ecbe 99d5 0fbf df8f c6bb
00000020: c180 8ebe aa21 b2be fa39 47be a015 89be
00000030: 7d19 933e 9d36 723d cf93 553e 4df2 7a3d
00000040: 74c9 a73d 2569 be3d 0025 1ebe 41a8 8cbe
00000050: 2426 4b3e 5981 91bd e766 0ebc e085 193d
00000060: 4268 993e 8720 f1bc bd9d 30be c10d 16be
00000070: 55a1 c5bd 8333 603e 0021 233e e3b2 58bc
00000080: c39d 6fbe 4776 a2ba 1abd 4c3e cd7b 2f3e
00000090: 181f 523d 8c4e fc3d bb69 b3bd 7a3e f23d
000000a0: db34 22be a216 a23e 2458 10be ace7 38bc
000000b0: a763 67bd 4dd1 54bf f7fb 30be 2d0f 30be
000000c0: f048 56be 9504 a93d b04e 533e ab1f 3f3e
000000d0: a349 b0be 49bc 233e 7d2e 303d f167 35be
000000e0: 75c3 e9be f781 6ebe 41a1 4bbe b927 d33e
000000f0: 740d 843e 46ae 613e dee2 9dbe 66a7 a6bd
00000100: cc95 8b3d 73b1 033d 5706 0cbd 5b69 613d
00000110: 13e0 853e d3a4 d93c 2a59 183e 8217 f53d
00000120: dc5f 8abe 1f83 04be 6d1b 923d 8e34 8abf
00000130: 806a 803e 8284 b1be 1fa5 733d af25 f6bd
00000140: 4188 87be 1365 11be c4ad d13c 9c1c 8cbe
00000150: e602 45be c369 9bbe d1c0 1d3c 387f 54be
00000160: c4dd 89bd 5c19 46be dfdf 0bbe 61aa bf3d
00000170: 1f59 823d 6db7 0e3e 0291 61bd dd51 523e
00000180: 5220 2c3e c8df c9bc 523b 3d3e 7a07 a5bc
00000190: 0d6a 8abd 3d27 353e bcf8 8a3e 5b55 33bd
000001a0: ecd1 2fbd 85c2 68be aaaa 513e a492 a9bc
000001b0: c91f 8cbe 7bd7 a93d 78c8 9a3d 3066 da3d
000001c0: 318f a0be 9ce3 903d e484 00be d823 e03e
000001d0: 62ce bc3d 8d67 5c3d 1827 b3bd e649 743e
000001e0: 8fc1 273e db15 743e b1e4 febd aafe 133e
000001f0: 1aae 2fbe e328 423e dfaf a13e f219 98be
00000200: a059 8abe ea33 903d a718 97bd 5662 1e3e
00000210: 1171 e4bd b1f1 25be 44ae 7fbe e1af 4dbf
00000220: 554e fabd 67c8 0ebf aa94 17be f2c7 e8bd
00000230: f7e9 db3d 5bbb b7be b824 59bd 64f5 5cbe
00000240: 0350 96be 5fbe 24be 364d 7bbe 9546 183f
00000250: 9f43 e9bc ed7f 513e ee4f ffbd e984 5fbc
00000260: 83c9 0bbe 3aa2 0e3e e3c2 293c 14af 74bf
00000270: d941 5abe 3e0d 36bf 2e3c 0abd 7393 33bd
00000280: cbf2 6e3e 23d7 9c3e 1037 9d3e cab1 c63c
00000290: 604a 89be bb1c fdbc c0ac 9cbb 5caf 9ebe
000002a0: a773 383e 4fde 58be b84f 763c 9fb2 4a3d
000002b0: c90c 80be 18e2 503d c022 77be b556 393e
000002c0: da0b 99bd 92e9 4c3e 13c6 cebe 44c0 92be
000002d0: 6bba 5a3e 1e90 e7be f75a 9e3d 334c 0dbf
000002e0: d467 12be 3962 61bf 07af 86be ad29 84be
000002f0: a7a4 88be c1c6 a8bd 646a e9bd cad2 17be
00000300: b269 813d db55 3c3e 8989 debd e92f f23e
00000310: 7918 2fbf 4234 ae3e 1f95 4f3e 9d77 d73d
00000320: e8ef ca3d 2e72 b6be d01f 15bf cb3b 463e
00000330: 134b 33be 8ea8 c23e 91cf e13d 22f3 e03e
00000340: 6768 f1be 03d5 5e3e 326c 91be a443 a13e
00000350: b503 553d 198f 003e cb03 9dbe 98fd babd
00000360: 6262 22be 429b c0be 833a 0fbe 9cb4 bfbb
00000370: 667e 4c3e 4a5e 1dbe 78bb 74be 3adf bcbc
00000380: 62ea 95be 5830 f5bd 2365 403e d8d1 15bd
00000390: 48ee 8f3e 6b25 88bd 9b3f 7c3d 3eff 05be
000003a0: d76a 4a3e 4850 983e e2b4 2e3e 67f2 fa3d
000003b0: 0bd2 ccbd 4ea0 87bc 7c60 003d 1119 3fbd
000003c0: 9dd0 65be 42b4 ae3e c107 72be 5066 0a3d
000003d0: 3731 e23d 0cd5 9abe c993 1cbe 5a53 f6be
000003e0: 7e33 a8be 2bb4 5fbe 2d6d eb3d 3739 b4bd
000003f0: 3080 3abe dc81 8fbd b226 2a3e ec4f 77bd
-0.16721915 0.4422101 -0.24745966 -0.12515944 -0.3840739 -0.46266824 -0.561853 -0.0060596312
-0.27832606 -0.3479131 -0.1945571 -0.2677431 0.28730384 0.059134115 0.20857166 0.061266232
0.08192721 0.092973985 -0.15443802 -0.27472118 0.19838768 -0.07104749 -0.008691526 0.03748119
0.29962355 -0.029434456 -0.17247672 -0.14653684 -0.09649912 0.2189465 0.15930557 -0.013226244
-0.23400025 -0.0012394869 0.19994012 0.1713707 0.051299185 0.12319669 -0.08760401 0.11828323
-0.15840475 0.31657892 -0.14096123 -0.011285704 -0.05649152 -0.8313187 -0.17283617 -0.17193289
-0.20926261 0.08252827 0.20635486 0.18664424 -0.3443118 0.15989794 0.043013085 -0.17715432
-0.45656934 -0.23291765 -0.19885732 0.41241243 0.25791514 0.22039136 -0.30837148 -0.081373975
0.06815681 0.03215165 -0.034185734 0.055032115 0.26147518 0.026567852 0.14877763 0.119673744
-0.2702626 -0.12940644 0.07134137 -1.0797288 0.25081253 -0.34671408 0.059483644 -0.12018906
-0.2647114 -0.14198713 0.025595553 -0.27365577 -0.19239387 -0.30354127 0.009628491 -0.20751655
-0.067317516 -0.19345611 -0.13659619 0.09358669 0.06364655 0.13937159 -0.05506993 0.20539041
0.16809204 -0.02464284 0.1847966 -0.020145167 -0.06758509 0.1769075 0.27142894 -0.043782573
-0.042924806 -0.22730453 0.2047526 -0.020699807 -0.27368 0.08293053 0.07557768 0.10664022
-0.31359246 0.07074663 -0.12550694 0.43777347 0.09219052 0.05380969 -0.08747691 0.23856315
0.1638243 0.23836462 -0.12445963 0.14452615 -0.17156258 0.1896091 0.31579491 -0.29707295
-0.27021503 0.07041152 -0.07377749 0.154672 -0.11154378 -0.16205479 -0.24968821 -0.80346495
-0.12221972 -0.5577454 -0.14802805 -0.113662615 0.10737985 -0.35885128 -0.053013533 -0.21577984
-0.2935792 -0.16088246 -0.24541172 0.594827 -0.028474627 0.20458956 -0.12466417 -0.013642528
-0.1365109 0.13929072 0.010361406 -0.9557965 -0.21314181 -0.71113956 -0.033748798 -0.04384179
0.23334806 0.30632886 0.30706072 0.024254698 -0.26814556 -0.030897489 -0.0047813356 -0.30993164
0.18012868 -0.21178554 0.015033655 0.049486753 -0.25009754 0.05099687 -0.2413435 0.18099482
-0.07472964 0.20010975 -0.40385494 -0.28662312 0.21360175 -0.4522714 0.07732194 -0.55194396
-0.1429742 -0.880405 -0.2630541 -0.25813046 -0.2668812 -0.08241034 -0.113972455 -0.14826503
0.06318988 0.18392126 -0.108660765 0.47302178 -0.6839672 0.34024245 0.20271729 0.10520861
0.0990904 -0.35633987 -0.5825167 0.19358747 -0.17509107 0.38019222 0.11025918 0.43935496
-0.47149965 0.21760945 -0.2840286 0.31496918 0.05200549 0.12554587 -0.30666956 -0.091304004
-0.15857843 -0.37618452 -0.13987164 -0.0058503877 0.19970092 -0.15368 -0.23899639 -0.023055661
-0.29280382 -0.119721115 0.1878858 -0.036577076 0.28111482 -0.06647762 0.061584096 -0.13085648
0.19767319 0.2974875 0.17061189 0.12253266 -0.10001 -0.016555931 0.031342015 -0.046654765
-0.22442861 0.341219 -0.2363577 0.03378898 0.11044543 -0.30240667 -0.1529075 -0.48110467
-0.32851785 -0.21846072 0.11495433 -0.08799975 -0.18212962 -0.070071906 0.16616324 -0.060378954

fc11.bias f4 [300]
00000000: 0aba 0fbd 0fc1 483d 924b 4e3d 368c 42bd
00000010: 1df9 723d fa43 bb3e 28d1 333e 1af8 733e
00000020: 8737 c93c 86b7 753e 8e5d 893c 8090 a0bd
00000030: 80c6 54be 0473 42be af37 f9be 71db 863d
00000040: 8145 973e 3f7a 053e 1c59 a1bd ba1e 8cbd
00000050: db8b 6bbe cf14 b93b 7258 813d 889b ecbd
00000060: 62f9 e5bb cac7 4dbd 6aa9 76be c5b3 413d
00000070: ba37 413e 6418 0b3d 1555 513c e337 89be
00000080: 15bb 1d3e 75be 2f3d f6e8 a33d 6ae5 4b3e
00000090: 51be 133e 4ef4 0f3d 4881 68be f24f 283e
000000a0: f0af f6be 54db 8e3e 2b0a 1f3e ae81 913d
000000b0: 19b5 7abb 1c70 aabe 87f5 b1be dc39 043e
000000c0: 38d0 7bbd 384f 4bbd 1cba 21be db1c 3e3c
000000d0: aa91 a03d 876e 9cbe 168c cf3d ab20 033d
000000e0: bf73 1dbe 7b8c 97bd 7e84 a4be dbd9 403e
000000f0: afaa 3cbe 0f26 d1bb dfff 08be b1ab f8bd
00000100: 6dc0 76be db14 363e 301e af3d bd59 8c3d
00000110: 761b 66bd 38a9 c1bc f3cf 46be bd65 be3e
00000120: 091f 0c3e 5e9a afbe 6c99 893e 6402 d33d
00000130: 064f b33d a91b c9bb 24cf 96bc 2f15 f6bd
00000140: ba06 5ebe db59 903e 631e 2d3e a1f9 41bd
00000150: 9f4c a6bd 100c 22be 06d4 963d 3bdb a5bd
00000160: 74ed 6c3d dc8c 863e 62c9 17bf c2b9 99be
00000170: eb89 30be 9c9e 83bb af10 6b3e c3f5 a9be
00000180: 5f35 f23d 4515 31be e8cf 74be 6867 8e3d
00000190: d96e 393d d870 1b3e 969f 06be 5c52 afbe
000001a0: ab8c 1abe cc65 6ebe c9ba 55be 5a9d 3bbb
000001b0: d5b1 abbe b79f 0cbf d4c4 8e3a 66b5 c5bd
000001c0: 3f3b 2cbe 54bc 4d3e 076f fdbe bd10 59be
000001d0: 0f1d 2e3e ff77 c1be a101 b0be 1958 013e
000001e0: e838 903d 2e6a 61be a074 90be c73c 6abe
000001f0: 9728 2e3c 9189 843e db33 d9be 8f15 a73d
00000200: 7df7 98be 70ef 20bf 2f4b 46be 15b7 90bc
00000210: 816d d6bd 3d28 2dbe 5b5b a23d 0932 54be
00000220: a608 8abe f499 893c ca68 c5be 0ce3 c2be
00000230: f2d7 a63d 8f9b 68bd 6499 1d3c f530 12be
00000240: d483 35be 7af6 70be 26a2 9dbd 1f15 983d
00000250: 3665 733e dcf1 23bd 7212 6bbe c402 993e
00000260: 98f0 3bbe 583d 0d3e ebd5 84be 184b 72bb
00000270: 4aaf 59be 2f87 26be 0425 8bbe 96c5 923e
00000280: d646 23be 66d1 693e 29d8 bfbe 2f34 dd3d
00000290: d76c 193e 8894 eebe 51d9 023e d845 abbe
000002a0: e636 7fbe 4f26 8cbe 6af6 d53d 1542 b53e
000002b0: b64c 4d3e ab0c 6cbe 37f2 893e 24b5 093e
000002c0: c48d 8bbe 0c06 82be 7787 8cbe 5543 6c3e
000002d0: 61cb 79be b39b 0a3d befa f7bd bee1 1abe
000002e0: 8a13 6fbe 42d7 a7be b9f1 993e 4eb3 dabd
000002f0: 849c 95be 7b2a 64be 7acf 5a3e bfec 333d
00000300: fa9c 8dbe cd3b 8fbe 33e8 c1bd 52f8 3bbe
00000310: 7261 21bd ab28 65be 816e c0bd 7292 b6be
00000320: 5a2b 66be 9f95 f43d 7197 41be 7845 573e
00000330: 4636 7e3e cda3 0fbe 2bcd 92be e7e8 073e
00000340: 1452 dcbc 6ed2 01bd c588 743e 64b1 9cbe
00000350: adc3 91be ab0c 7eba c5b5 8abd 0239 dabe
00000360: 2f26 69be 0ede aebd 0fb6 e93c 33bf 97be
00000370: 2fd0 f9bd d954 51be de72 aa3e e374 4bbe
00000380: 6c71 a93d 9f07 893c 3a40 2abd 82c7 d7bc
00000390: 34bc 39be 303a 113d 83da 0c3a 20c9 6c3e
000003a0: b6a6 273e c7dc d8be 8099 84be 76b1 dcbd
000003b0: 4258 a03d aa48 ac3d 51cc 28be eb94 603e
000003c0: c607 8c3d 4ab9 a3be e580 38be 7c1a 8f3d
000003d0: bec2 56be 7b42 26be 6360 91be b48e 00be
000003e0: 68f6 a43d 6e1e 83be 6edc 853d 23fe d23c
000003f0: 9fc0 96be b1c1 a1bd 2e76 0f3d e66a 61be
-0.03508953 0.04901224 0.05036504 -0.047496997 0.059319604 0.365753 0.17560256 0.23825112
0.02456261 0.2399579 0.016768243 -0.07840061 -0.20778847 -0.18989187 -0.48675296 0.06584824
0.29545215 0.13034914 -0.078783244 -0.06841798 -0.2300257 0.0056482325 0.06315698 -0.11553103
-0.007018254 -0.05023936 -0.24088064 0.047290582 0.18868914 0.033958808 0.012776633 -0.2680045
0.15403397 0.042906243 0.08003418 0.19911733 0.14428069 0.035145096 -0.22705567 0.16436747
-0.48181105 0.2790171 0.15531223 0.071048126 -0.0038254915 -0.33288658 -0.34757635 0.12912697
-0.06147787 -0.049636096 -0.15793651 0.011603559 0.07840283 -0.30553076 0.10134141 0.032013576
-0.15376185 -0.073998414 -0.32132334 0.18833105 -0.18424486 -0.0063827108 -0.13378857 -0.121421225
-0.24096842 0.17781393 0.0855068 0.06853054 -0.056178533 -0.02364026 -0.19415264 0.37186995
0.13683714 -0.3429746 0.26874864 0.1030319 0.08755307 -0.0061373306 -0.01840932 -0.12015759
-0.21682253 0.28193554 0.16906123 -0.047357205 -0.08120083 -0.15824914 0.07364659 -0.080984555
0.05784364 0.26279342 -0.5929166 -0.30024534 -0.17240112 -0.0040167104 0.22955583 -0.33195314
0.11826586 -0.1729327 -0.23907435 0.06953317 0.04527173 0.15179765 -0.13146815 -0.34242523
-0.15092723 -0.2328102 -0.20872034 -0.0028627724 -0.33534113 -0.54931206 0.00108924 -0.0965374
-0.16819476 0.20091373 -0.4949877 -0.21197791 0.17003272 -0.37786862 -0.34376243 0.12631263
0.07042104 -0.2201316 -0.28213978 -0.22874747 0.010629795 0.25886205 -0.42422375 0.08158409
-0.2987632 -0.6286535 -0.19364618 -0.017665425 -0.10470105 -0.16909881 0.07927581 -0.20722212
-0.26959723 0.016797043 -0.3855651 -0.38063848 0.08146657 -0.056788977 0.009619091 -0.14276488
-0.1772607 -0.23531523 -0.07696943 0.074259035 0.23769078 -0.040025577 -0.22956255 0.29884923
-0.18353498 0.13792932 -0.25944456 -0.003697103 -0.21258274 -0.16262506 -0.27176678 0.2866637
-0.1594499 0.22833785 -0.37469605 0.10800969 0.14982925 -0.46597695 0.12778212 -0.33451724
-0.24923286 -0.27372977 0.104473904 0.3540198 0.20048794 -0.23051707 0.26942608 0.13448006
-0.27256596 -0.25395238 -0.274471 0.2307256 -0.24393989 0.033839893 -0.12108372 -0.15125176
-0.23347297 -0.32781416 0.30067232 -0.10678731 -0.29220974 -0.2228183 0.21368209 0.04392695
-0.27658826 -0.27975312 -0.094681166 -0.18356445 -0.03939957 -0.22378795 -0.09396077 -0.35658604
-0.22477475 0.119426005 -0.18905427 0.21022594 0.24825391 -0.14027329 -0.28672156 0.13272439
-0.026894607 -0.031694822 0.23880298 -0.30604088 -0.284696 -0.0009691219 -0.06772951 -0.42621619
-0.22768472 -0.08538447 0.028529195 -0.2963806 -0.12197911 -0.20442523 0.33290762 -0.19868807
0.08273587 0.016727267 -0.041565157 -0.02634025 -0.181382 0.035455883 0.0005373137 0.23123598
0.16372189 -0.4235594 -0.2589836 -0.107760355 0.07829334 0.08412297 -0.1648419 0.21931808
0.0683742 -0.31977302 -0.1801792 0.06987473 -0.20972726 -0.16236298 -0.2839385 -0.12554437
0.08054811 -0.25609154 0.06536184 0.025755947 -0.29443833 -0.07898272 0.035024814 -0.22013435

fc12.weight f4 [300, 1]
00000000: 920a 24bf a013 77be 7a84 66bf d00f 223e
00000010: 55ec 66bf bf3e a3bf 76b6 61bf 5f4d 0dbd
00000020: c666 11bf c07b 233e f4fd a33e 6c3b f83e
00000030: 90c9 043e 85e9 f93e 1df3 0fbf 9c6d f4bd
00000040: f0cb f3bd d2df 4e3f 6365 93bc 481f 6b3e
00000050: 2111 a3be 246c 7bbd 8026 11be 3892 7cbe
00000060: 3145 b4be 3858 2abf d5a8 64bf d014 81bf
00000070: 80a8 45be 6a7d 3abf dfbf 923e 153f eb3e
00000080: 9836 b9be 766f 05be dfa8 4cbe 3b9f ec3e
00000090: 2a8f 4b3f cb1c ee3d 6c58 dbbc e465 74bf
000000a0: 5abf 0c3f 9ae2 adbf 80f7 07be e3b8 203f
000000b0: 9b17 09be 7848 b5be 3f05 d03e cc9a 29bf
000000c0: 2cce fc3e 1a57 2c3e 3e5b f73e 9880 063f
000000d0: 6986 94bf 9418 023c fa58 cdbd 9f53 09bf
000000e0: a4c5 683e 8db1 a93e 5152 153f 11f4 ab3e
000000f0: 56bc 62bf 4b66 4f3d 912b 803f 9e97 4ebf
00000100: 90eb 703d b93a 753c 4e0a 0f3f c897 ecbe
00000110: 6088 003e e0b3 20bf 829e 84bf bf36 35be
00000120: 6ea7 cf3e a20e 21bf bc29 f03d 7250 27bf
00000130: cde9 3fbf 19c7 f8be b280 56bf 0359 e4bd
00000140: bd13 cbbd 23fc e4be 52d2 8fbe ff87 c03e
00000150: 07a4 093f 9ab2 14bf 98c2 32bf 7968 9e3e
00000160: 5c34 27bf bf10 20bf 4839 a93c ec1b d93e
00000170: 2589 453f cde8 2a3f 05fc cabe 3ad5 7a3f
00000180: 137a 5a3f 254d 14bf 9173 3c3f 9a21 333f
00000190: 30d3 c43d 4756 7dbf cd2e 0dbf 3d0e 4f3f
000001a0: 87f8 f8be 0a1b c13e 8097 e5be 2983 9dbe
000001b0: 4572 283f b0b5 29be 1555 0abf 7c30 64bf
000001c0: fd98 1cbe a90f b6be bec5 9a3e 2031 0b3f
000001d0: 1309 3bbf 36d5 123f 6dbd 263f 6b3e f7be
000001e0: 9266 153e 9873 443e 963d 59bf 3031 c53d
000001f0: e707 203f 09cb 903d adcd 4b3f acbb 74bf
00000200: 90af 133f 19fe 1ebf 45c4 373f fba9 ffbe
00000210: d8b9 2ebe aa60 803e d1b9 54bf 8c62 18bf
00000220: 3471 65bf 4a9f 3abf 770b 9fbf 04c1 ef3e
00000230: 2f16 6d3e cb12 bdbe d5e1 953e efcb 98be
00000240: ca5c 9a3e 705b 433f 5dfc 993e e4b3 8b3e
00000250: fb83 493f cc1e 373f c091 73bf 483e a6be
00000260: 8af2 1a3f 8243 12bf b042 ef3d 2038 7fbf
00000270: f23f cf3e 5ad9 68bd e4d0 10bf c8c5 38be
00000280: 1e8d 2cbf 5470 c1bc bd05 dfbf 6561 2f3f
00000290: e69e 31bf 68f6 c93e 0a70 75bf 3757 45bc
000002a0: 86a5 0e3f b782 dc3e a17b 3c3f bde9 4d3e
000002b0: a90c 0b3f 4915 28bf 6c87 69bf 1d3f 543d
000002c0: 0080 813e dbd9 53be 09ae 523f 5a95 f23e
000002d0: f00a 7a3e 16bc dabe 1259 ed3e a0e1 6bbd
000002e0: 9e09 75be 19e0 003d db73 c3bd bddd ad3d
000002f0: 6d64 d3be eb80 8cbf e3a0 283f e070 11bd
00000300: 48f3 1fbe 1956 22bf 8bc3 c93e c2d2 823e
00000310: 9a42 b13e 3c6b 0c3c a718 713e e029 27bf
00000320: 6d36 603b 8648 80bf f060 68bf 501a d43d
00000330: eaf7 1c3f 020e bb3b 3138 083e 52e3 60bf
00000340: 8f0c a6be 8862 bf3e 9cfb 4b3f cafc 063f
00000350: 2c53 acbe 46a2 63bf 5afd e6be b5c9 453f
00000360: a874 233f 177f 60bf 9c07 173f d44b 5abf
00000370: 1c1c 14bf 1228 2d3f 1aba 3bbf 985b c5be
00000380: ef9c 4abf d497 c6be 9517 873c 19ab f93e
00000390: f437 b03e f846 3ebf 3581 f1bc d638 55bf
000003a0: d275 87bf b7e4 2e3f 23bc ed3e 86c0 64be
000003b0: a15f 60bf 59d9 c2be 9724 b6bd 3171 c2be
000003c0: f80c 0c3f 4773 86bf c361 c7be 331d e53e
000003d0: 1a0d 983e 017e 893e 0077 823b a332 f53e
000003e0: 1e79 b2be 7f50 2a3f 27e8 89bf 4396 6dbe
000003f0: 4c7e a73e 909d 9a3e c049 dabe 5cfd 683f
-0.6407863 -0.2412858 -0.90045893 0.15826344 -0.90204364 -1.2753524 -0.8816904 -0.034497615
-0.56797445 0.15965176 0.32029688 0.48482835 0.12967515 0.48810974 -0.56230336 -0.11934969
-0.11904132 0.8081027 -0.01799268 0.22961152 -0.31849006 -0.061382428 -0.14174843 -0.24665153
-0.3520904 -0.6654086 -0.8932012 -1.0084476 -0.19302559 -0.72847617 0.2866201 0.45946565
-0.36174464 -0.130308 -0.19986294 0.46215233 0.79515326 0.116265856 -0.026775561 -0.9546797
0.5497948 -1.3584778 -0.13278008 0.62782115 -0.13387911 -0.35406852 0.40629002 -0.66251826
0.49376047 0.16830102 0.483118 0.5253997 -1.1603519 0.00794043 -0.100267366 -0.5364322
0.22731644 0.33143273 0.5832873 0.33584645 -0.8856863 0.050634664 1.0013295 -0.807001
0.0588184 0.014967614 0.558751 -0.4620955 0.12552023 -0.6277447 -1.0360873 -0.17696665
0.40557426 -0.6291295 0.1172671 -0.65357125 -0.74966127 -0.485894 -0.83790123 -0.1114979
-0.09915874 -0.44723615 -0.2809015 0.37603757 0.5376591 -0.58085024 -0.69828176 0.3093908
-0.6531427 -0.6252555 0.020657197 0.42404115 0.7716239 0.66761476 -0.396454 0.9798161
0.8534252 -0.57930213 0.7361384 0.69973147 0.09610593 -0.98959774 -0.5514954 0.808811
-0.4862711 0.37715942 -0.44842148 -0.3076413 0.6579936 -0.16573215 -0.54036075 -0.8913648
-0.15292735 -0.35558823 0.3022899 0.54371834 -0.7306072 0.57356584 0.6513279 -0.4828981
0.14589909 0.1918472 -0.848596 0.096285224 0.6251206 0.07069976 0.7961071 -0.95598865
0.5768976 -0.6210647 0.7178386 -0.49934372 -0.17063081 0.2507375 -0.83096033 -0.5952537
-0.8962586 -0.72899306 -1.2425374 0.46826947 0.23152994 -0.369284 0.2927386 -0.2984309
0.30148917 0.763114 0.3007535 0.27285683 0.7871701 0.7153137 -0.9514427 -0.32469392
0.60526335 -0.5713426 0.116826415 -0.99695015 0.40478474 -0.056847908 -0.5656874 -0.18044198
-0.6740283 -0.023613133 -1.7423626 0.6850799 -0.69383085 0.39445806 -0.95874083 -0.012044719
0.5572132 0.43068478 0.7362614 0.20108695 0.5431619 -0.6565748 -0.9122226 0.051818002
0.2529297 -0.20688574 0.82296807 0.4737957 0.24418235 -0.42721623 0.46357018 -0.05758822
-0.2392945 0.031463716 -0.09543582 0.08489559 -0.41287556 -1.0976843 0.65870494 -0.035508037
-0.15620148 -0.63412625 0.39407 0.2555142 0.34621125 0.008570489 0.2354456 -0.6529827
0.0034212128 -1.0022132 -0.90772915 0.10356581 0.61315787 0.005708457 0.13302685 -0.87846863
-0.32431456 0.3737986 0.796808 0.52729475 -0.33657205 -0.88919485 -0.45115167 0.77260906
0.6384988 -0.87693924 0.58995986 -0.85271955 -0.5785539 0.6763927 -0.73330843 -0.38546443
-0.7914571 -0.3878771 0.016490737 0.4876335 0.3441769 -0.7432704 -0.029480556 -0.8328985
-1.0582831 0.6831774 0.464326 -0.22339067 -0.8764592 -0.38056448 -0.08893698 -0.37976983
0.5470729 -1.050393 -0.38941774 0.4474884 0.29697496 0.26853946 0.003981471 0.47890195
-0.3485803 0.6652908 -1.0773972 -0.23201852 0.32713544 0.30198336 -0.42634392 0.91011596

fc12.bias f4 [300]
00000000: b318 ef3e 023b 7cbf a460 eebd 1e5a 5abf
00000010: c3c7 413f fb3a 87be 75e1 75bf 6b9d f3be
00000020: d4c9 5dbf d466 71bf 0075 5ebf 8c41 7dbf
00000030: 84ed 4cbf 5e2f f93d 68ea 703e a046 1d3d
00000040: b270 6fbf 20cb 59bf d5d5 2d3f 4973 89bf
00000050: 2da1 063f f78f e03e fc8f 6fbf c604 03bf
00000060: af7c 183f ece2 ecbe 7a1a 663f 0c2f 4c3f
00000070: 0c58 4cbe 38f2 74bf 46fe 9c3d 9900 bc3e
00000080: 5ce1 47bf 7856 133e cd70 60bf 174d 4dbf
00000090: 7d5d 46bf 687c 093e 5b9f 873e 1b1f f93e
000000a0: ce39 dd3e b0f9 c8be 8ca1 70bf b8f2 113e
000000b0: 0160 d5bd 0e82 453f a002 d73e f087 22bd
000000c0: 0e3c b43d 5fb9 b33e a453 29bf a372 12be
000000d0: 8bb2 e83e 97e9 cd3c c556 2dbf 032d 27bf
000000e0: 7bb1 86be b1d9 0f3f 5d50 a23d 6132 35bf
000000f0: 04c9 18bf 5c43 2abd 898b 93be 5e89 4fbf
00000100: 0712 b33e 8fc5 9cbd 30a4 72bf 7092 7bbf
00000110: 56d8 72bf ef1a 323f f6ca 663e 0ca7 d2be
00000120: 24bf f9be 2bc2 003f dcce 29bd 6eb5 1d3e
00000130: 298e 0e3f a411 6c3e d075 4bbf 1d4d 2f3f
00000140: 33d0 9c3e 35cf 313f 7655 b4bc 9fb4 0c3f
00000150: 1191 b5be 10b1 aabe 8c53 cabe 306e 1abf
00000160: d725 9a3e e536 8e3e 6a20 273f ce54 2abf
00000170: 954f 02be 1b05 2c3f c133 46be 7ea3 54be
00000180: 261b 20bf 9797 64bd 053c 9abe dea0 c6bd
00000190: 5a50 5ebd c322 963d effa 513f dac2 65be
000001a0: 910f 3b3f 2036 1cbd 7cd0 31bf 7587 9d3d
000001b0: d822 233e 5ce8 6b3e 219d 3b3f c332 8b3e
000001c0: a8a8 74bc fe64 0f3f 4617 a83e e4a8 dfbe
000001d0: 3065 30bf 2f49 b5bd 143e 063f e9cf 453f
000001e0: fb92 943d b895 36bf 8071 aebc ec62 f3be
000001f0: 61db b63c 0431 5cbf 9297 a13d 5cb3 9cbe
00000200: 7869 32bf d0ca fb3d 4aa3 37bf 1376 0d3f
00000210: 46b6 07bf a610 fbbd b367 cb3e 8fb8 2e3e
00000220: 2876 35bf 946f 74bf 672b 263f edfc 9d3e
00000230: aa24 a93e aafb 213f f3f3 843d a00e e5be
00000240: 091f 2dbc 63fd ffbe f0c3 ba3e 681a 94be
00000250: e1aa 32bf 70be 0ebf 2263 cebe 4a07 3ebf
00000260: 9061 043f 2b72 e1be 6231 49bf 2e9a cb3e
00000270: 0305 2d3f 7022 903d 1c5b 53bf 1c0d 4ebf
00000280: ac77 42bf f9f2 bb3d db8d f53e f315 cdbd
00000290: 9061 663e bde8 1a3f e038 27bf 55cd 9cbe
000002a0: 80af 58bf 4264 063f 68e7 f1be 09e3 d53d
000002b0: e037 31bf 6e01 6e3f 91d3 813e f7e5 e23e
000002c0: 469d 69bf d1c0 333f 1958 7cbe f647 78bf
000002d0: b214 60bf 396e be3e f66b dcbd 0406 32bf
000002e0: 172a b6be f4ea 153f 1ac4 65be c01e 403f
000002f0: 71e4 e43c 49fb 5e3f 4bb4 0dbf 9283 44bf
00000300: 4c0b 35bf 2286 993c 06f2 1bbf 5be3 ae3e
00000310: 67a6 4c3c 4d4f 0c3f aafe 2a3f ab1d 293f
00000320: 4ae3 c63e 71e9 19bf 27e9 023f 58ab 09bf
00000330: 1470 7fbf fff7 2ebe 1bad 283e 8e3d 43bf
00000340: 6828 193f a6f7 74bf 45fc 10bf c664 1d3f
00000350: 60cd a5bd ba26 32bf 23f7 3c3f 4f16 17be
00000360: d0da edbe 7837 dbbe 9d20 05bf 92bd 08bf
00000370: 38da 1dbf e786 b9be 92e9 f03e bed4 42bf
00000380: 9ca2 2b3f fce0 c7be e8d0 b03e 1717 373f
00000390: c412 67be a891 5dbf 11cf d1be 0680 aabe
000003a0: 48e2 323f b2ef 0fbe 1dd0 f83d 63ba b93d
000003b0: 4f1f 333f 5086 633e 84f5 3b3e 284f 45bf
000003c0: 03cc 91be 9e0f 5bbe ddbd 3c3f 12b6 5fbf
000003d0: 8263 d9be e80c 04bf a0f1 1ebe 05de 34bf
000003e0: bfb6 afbc 080a 153f 7673 6cbd 1786 a73e
000003f0: 67db 71bd a0da 6abf 746c 49bf b21d 7abf
0.46698532 -0.9852754 -0.116395265 -0.8529376 0.7569544 -0.26412186 -0.96047145 -0.47581038
-0.8663609 -0.9429753 -0.8689728 -0.9892814 -0.8004992 0.12167238 0.23526919 0.03839743
-0.93531334 -0.8507557 0.67904407 -1.0738307 0.52589685 0.43859836 -0.9357908 -0.5117916
0.5956525 -0.46266878 0.8988415 0.7975929 -0.19955462 -0.95682096 0.07665686 0.36719206
-0.78078246 0.14388454 -0.8767212 -0.80195755 -0.774864 0.13426363 0.26488766 0.48656544
0.43208164 -0.39252996 -0.939965 0.14252746 -0.10418702 0.7715157 0.4199419 -0.03968042
0.08800517 0.35102364 -0.6614325 -0.14301543 0.45448717 0.025135798 -0.67710525 -0.6530306
-0.26307282 0.56191546 0.07925484 -0.7078 -0.59681726 -0.041568145 -0.28817394 -0.8106898
0.3497469 -0.07654869 -0.9478178 -0.9827032 -0.9486135 0.6957235 0.22538361 -0.41143072
-0.4877864 0.50296277 -0.041457042 0.15401241 0.5568567 0.23053604 -0.7947664 0.6847704
0.30627593 0.694568 -0.022013407 0.54963106 -0.3546224 -0.33338213 -0.39516866 -0.6032438
0.30106995 0.27776256 0.65283835 -0.6653565 -0.1272567 0.6719529 -0.1935568 -0.20765492
-0.62541425 -0.05580863 -0.30123916 -0.09698652 -0.054275848 0.07330849 0.8202352 -0.22437611
0.7307063 -0.038137555 -0.69458747 0.07691852 0.1593126 0.23037857 0.73286635 0.27187166
-0.014932789 0.56013477 0.32830256 -0.4368354 -0.689044 -0.08851849 0.52438474 0.7727037
0.07254597 -0.713222 -0.021294355 -0.4753641 0.022321405 -0.8601229 0.07890238 -0.3060559
-0.6969218 0.12294543 -0.71733534 0.5525829 -0.530125 -0.12259035 0.39727554 0.17062591
-0.7088342 -0.95482755 0.64909977 0.3085703 0.33035785 0.63274634 0.06491842 -0.4473772
-0.010566481 -0.49998006 0.36477613 -0.28926396 -0.6979199 -0.55759335 -0.40310007 -0.7422987
0.5171137 -0.44032416 -0.7859098 0.39766067 0.6758577 0.070378184 -0.82560897 -0.80488753
-0.75963855 0.09177203 0.4795979 -0.10013952 0.22498155 0.6051138 -0.6532116 -0.30625406
-0.8464279 0.5249673 -0.4724686 0.10443694 -0.69225883 0.9297093 0.25356725 0.44316074
-0.91255605 0.7021609 -0.24642982 -0.96984804 -0.8753158 0.37193468 -0.107627794 -0.6954043
-0.35578987 0.58561635 -0.22438088 0.7504692 0.02794096 0.8710218 -0.5535323 -0.7676326
-0.7072036 0.018740717 -0.60916173 0.34157833 0.012490845 0.54808503 0.66794837 0.66060895
0.38845283 -0.6012183 0.5113701 -0.53777075 -0.9978039 -0.1708679 0.16472284 -0.762658
0.5982728 -0.9569038 -0.5663493 0.61481893 -0.08095813 -0.6959034 0.738146 -0.14754604
-0.46456003 -0.42815757 -0.5200289 -0.5341426 -0.616611 -0.36235735 0.470532 -0.7610587
0.67045 -0.39038837 0.34534383 0.7151961 -0.22565752 -0.8655038 -0.40978292 -0.333008
0.6987653 -0.1405628 0.121490695 0.090687536 0.6996965 0.22219205 0.18355376 -0.7707391
-0.2847596 -0.21392676 0.7372721 -0.8738719 -0.4245873 -0.51582193 -0.1552186 -0.70651275
-0.021449445 0.5821843 -0.0577273 0.3271949 -0.05904713 -0.91739845 -0.7868111 -0.9770156

fc2.weight f4 [300, 300]
00000000: c55c 9cbc 2fbe 3c3d 2808 4fbd b195 efbc
00000010: 0949 ae3b f24e 35bd 7930 78bb 9f98 1bbd
00000020: a0da 4ebc 55c8 413c 0873 213d e768 bc3c
00000030: 6fdb 4d3d f4c0 27bd 1ac3 9bbd 2a3a e13c
00000040: c2fb 2f3d 2018 45bd 33a0 c3bc c50b b7bb
00000050: 4922 54bd 02c5 acbd 6f07 2e3c 5342 3b3d
00000060: 096b 1f3c b306 5b3c af67 bcbb 98ea 83bc
00000070: f20b abbb 5da3 103d 2205 983c 725c 173d
00000080: 449b 53bd f818 aebd 1598 edb9 e6a9 d73c
00000090: fd18 3f3d 21bf 7abc 971c abbd b186 a9bc
000000a0: 684d 86bc 9eda b9bb f62d a83c d39a a8bd
000000b0: 93d4 aebd 97d4 68bd 1665 ccbc 16f5 88bd
000000c0: b02e 153d 8eea 81bd 5a19 66bd 5c0f bb3b
000000d0: 0eb6 2d3d c182 453d f52f 83ba ffc0 95bc
000000e0: c63a 52bc a483 073d 7a08 28bc 9625 8bbc
000000f0: a5ad 393d 09ed 843b 097f a93c b68d 2fbd
00000100: 064f a4bd ba90 5abd e8ca 88bc 04da b5bc
00000110: ebe6 e33c 1eca 3cbd f4ec 3d3c 9793 7d3c
00000120: 056f a9bd d0fc f23b 0aed 873b d2be 2dbc
00000130: b08b afbd 8f76 1cbd 6b2c 943c df4f 29bd
00000140: bc19 073c c562 833b eb6f 18bd a387 79bc
00000150: b3dc 2dbc d9bd 67bd f04e dcbc c536 753c
00000160: b1e1 a03c 9625 0fbd f168 55bd 724b ccbb
00000170: 4145 d13b b28c 88bd 81be 10bd 0b27 e53c
00000180: b800 8d3c e2d1 1fbc 56d3 773c b140 3ebd
00000190: b1ed 22bd 9ba3 61bb 4183 843c f416 f5bc
000001a0: 7c25 1b3c 7d97 023d 3b0f 62bd 5cf1 4f3d
000001b0: 8b74 b93c 3163 22bd 5c61 a9bd af9f 1cba
000001c0: 8b35 1b3d 3474 873b 939e 163d 7451 1e3d
000001d0: 1e71 9fbc c60f 073d b7c9 15bc fea6 e1bc
000001e0: c762 0b3d 0528 33bd 9e85 8a3c c96e 0e3d
000001f0: ba74 c43c 17d5 28bd 7b3c 5fbd 753d 343c
00000200: c3c3 25bd 432e 31bd 655d e23b 611f 39bc
00000210: 45a8 d1bc 87e9 2ebd 1d1d 863c 42de 8dbc
00000220: 6463 593d 44d7 e0bc 2268 0fbd bb1f fdbc
00000230: 9f3e 21bd 7aba b6bc ade5 0c3c fc9c 0f3d
00000240: a905 68bd 172e 8f3c b5dc d4bc 6bd7 183d
00000250: 9ec4 05bd 5aa0 36bd 08d7 a1bc e5c0 8bbc
00000260: d1cd 22bd ad38 243d e10d ca3c 5462 873c
00000270: 4a97 dcba be08 813b b1ea 14bd 3eaa a6bc
00000280: 8942 673b 8eb3 8abc 7021 23bc 0bc0 a9bd
00000290: 7b6b 0cbd 451b 1f3d f8bf 023d c296 c43b
000002a0: 89ce 5f3c d89c d13c bf20 933c f117 cc3c
000002b0: 1716 8cbd b3cd 2bbd 8bfa 7c3c dfb5 1cbd
000002c0: 88ec d93c 8ba6 00bd 8110 723b 3f15 61bd
000002d0: 4657 513d 66f3 333b 41a4 f8bc bc9b 683c
000002e0: 1f30 25ba fb72 79bd eeef edbc 1fd9 09bd
000002f0: 6812 963c 5948 3bbc c21f 50bc 9291 46bd
00000300: 5220 213d 9ec5 afbb e465 71bd 1c64 503c
00000310: 182f 17bd 8016 34bd 05fa b9bd 8133 533d
00000320: e356 2cbd 195d 3dbd e16c 71bd 14ce 2ebd
00000330: 3a6b 1ebd 7fc1 75bd 5551 babc 9d8e 113d
00000340: c1fc 01bd a524 ffbc a7d2 c7bb 525d 19bd
00000350: b126 013d 41b9 4d3c ee3c b5bc 7b84 23bd
00000360: dfdf 18bd 9ddd 97bc fdb4 28bd 795f 383d
00000370: a8a7 93bc 46b2 f7bc 594d 85bd 50d8 fbbc
00000380: 255a ebbc 2e63 a33a b19f 3a3d 937c 3fbd
00000390: 23b6 49bd 751a 29bd 7d0c 37bd dfef e23c
000003a0: 9328 f6bc 927c 3fbd b093 133d 08f9 103d
000003b0: d305 75bd 7f10 6c3c 0a78 32bd 8291 5bbd
000003c0: 49be 063d 5272 663d 1100 6dbd 6811 ea3c
000003d0: c473 84bc 53a0 63bd d778 603d 2820 f93b
000003e0: eab4 15bd d75e 43bd fc69 1b3d 0d5c 623a
000003f0: a9f0 ae3c 1628 95bc 9c41 3b3d 7358 7a3c
-0.019087205 0.04607981 -0.050544888 -0.029246183 0.005318765 -0.04426474 -0.0037870689 -0.037987348
-0.012625366 0.011827548 0.039416343 0.02299924 0.050258096 -0.0409555 -0.07605572 0.027493555
0.042964704 -0.04811871 -0.0238801 -0.00558612 -0.05179051 -0.08436014 0.0106218895 0.04571755
0.009730109 0.013368296 -0.0057496647 -0.016103074 -0.00521993 0.035312045 0.018557135 0.036953397
-0.051661745 -0.08500856 -0.00045317473 0.026326131 0.04665469 -0.015304358 -0.083550625 -0.020694109
-0.016394332 -0.005671813 0.020529728 -0.082326554 -0.08536639 -0.056843366 -0.024950545 -0.066873714
0.036421478 -0.06343566 -0.05617652 0.005708618 0.04240995 0.0482204 -0.0010008799 -0.018280504
-0.0128313955 0.033084527 -0.010255927 -0.016985696 0.045331616 0.004056577 0.020690458 -0.042859755
-0.08022885 -0.05336068 -0.016698316 -0.022198685 0.027820071 -0.04609119 0.011592139 0.015477083
-0.082731284 0.0074153915 0.0041481303 -0.010604577 -0.08571565 -0.038199004 0.018087586 -0.041335937
0.008245882 0.004009577 -0.03721611 -0.015230092 -0.010611701 -0.056577537 -0.02689311 0.014966671
0.019638868 -0.034947954 -0.052102033 -0.0062345797 0.0063864295 -0.066674605 -0.03533793 0.027972719
0.017212257 -0.00975463 0.01512607 -0.046448413 -0.03977746 -0.0034429792 0.016175868 -0.029918171
0.009469386 0.03188275 -0.055190306 0.050767288 0.02263858 -0.039645378 -0.08270523 -0.00059747224
0.03789286 0.0041337255 0.036772322 0.0386519 -0.019463118 0.032974027 -0.009142331 -0.027545448
0.03402975 -0.043739337 0.016909417 0.03477362 0.02398144 -0.041218843 -0.054501038 0.011000981
-0.040469896 -0.04325701 0.006908106 -0.011298985 -0.025592932 -0.042703178 0.016371304 -0.017317895
0.053073302 -0.027446397 -0.03501142 -0.03089892 -0.03936636 -0.022305716 0.008599681 0.03506182
-0.056646023 0.017478032 -0.025984148 0.037314814 -0.032658212 -0.044586517 -0.019755855 -0.017059753
-0.039747063 0.040093113 0.024664821 0.016526379 -0.0016829756 0.0039378097 -0.03635663 -0.02034485
0.003528746 -0.016931321 -0.009956703 -0.082885824 -0.03428219 0.038844366 0.031921357 0.005999417
0.013660082 0.025587484 0.01795995 0.02491376 -0.06840151 -0.041944217 0.0154405935 -0.038259383
0.026602045 -0.031408828 0.0036936107 -0.054951902 0.05110862 0.002745831 -0.03035176 0.014197286
-0.0006301421 -0.06090067 -0.029045071 -0.03365433 0.018319324 -0.011430823 -0.012702884 -0.04847867
0.039337464 -0.005364134 -0.05893506 0.01271918 -0.036910146 -0.04396677 -0.090808906 0.05156279
-0.04207505 -0.046231363 -0.058941726 -0.042677 -0.038676478 -0.059998985 -0.02274386 0.035536397
-0.031735186 -0.031145403 -0.0060981098 -0.037442513 0.03153104 0.012556375 -0.02212378 -0.039921265
-0.037322875 -0.01853829 -0.04118823 0.045012925 -0.01802428 -0.030236375 -0.065088935 -0.030742794
-0.028729508 0.0012465471 0.04556245 -0.046749663 -0.049245965 -0.041284997 -0.044689644 0.02770227
-0.030048644 -0.04674966 0.036029518 0.035393745 -0.059820008 0.01440823 -0.04357151 -0.053605564
0.032896314 0.056261368 -0.05786139 0.028572753 -0.016168483 -0.05557282 0.05480274 0.0076027103
-0.036549486 -0.04769787 0.03794287 0.00086349325 0.02135499 -0.018207591 0.045716867 0.015279877

fc2.bias f4 [300]
00000000: bc7f 823c f068 d9bd cb67 373c ac92 9bbd
00000010: 2e5b 42bc 1cab 37bd 1a46 fdbc 5c2c 6ebd
00000020: 99d4 a8bd a569 4abd e071 87bc ea6a e7bd
00000030: 6e48 e9bc 7872 9cbd 2ccc 89bd acfb 9b3d
00000040: 719b d3bd 1d10 6bbd 0feb 503c ef33 9fbd
00000050: 0e9a 21bc 9bc9 85bd fb30 89bd a732 86bd
00000060: 4954 53bd b5d3 f039 6dc2 acbc 5b35 b43c
00000070: 424e 86bd 2246 b9bd 1711 963d 888f f1bc
00000080: ce75 10bd c407 a6bc dab1 9dbc 467a 93bc
00000090: a291 75bd 6bc3 9cbd 7cba f6bc d3cc edbc
000000a0: 5b0e 8bbd addf 02bd 3766 abbd e451 9c3c
000000b0: dcb2 a03c c919 aabd 18b7 98bd 6e2c 1fbc
000000c0: 54fc 17bd 2d0f 0cbd 1e61 7cbd e4bb 6e3d
000000d0: ee69 3b3d 08f1 ccbc 6bc9 c0bc 0c9a ad3c
000000e0: ecaf 6fbd 77a8 81bd b2d5 36bd f18e dbbc
000000f0: c40d 75bc ad22 243b 696c 123b cdff d93d
00000100: 674b f9bd 08da a7bd fb4c 8abd a02d 77bd
00000110: 7f51 aebd 5cae a43c eb84 ccbd e8cf 6f3c
00000120: d4f2 da3c c34b dabb e0e0 49bd 423d d8bc
00000130: e13b b5bd ff4c 033c be58 46bc c09b 14bd
00000140: 1c80 49bd 9d5f a8bc f1e2 6cbc 413f 13bd
00000150: 104e 03bc 13b8 973d bef9 6fbd 09e8 d33c
00000160: db60 23bd 1256 f43c 3b44 2c3c 161b 143d
00000170: 1e6e 95bc c578 363c 123a c838 4e03 0dbd
00000180: 847e 45bc 49c2 00bd 0b2f 76bb 4f4d 70bd
00000190: 3d39 2abe 978e 693c 5937 a9bc 504a 47bd
000001a0: 4524 2a3e acb2 5ebc 6601 54bd 7baf b4bd
000001b0: 3dc5 bcbb 3f82 b03b 8dbc ab3c da80 0fbd
000001c0: 8095 80bb b66a 6e3c 4131 ce3c d40e 663c
000001d0: 33b8 c9bd 0db0 c4bc c25a d83c 549c ddbd
000001e0: ceec 86bd be23 b3bd 5406 6abc e175 ab3c
000001f0: 6b59 abbb c792 9ebd 7a81 ef3b 2ce4 0b3d
00000200: 2a2e 97bd 79a0 3fbc 7e56 eebc 9dd3 29bd
00000210: 1017 26bc b6ac 45bc 883b 8abd 0c8f 59bd
00000220: 7fc7 f43a 340a a03c 1e7d da3b 818f 513d
00000230: bdb3 863c ac16 3b38 130d b43c 4f63 ff3c
00000240: f193 a73c 4f0c 84bc 9183 a2bd d74a 4bbd
00000250: d009 2ebd a363 b9bc e977 99bb 226e fcbc
00000260: 0996 80bd 5e44 0cbc fd49 c9bd be73 4bbd
00000270: 9696 1bbc 9637 0ebd 80be adbc 565f dcbc
00000280: 5887 013e ec55 b4bd 760a ed3c a084 d2bc
00000290: 2314 e2bd dfa1 b7bc f227 00be 0f8e 3f3c
000002a0: e49f a83c 0a23 213d 5d32 1fba a1b9 01bb
000002b0: 7a9b 75bd ac0a b93c 9fcf 943c a345 5e3b
000002c0: e50a d03c 2fd8 d7ba 0887 debc 8b21 b5bb
000002d0: 6852 77bd 94fd 45bd fd37 92bc b7f5 5e3c
000002e0: 2408 b9bb bdd7 f33c dd83 293e c4dc c1bd
000002f0: a0ab e03d d01a a7bc ae13 f8bc 4187 6fbc
00000300: a19f 273c fcc2 9fbd 07c1 92bd 11f8 b0bd
00000310: 23c3 1abd b049 2cbd 3dc1 d6bb abdf 44bd
00000320: c6a5 babd 4de1 d7bd ff87 bd3b bc34 25bd
00000330: 2c28 99bd de76 e2bc abf0 5abd 3878 f5ba
00000340: e8fe 043c 3779 913c 98ac 7abd 513c 363d
00000350: 13cb 39bd a2f2 91bd 8e8f 91bd e403 103c
00000360: 090d acbc 8320 0cbd de3a 41bd e4b9 59bd
00000370: 20fa 93bd 8fcc eebd 1c7d 36bd 9bc1 103c
00000380: 79d4 023c 40a9 74bd 54d5 cbbd 8395 c8bb
00000390: 3e43 87bd 43df c3bd fdcb 14be e248 003c
000003a0: 5a52 9cbc aa1f 393c 2e30 9f3c bbe6 b4bd
000003b0: a850 3cbd 0d29 76bd ceae e83c 9e5f 7cbd
000003c0: 077c df3a 1fc5 223d 5091 3dbd fd1f 6e3c
000003d0: 8bcd 83bd 0568 0f3d 148f 94bd 8cec 80bd
000003e0: f622 9ebb 9075 313e 89f6 7abb e3d4 7ebd
000003f0: 158f 7bbc 1867 cdbc 63c4 d6bc 9e04 06be
0.01593005 -0.10615718 0.01119418 -0.07596335 -0.011862559 -0.044840917 -0.030917216 -0.058147773
-0.08243675 -0.049417157 -0.016533792 -0.11299689 -0.02847692 -0.07639021 -0.06728396 0.07616362
-0.103323825 -0.057388414 0.012751355 -0.077735774 -0.00986339 -0.06532594 -0.066987954 -0.0655263
-0.051594052 0.000459341 -0.021088803 0.021998098 -0.06557895 -0.0904658 0.073274784 -0.029487386
-0.035268597 -0.020267375 -0.019249845 -0.01800264 -0.05995334 -0.076544605 -0.03011822 -0.029028332
-0.067898475 -0.031951595 -0.08369105 0.019082017 0.019616537 -0.083056994 -0.07456797 -0.009715183
-0.037105873 -0.03419416 -0.061616056 0.058284655 0.04575532 -0.025017276 -0.023533544 0.02119162
-0.05851738 -0.0633096 -0.04463739 -0.026801558 -0.014956895 0.0025045082 0.002234245 0.10644493
-0.12172585 -0.08195883 -0.06752964 -0.060346246 -0.08511638 0.020102672 -0.099862896 0.014636971
0.026727118 -0.0066618635 -0.049286723 -0.026396398 -0.088493116 0.008013963 -0.012106119 -0.036281347
-0.04919444 -0.020553404 -0.014458404 -0.035948996 -0.008014217 0.07408156 -0.058587782 0.025867479
-0.03988729 0.029826198 0.010514314 0.036158644 -0.018240985 0.011137192 9.5475596e-05 -0.03442698
-0.012054089 -0.031435285 -0.003756466 -0.058667477 -0.16623397 0.0142551875 -0.020656275 -0.048654854
0.16615398 -0.013592403 -0.051759146 -0.08822533 -0.0057608173 0.0053866203 0.020963931 -0.03503499
-0.003924072 0.014551809 0.02516997 0.014041621 -0.09849586 -0.024009729 0.026410464 -0.10820833
-0.06588136 -0.08747052 -0.014283735 0.020930232 -0.0052291653 -0.07742839 0.007309136 0.03415315
-0.07381852 -0.0116959745 -0.029093977 -0.041461576 -0.0101373345 -0.012065103 -0.06749636 -0.053114936
0.0018675177 0.019536115 0.006667747 0.051162247 0.016443128 4.460539e-05 0.02197889 0.031175284
0.020456286 -0.01611915 -0.079352506 -0.04963192 -0.042489827 -0.022630518 -0.004683484 -0.030814234
-0.06278617 -0.008561222 -0.09828565 -0.049670927 -0.009496352 -0.03472098 -0.021209002 -0.026900928
0.12649286 -0.08805451 0.028935652 -0.025698006 -0.11038997 -0.022416053 -0.12515238 0.011691584
0.020584054 0.039340056 -0.00060728734 -0.0019794481 -0.059962727 0.022588097 0.018165408 0.0033916018
0.02539582 -0.0016467626 -0.027163997 -0.0055276803 -0.060381323 -0.048337534 -0.017848963 0.013608388
-0.0056467224 0.029765958 0.16554208 -0.09465936 0.10970235 -0.020398527 -0.030282822 -0.014619649
0.01023093 -0.07800862 -0.07165723 -0.08641065 -0.037783753 -0.04206246 -0.0065537975 -0.04806487
-0.0911365 -0.105410196 0.0057840343 -0.040333495 -0.07478365 -0.02764457 -0.053452175 -0.0018727845
0.008117415 0.017757995 -0.061199754 0.044491116 -0.045359682 -0.07126357 -0.07107459 0.00878999
-0.02100231 -0.034210693 -0.04717528 -0.053155795 -0.07225442 -0.1166011 -0.044552907 0.008835222
0.007985228 -0.059731722 -0.099527985 -0.006121339 -0.06604622 -0.09564068 -0.1453094 0.007829877
-0.019082237 0.011299053 0.019432154 -0.08833071 -0.045975357 -0.060097743 0.028403666 -0.061614625
0.0017050513 0.03973877 -0.04628116 0.014533994 -0.064356886 0.03501131 -0.072538525 -0.06295118
-0.004825945 0.17330003 -0.003829392 -0.062214743 -0.015353938 -0.025073573 -0.026216691 -0.13087699

fc3.weight f4 [1, 300]
00000000: 9e99 0d3b 7b28 13be 4a9d 383b f6a5 a6bc
00000010: 4fe4 053d 7db2 163d f9c4 b6bc 6047 0fbc
00000020: 979b f63b ca14 633c 5481 81bc 6787 cabe
00000030: f32f f13a bbdd a5bb 073b 0b3c 1678 ddbd
00000040: 212f 8b3b ad2e 543b 65f7 d5bc 3a12 da3c
00000050: ed3c adbb 943f c73c 2c7d c5b9 ad26 043c
00000060: 178b babc 4594 bc3b b523 39bc d3a9 893c
00000070: 9fa8 4fbc 9f12 c03c 6a7c 093d 64a2 f2b8
00000080: f178 35bd 19ad 2fbc a4b6 f03b ecca 133c
00000090: b793 a7bc 1af2 6ebb af99 b9bc 3b35 a5ba
000000a0: 0445 3c3e 6dc0 163b d007 ab3c b6c9 7c3b
000000b0: 9b6a 403e 3e1a 6cbe cd77 063d 4211 1fbc
000000c0: 32cb 64bc 2fa5 043d 3fee d1bd f4f3 c73c
000000d0: 83b6 c93c cafd 303c a22b c63c f370 d2ba
000000e0: 3b1b 61bc 45c7 49be bf06 2f3c 874e abbb
000000f0: d9e3 80bc 0f82 63bb 9149 63bb b8b9 9abe
00000100: ef6d 25be c899 ab3b 1b86 ec39 e16e 87bb
00000110: 8b33 bfba d12c a33c 545b 673c 325e 593c
00000120: bad8 88be 605b 6f3b dbe2 0ebd 07e1 29bc
00000130: f499 963e a1bf 613e 9f06 03bb 1cac c53e
00000140: b541 d0bc 115c 3d3d 8a0c 87bc e47d 4cbb
00000150: 088d 823c be12 b4bd f0f4 20ba b7d1 11bd
00000160: 4ca3 7a3c ffcf 183d 3e41 243d 8abb eebc
00000170: 1ad2 2c3a f8ed 3b3e c8f3 65b9 e1d6 903c
00000180: e4a6 713c 241e 8eba 8231 143c c863 eb3c
00000190: 7f27 77bd 6ac9 6fbc 08f2 11bc b985 cb3e
000001a0: 1a1f 8e3d 51a5 e23c 50aa 25bc 3696 1cbc
000001b0: 25bf c73c 193d 34bb 4c83 663e 189a 40bb
000001c0: 2b07 2a3d 6fa4 bdbc 8e04 27bd 9619 d03c
000001d0: 5d32 133c f9d8 bd3c 7861 283b 8642 d63c
000001e0: a827 9bb8 f3dc b03c c242 f9bb beac 7e3b
000001f0: 5679 afb8 e4ac 783c 1eaa 763b 0f0f 23ba
00000200: 23f4 48bc 47e8 bf39 6c99 5cba d6b0 3ebd
00000210: 7afe 94bb 7739 0c3d 297a bdbc e217 833c
00000220: c400 cb3b 83ce 7b3e 6441 3f3b db55 2f3a
00000230: 7214 af3c abdf 3dbc f69d e83c 1c8c 093e
00000240: 9275 6eb9 7099 ec3c eccc 1abe c4f3 f43c
00000250: e76f 9fbb c85b 123d 7f9a 67bc e11b cb3c
00000260: 2c2f 583b 76e1 623a e2bf eaba ab70 a23a
00000270: 60e5 49bb 3d2f 2dbc 7d52 073c 3b4e 84bc
00000280: a1e5 5a3d 114d 94bc 3419 8e3b 856a 8dbc
00000290: 94e7 e7bc ddbe d63b bd39 ccbd caec f9bc
000002a0: 80b3 9bb9 2573 4c3c d907 96bc 2ebb 993b
000002b0: 821e 803c 96d9 bf3c 1e33 5abd bc4e 893d
000002c0: 623f a93c aac9 a2bc ca78 fb3a b41e 37bb
000002d0: 9101 8ebc 9036 01bd 6d96 e4bb 47cb 84bc
000002e0: b0a3 1b3d 7e3c 493e 008d f03e 86ef 253d
000002f0: 2436 5c3d 32e4 153c de19 22bc dc06 013c
00000300: aa7a fb3b 39a6 493c 4dff 1b3d ce06 65bd
00000310: f855 213c 8952 4a3b bf7e 153d e50d cbbc
00000320: 8154 d93a ef34 9fbc d371 523c cb2e 0abd
00000330: 03b4 70bc c2b7 d53d de24 b339 d66c bb3c
00000340: d85c 28bc f019 1d3e f54f 9e3e 5ec4 a3be
00000350: 900a 753c 3c60 9bbc b91f 0fbc e20e abbb
00000360: 5adf 5f3a 225b bebc 6dde 0d3d 9f81 35bc
00000370: 147f 05bc 0a0e 28be 40f5 9ebc f2ab bebb
00000380: b9d3 0bbb 34fd b93c 6508 ab3c db4b d8bc
00000390: 6e4a c93b 2728 66bd 51a2 00bd e596 fe3c
000003a0: 7b92 2cbc c056 17bc 9c8b 693c 909f 083c
000003b0: 8557 683c 039a e0bb bf56 40bd bea8 133d
000003c0: cc2f 5a3b 9564 013e 8dd2 a13b 5f40 05bd
000003d0: 3c38 ddbb 365a f9bb ac0b 70bc c0f0 79bc
000003e0: 1db7 efbc 2e77 c63c 48a2 fa3c 6de8 2fbc
000003f0: 720a 203d ed5e d139 2b9f acbc 6163 3dbe
0.0021606456 -0.14370911 0.0028169923 -0.020342808 0.032688435 0.036791313 -0.02231072 -0.0087450445
0.007525872 0.013859937 -0.015808739 -0.3955643 0.0018401131 -0.0050618327 0.00849796 -0.1081392
0.0042475616 0.0032376454 -0.026118943 0.02662002 -0.005286804 0.024322309 -0.00037668028 0.008065862
-0.022771401 0.00575498 -0.011300017 0.016804611 -0.01267448 0.02344638 0.033565916 -0.00011569707
-0.04430479 -0.010722422 0.007345991 0.009020548 -0.020456178 -0.0036460222 -0.02265629 -0.0012604365
0.18385702 0.0023002878 0.020877749 0.0038572378 0.18790667 -0.23056886 0.032829095 -0.009708704
-0.013964461 0.032384094 -0.1025052 0.024408318 0.024623161 0.0108026955 0.024190728 -0.001605539
-0.013739402 -0.19704922 0.010682761 -0.005227867 -0.015733646 -0.0034714972 -0.00346813 -0.30219817
-0.16155218 0.005236838 0.00045113344 -0.004133091 -0.0014587505 0.019918831 0.014120895 0.013267087
-0.2672785 0.003652297 -0.034884315 -0.010368592 0.29414332 0.22045757 -0.001999296 0.38607872
-0.025421957 0.04623038 -0.016485471 -0.0031202966 0.01593639 -0.08792637 -0.0006140014 -0.03560039
0.015297722 0.037307736 0.040101282 -0.02914216 0.0006592587 0.18352497 -0.00021929957 0.017680587
0.0147492625 -0.0010842723 0.009045007 0.028734103 -0.0603404 -0.014635423 -0.008907802 0.3975046
0.06939526 0.02766672 -0.010111406 -0.009557297 0.024383137 -0.0027502237 0.22511023 -0.0029388722
0.041510742 -0.023149697 -0.040775828 0.025402825 0.0089841755 0.02317475 0.0025692862 0.026154768
-7.3983625e-05 0.021589732 -0.007606835 0.0038860287 -8.367251e-05 0.015177939 0.003763802 -0.00062202004
-0.012265238 0.0003660342 -0.00084151956 -0.046555363 -0.0045469375 0.03423449 -0.02312954 0.0160026
0.0061951596 0.24590497 0.0029183263 0.00066885137 0.021372054 -0.011588971 0.028395634 0.13432354
-0.00022741247 0.028881758 -0.15117234 0.029901393 -0.0048656347 0.03573206 -0.014135956 0.024793567
0.00329871 0.0008654812 -0.0017909969 0.0012393197 -0.0030806884 -0.0105703445 0.008259413 -0.016150584
0.053441647 -0.018103154 0.0043365005 -0.017262707 -0.028308667 0.0065535144 -0.0997195 -0.030508418
-0.00029697642 0.0124786245 -0.018314289 0.004691503 0.015639547 0.023419183 -0.053271405 0.067044705
0.020660106 -0.019871552 0.0019185778 -0.0027941884 -0.017334731 -0.031546175 -0.00697594 -0.016210211
0.0379979 0.19651982 0.46982574 0.04051163 0.05376257 0.009148644 -0.0098938625 0.007875171
0.007674535 0.012307697 0.03808527 -0.055914693 0.009847157 0.0030871949 0.036497828 -0.024786899
0.001658097 -0.01943442 0.012844521 -0.03373603 -0.014691356 0.1043544 0.0003416901 0.022879045
-0.010276042 0.15341926 0.30920377 -0.31985754 0.014956132 -0.018966787 -0.008735591 -0.00522028
0.0008540057 -0.023236815 0.03463595 -0.011078267 -0.008147974 -0.16411605 -0.019404054 -0.0058188373
-0.0021335913 0.022703744 0.020878026 -0.026403358 0.006142906 -0.056190636 -0.031404797 0.031077811
-0.010532971 -0.009236991 0.014254477 0.008338824 0.0141810225 -0.006854297 -0.046957728 0.036049597
0.003329265 0.12636025 0.0049384297 -0.032532092 -0.0067510884 -0.007609631 -0.01465122 -0.015255153
-0.02926212 0.024226751 0.03059496 -0.010736567 0.03907246 0.00039934312 -0.021071991 -0.18494941
