save/lsqmobilenetv2_cifar100_ratio0516bit26/actor.pkl (torch, 377607 bytes, 5 tensors)

fc1.weight f4 [300, 10]
000000 f3 04 8c 3e 06 73 3f 3e ee bf 5f be a7 00 4c be
       0.27347526 0.18696222 -0.21850559 -0.19922124
000010 8b 00 14 3e d0 38 5b 3e ea b3 ce 3c 4f c7 33 be
       0.14453332 0.21408391 0.025232274 -0.17556499
000020 6a 56 0c be 88 d9 ca 3e 06 83 8c 3e e7 b5 8f be
       -0.1370484 0.39619088 0.27443713 -0.28068468
000030 b0 ff 17 3e 53 95 84 3e ee b3 ff 3d 69 1a 7c be
       0.14843631 0.25895175 0.12485491 -0.2461945
000040 61 0a a7 3e 83 57 2b 3d 7d 9e bf 3d e0 6d af be
       0.32625106 0.041831505 0.09356401 -0.34263515
000050 47 b3 46 bd c2 5b d2 3d 92 1e 83 bc 2e cf 8e be
       -0.048510816 0.10271408 -0.016005788 -0.2789244
000060 d9 8b 92 3e 34 6d a4 be 17 52 40 be a8 e4 90 bd
       0.2862232 -0.32114565 -0.18781315 -0.07074863
000070 68 99 47 3e b9 98 85 3e f5 14 88 3e a0 e4 40 be
       0.19492114 0.2609308 0.2657849 -0.18837214
000080 87 24 5e 3e b7 db 82 3c 75 de 78 bd 70 70 28 be
       0.21693622 0.015973909 -0.060759027 -0.16449142
000090 d0 45 51 be 09 d3 95 3e 50 60 5e 3e 7b 0a 41 be
       -0.20436788 0.2926257 0.21716428 -0.18851654
0000a0 7f 9b 07 bc f7 79 c0 3e 17 20 8e be cc 81 93 be
       -0.008276819 0.37593052 -0.27758858 -0.28809965
0000b0 a8 f7 88 be 14 2f fc bd 58 da 05 bf e8 2e 38 3e
       -0.26751447 -0.12313667 -0.5228629 0.17986643
0000c0 ef 8e 71 3e eb 1f e5 bb 30 77 9c bd 9f 23 ff 3d
       0.23589681 -0.0069923303 -0.07639921 0.12457966
0000d0 b4 0c 88 bd d3 1d ec 3d 94 f8 38 be 20 33 0b 3c
       -0.06643048 0.11529126 -0.18063575 0.008496076
0000e0 eb 2b 7f 3d bf bd 43 be 46 2e c9 3e be 30 b8 bd
       0.062297743 -0.19115351 0.39293116 -0.08993672
0000f0 96 41 6e be 64 5b 55 be e7 42 4c be 09 3c 68 be
       -0.23267207 -0.20835644 -0.19947396 -0.22679152
000100 ac 05 42 3e 94 e1 8e 3e ec f9 60 3e 13 a1 27 3e
       0.18947476 0.27906477 0.21970338 0.16370039
000110 e5 8e 2b 3d 1a 7f ff 3d 6c 1e 6c be b2 da e1 bd
       0.04188432 0.124754146 -0.2305848 -0.11028041
000120 3b ff c7 be 15 1f ad 3d 74 92 51 3e 74 b3 f9 3d
       -0.39061913 0.08453194 0.20466024 0.12192431
000130 26 a0 c3 bc 06 b7 be bc 2c 92 31 be 85 21 96 3c
       -0.023880076 -0.023280632 -0.17340916 0.01832653
000140 5e a9 05 bc cd ae ea 3e bd 42 9c be 09 c0 91 3d
       -0.008158056 0.45836487 -0.30519667 0.07116706
000150 45 e5 96 be 52 e4 83 3e ef d8 85 3e 81 34 95 bc
       -0.29471794 0.25760132 0.2614207 -0.018213512
000160 83 71 f7 3d 72 47 95 be 99 d3 7a be cb c6 92 3e
       0.120821975 -0.2915607 -0.2449478 0.28667292
000170 fc 0d 73 be a3 60 5a 3d 82 c0 c9 3c ef 54 8e 3d
       -0.23735803 0.053314816 0.024627928 0.069497935
000180 41 a8 7a be f2 1d 90 3d b6 93 03 3e 2d 38 59 3e
       -0.24478246 0.070369616 0.12849316 0.21212836
000190 4f d7 7f 3e 77 47 22 3e a9 92 68 be 36 39 f1 bc
       0.24984477 0.15847574 -0.22712196 -0.029446226
0001a0 9f 6f ec bd c1 e0 f8 3e 57 58 5e bd ee 88 82 3e
       -0.115447275 0.48608974 -0.054283466 0.25495094
0001b0 b5 d1 49 bd b8 d6 06 be 57 76 62 bd 2f 76 f9 3d
       -0.049272258 -0.13167846 -0.05528864 0.12180745
0001c0 0a 43 5c 3e 73 25 87 3d 4b 33 96 be 99 3f 7c 3d
       0.21509948 0.0659894 -0.29336008 0.06158409
0001d0 f2 35 39 be a2 b7 df bd 1b a8 12 bd 0e 3a c3 3d
       -0.18086985 -0.10923697 -0.03580485 0.095325574
0001e0 ce 08 99 3e e0 1f 8d be d6 ba c8 3e 5e e8 d6 3d
       0.2988953 -0.2756338 0.39205045 0.10493539
0001f0 09 57 0b 3e 9b 0e 2c 3d 9f 0f b6 be d6 b4 5e bd
       0.1360742 0.042006116 -0.35558793 -0.054371677
000200 eb ec 2e be 6e 71 ea be 0b 44 b3 be e4 c7 5c 3e
       -0.17082565 -0.45789665 -0.3501285 0.21560627
000210 a4 cc 10 3e a9 50 d1 3d 72 d4 20 3e 6b 76 ab 3d
       0.14140564 0.10220463 0.15706041 0.08372196
000220 6a 63 10 3e 65 d0 71 bd 2d f6 28 3e 92 08 25 3e
       0.14100423 -0.05903663 0.16500159 0.1611655
000230 7c 60 30 3e cf 19 ca bd 71 16 4c bd 7f 34 8d be
       0.17224306 -0.09868204 -0.04982609 -0.27579114
000240 30 eb 83 be 6b b0 75 3e d6 d8 95 be 8a 5e cc bd
       -0.2576537 0.2399308 -0.29266995 -0.099789694
000250 5e 4c c7 3d ad e8 6d 3c 97 ef 04 be ff fb 84 bd
       0.09731363 0.014520806 -0.12982021 -0.06493377
000260 5d 9e 61 bc 16 6d f5 3d 6c 12 3c be ff 61 91 3e
       -0.013770667 0.11983697 -0.18366402 0.28395078
000270 23 40 6b 3e 04 f1 87 3e 09 22 34 bb c6 88 ac 3e
       0.22973685 0.26551068 -0.0027486107 0.336981
000280 53 ea 81 3e 03 47 84 be 2c 4d dd 3c 49 cd 42 bd
       0.25374088 -0.25835428 0.027014337 -0.047559056
000290 d2 11 68 be ec d3 0e be 41 cf 61 be 6e 4d 73 bd
       -0.22663048 -0.1394803 -0.22051717 -0.059400015
0002a0 53 7c 2c 3e 43 f8 98 3d 9a 5c 92 be 40 5a 87 3e
       0.16844301 0.07469227 -0.28586274 0.26436043
0002b0 45 ef 85 be b6 11 1c bd 19 e0 ad 3e d5 4c 2f be
       -0.2615911 -0.038102828 0.33960035 -0.17119153
0002c0 be fd 20 3e ea cc 82 bc 3d f5 4b be 9c 42 38 3e
       0.15721795 -0.015966851 -0.1991777 0.1799416
0002d0 11 95 d9 3d 35 85 2b 3e 96 c9 27 be 28 68 70 be
       0.10624135 0.16750033 -0.16385493 -0.23477232
0002e0 95 38 22 3c 19 c3 74 3c cc ff f9 bc dd 16 97 be
       0.0099011855 0.014939093 -0.030517481 -0.2950963
0002f0 6d 77 80 3c 90 ac bd be 2f 68 2b be 09 bc 75 3e
       0.015681947 -0.37045717 -0.16738962 0.23997511
000300 6b 6a 17 bd 8c 8a 91 3d 3f ec 15 be af 22 4b 3e
       -0.036966722 0.07106504 -0.14640902 0.1983745
000310 2e 2b 11 3e a9 b1 92 be 25 80 77 3e 3d 13 80 be
       0.14176628 -0.2865117 0.24169977 -0.25014678
000320 6a 07 9d 3d 9a 95 1d be 7b 25 01 be 78 06 e5 bd
       0.0766743 -0.153891 -0.12611954 -0.111828744
000330 5a b1 2c 3e 7c 37 6d bd 8f dd 47 3e 25 81 00 be
       0.16864529 -0.057914242 0.19518112 -0.12549265
000340 26 b0 5f 3d 6f 2e 93 3e 9f f8 77 bc 96 ce 01 3e
       0.054611348 0.28746364 -0.0151349595 0.12676463
000350 e2 9e c8 3d 5e 4a 9b be d5 d4 cf 3d fd e9 6d 3e
       0.097959295 -0.30330175 0.10148016 0.2323379
000360 df 59 cd bd 34 30 40 be 49 81 91 3e 18 28 4c 3e
       -0.10026907 -0.18768388 0.2841895 0.1993717
000370 b6 86 6d bc f0 35 9e be 76 77 1f 3e e6 ce 05 be
       -0.01449745 -0.30900526 0.15572914 -0.13067207
000380 97 6f ee 3c 93 05 67 bc a6 df 3e be 09 d4 fb 3d
       0.029105945 -0.01410045 -0.18640003 0.12296302
000390 c3 f6 7d bd 1a cd 95 3e 52 da 9d 3e fd 84 0c 3d
       -0.06200291 0.29258043 0.30830628 0.034306515
0003a0 e3 bb 5f 3e 4d 52 6f 3e 7a ce 83 be 15 4f 51 3e
       0.21849017 0.23371239 -0.25743467 0.20440324
0003b0 9c 21 a8 3e aa 51 88 3e f7 7a 91 3d eb 18 b6 bd
       0.32838142 0.26624805 0.07103532 -0.088914715
0003c0 22 7d 5d 3d 96 5f f3 bc c5 de 0c bd cd 8a 9d 3e
       0.054074414 -0.029708665 -0.034392137 0.3076996
0003d0 05 35 dc bd af 40 33 bc 4a 00 a4 3d 03 65 f7 3d
       -0.107523 -0.010940715 0.08007868 0.12079813
0003e0 d0 2f 87 be 99 9a 86 3e 61 a7 98 3e ea e3 72 be
       -0.26403666 0.26289824 0.298152 -0.23719755
0003f0 54 18 86 3e 8b c7 42 be 03 c4 31 be d3 b0 b7 3d
       0.26190436 -0.19021432 -0.17359929 0.089692734

fc1.bias f4 [300]
000000 50 b0 bf 3d e1 7c 6b 3e 54 68 c1 3d 31 5d ca bc
       0.09359801 0.22996856 0.09443727 -0.02470264
000010 2f 98 95 be dd 30 34 be ac cf 0b 3e c2 cb 49 3e
       -0.2921767 -0.17596765 0.1365344 0.19706634
000020 c4 20 17 3e 9f 1f 63 bd 08 e8 50 3e c5 1c 9c 3e
       0.14758593 -0.055450078 0.20401013 0.304907
000030 25 1f 6c 3e e0 76 47 be b6 8f 6c be 9a 68 84 be
       0.23058756 -0.19478941 -0.23101696 -0.25861055
000040 d2 54 48 3e b8 35 ff bd 8f aa 65 3e 76 2b 6a 3e
       0.19563606 -0.12461418 0.22428344 0.22868142
000050 52 25 de bd de b2 2a 3d 7a fc b4 bc cf 37 4b be
       -0.10846962 0.041674487 -0.022093046 -0.19845508
000060 e7 f0 26 be 5d 33 32 be a0 59 e0 bd f7 1f 0e bb
       -0.16302834 -0.17402406 -0.109545946 -0.0021686533
000070 7c 10 c3 bd 6d 9f b4 bd f6 c8 13 be 49 fa 4b be
       -0.095246285 -0.088194706 -0.1443213 -0.19919695
000080 4b 74 4c 3e 5f 3b 95 3e b8 7e 4a 3d d3 3e 01 3d
       0.19966237 0.2914686 0.049437255 0.031554054
000090 94 f8 de bc 60 71 af bd 25 96 38 3e 27 cf b0 3d
       -0.02721814 -0.085665464 0.18026026 0.08633261
0000a0 b3 2d 8b 3e 4c a6 8a be 47 7e 96 3d 78 d7 43 3d
       0.27183303 -0.2708 0.07348304 0.04781291
0000b0 db 1c de bd c1 77 93 be d6 e6 60 3e bf ec 72 bc
       -0.108453475 -0.28802302 0.21963057 -0.0148269525
0000c0 7c 4f 81 3e cb cd 8f be 6f 8b 70 3e ef 1f 57 bb
       0.25255954 -0.28086695 0.2349069 -0.003282543
0000d0 cd 98 77 3d 0d 6b 60 3e 99 1e 67 3e c5 b9 32 3d
       0.060448457 0.21915837 0.22570266 0.043634195
0000e0 d4 95 25 be 6f c8 9b bd 94 b6 2d be 1f c1 98 3e
       -0.16170436 -0.07606589 -0.1696418 0.2983484
0000f0 37 49 f8 3c 65 a4 8e be 45 8c a0 3a 10 89 72 bd
       0.030308349 -0.27859798 0.0012248835 -0.059212744
000100 b2 5d d6 bd 9c 1f 85 bc db 0c 40 be 4f 35 10 be
       -0.1046709 -0.016250424 -0.18754904 -0.14082836
000110 de 0b 68 be b2 96 7f be 11 d5 8b bd c1 93 1a be
       -0.22660777 -0.2495983 -0.068277486 -0.15095426
000120 78 b3 41 3e b4 a2 eb bd bc ea 93 be 21 d1 89 3e
       0.18916118 -0.115056425 -0.28890026 0.26917365
000130 12 9c 75 be e3 ee 32 be 49 c4 ec bd f2 eb 78 bd
       -0.23985317 -0.1747394 -0.11560876 -0.06077189
000140 34 41 81 be 46 d2 c8 bd e6 2a a1 bb 2e 91 0f be
       -0.2524506 -0.098057315 -0.004918444 -0.14020225
000150 82 ce 34 bd 56 1d 3e 3e c5 80 22 3e 8c 6d 65 be
       -0.044142254 0.18565878 0.15869434 -0.2240507
000160 51 03 ff bc ce a8 8b 3d 0d 32 8a be e0 9c a7 bd
       -0.031129511 0.06819306 -0.2699131 -0.081842184
000170 92 e3 3d be 47 fd 58 3c c7 eb 81 be 35 e4 83 bd
       -0.18543842 0.01324398 -0.25375196 -0.064400114
000180 17 c8 33 be 5c 79 69 3e ac 3e f2 3d a6 fb 70 3c
       -0.17556797 0.22800201 0.1182836 0.014708435
000190 8a 65 87 3e e3 9a 89 be 04 ac ef bd 6f 8b 4a be
       0.26444656 -0.26875982 -0.11702731 -0.19779752
0001a0 e9 14 1e be a9 e3 e7 3d b2 58 54 3e 59 91 8e 3e
       -0.15437664 0.113227196 0.2073696 0.27845266
0001b0 23 a4 71 3e 75 a3 d6 bd 34 45 a3 3c 12 c9 0f 3e
       0.2359777 -0.10480396 0.01993046 0.14041546
0001c0 a6 d0 4b 3e 7f 70 28 3b 72 2b 3a 3e 55 76 a2 3e
       0.19903812 0.0025701819 0.18180636 0.31730905
0001d0 e1 d8 1d be af ab 18 3e ed 0b 2b 3e ed 53 3a 3e
       -0.15414764 0.14909242 0.16703768 0.18196078
0001e0 27 2d e1 3d d5 83 70 3d 24 27 3c be 97 41 63 bd
       0.1099494 0.058719475 -0.18374306 -0.055482473
0001f0 f1 81 ca 3b 7b a0 3c be d2 b1 6e bd 05 a7 8b 3e
       0.006180041 -0.18420593 -0.05827505 0.27275863
000200 9c 0f 88 be 8a 3e 5b 3e bf 99 ac bd 73 8d de bd
       -0.2657441 0.21410576 -0.08427762 -0.10866823
000210 cd a7 34 3e b0 f4 d8 bd 71 4a 29 3e 32 ae 0d 3c
       0.17642136 -0.105935454 0.16532303 0.008647488
000220 c2 28 e7 3d 52 e5 96 3e ab 48 31 bd 01 cd 1b be
       0.11287071 0.29471833 -0.043282192 -0.15214922
000230 ba 19 7e 3e b0 5e ea 3b eb 76 06 3e d5 cc 49 3e
       0.24814501 0.007152401 0.13131301 0.19707043
000240 f6 e6 73 bd 40 f2 a6 be 1b ad 34 be 7c 5d 45 be
       -0.059546433 -0.32606697 -0.1764416 -0.19273943
000250 e9 4c 28 3d fd e9 88 3d ca a3 5e 3e 69 60 5b be
       0.041088972 0.06685255 0.21742168 -0.21423496
000260 be f7 53 be 8a 81 36 3e 4e 79 0f 3d 9d 63 f5 3d
       -0.20699975 0.17822853 0.035027795 0.1198189
000270 2f 43 98 bb b6 5e 54 3e cf cf 5f bd 57 30 9a be
       -0.004646681 0.20739254 -0.05464154 -0.30115005
000280 91 6f e8 bd 72 eb 44 be 05 4b 67 bd 04 4e f7 3d
       -0.113494046 -0.1923044 -0.05646803 0.12075427
000290 24 5e 13 be e2 6e f5 3c d6 da a5 bd b4 39 b9 be
       -0.1439138 0.0299601 -0.0809838 -0.36176836
0002a0 5b 68 68 3e f2 b0 c8 3d 5d d8 09 3e c6 87 2d be
       0.22696058 0.09799375 0.13461442 -0.16946325
0002b0 a7 33 4e be 30 ca e6 3d 2a f4 27 3e 07 8f 9a 3e
       -0.20136891 0.11269033 0.16401735 0.30187246
0002c0 1a 31 75 bd 83 9e 0e 3e 71 7b af be ee 3f 80 bd
       -0.05986128 0.13927655 -0.34273866 -0.062621936
0002d0 22 83 0f 3e 99 67 6d 3e 6d e0 c4 be 4d 38 26 3d
       0.14014867 0.2318405 -0.38452473 0.040581036
0002e0 5f ed 0b 3e 92 88 6d be d3 8d 7b 3c 79 c5 22 be
       0.13664769 -0.23196629 0.015353638 -0.15895642
0002f0 92 b9 63 be 8d a8 99 be 81 42 08 be 2f fd 4c bd
       -0.22238758 -0.30011407 -0.13306619 -0.050046142
000300 71 eb 04 be 3a 39 3e be e0 97 bf 3d 94 cc 51 3e
       -0.12980439 -0.18576518 0.0935514 0.20488197
000310 34 a1 84 be cf 59 87 be 6a 32 29 be 09 7e 60 be
       -0.25904238 -0.26435706 -0.16523138 -0.21923079
000320 d2 6c 83 3e 4f 9f ba 3d 56 3f ec 3d c4 46 4a 3e
       0.2566896 0.09112417 0.11535518 0.19753557
000330 48 eb 87 3e be 0a 6a 3e 30 b8 c3 3d 8b 31 3a be
       0.26546693 0.2285566 0.09556615 -0.18182962
000340 3f 33 d7 3d 00 82 12 3e ae 78 94 bc d8 b2 14 3e
       0.10507821 0.14307404 -0.01812395 0.14521348
000350 7c e8 4f 3e cd 04 d8 3c 9d 47 8f 3a 17 cf 0d 3b
       0.2030353 0.026369477 0.0010931377 0.0021638328
000360 e8 4a 9d be bc ee 53 be c7 c4 5f 3d b1 cd bf bd
       -0.3072121 -0.20696539 0.05463102 -0.093654044
000370 c4 c4 3d bd f4 c6 a5 3c 09 4b 72 3e d5 f8 b5 bd
       -0.04633023 0.02023647 0.23661436 -0.088853516
000380 bb 3e 0d 3c 4b 2f ec bd 77 49 e5 3d 94 56 f0 bc
       0.008620913 -0.11532458 0.11195653 -0.029338159
000390 fe 34 26 bb 84 a3 03 3e df 0e ca 3d 0c 3d ce bd
       -0.0025361176 0.12855345 0.09866118 -0.100702375
0003a0 e5 f2 4e 3e bf 0d c9 3d fe fb 4c bd 8d dc 51 bd
       0.20209844 0.09817075 -0.050045006 -0.051235724
0003b0 ac 7e 0a 3e 99 5b cd 3c 1f f7 6f be 63 fe bc bc
       0.13524884 0.025068091 -0.23434113 -0.02307052
0003c0 b9 c8 aa 3d 91 cb d1 bd 36 74 e6 bd 24 84 8a be
       0.08339066 -0.10243905 -0.11252634 -0.2705394
0003d0 28 df 37 3e 96 90 26 3e d0 b8 0f be ac d0 f2 bd
       0.17956221 0.16266093 -0.14035344 -0.11856207
0003e0 fd 89 8f be 0e 1b a6 be ad 9d 5c 3d 80 0c 8b be
       -0.28034964 -0.32442516 0.05386131 -0.27157974
0003f0 f4 9d 99 be bc e8 21 3e 43 ab 81 3e b3 67 87 3c
       -0.3000332 0.15811437 0.25325975 0.01652894

fc2.weight f4 [300, 300]
000000 18 c7 bf bd 2e c5 51 3d d6 87 57 3c 35 30 90 bd
       -0.09364146 0.051213436 0.013154944 -0.07040445
000010 85 16 8b 3e ea f8 17 bc e6 3f 26 bc 64 34 9f bc
       0.2716562 -0.009275654 -0.0101470705 -0.019434161
000020 26 08 6e 3d 85 41 b4 bb ad d3 30 bd 7f 0d 8e 3d
       0.05811324 -0.0055009746 -0.04317062 0.06936168
000030 73 14 b6 3c 24 3a 8f bc 12 f3 89 bc a1 8f c1 bb
       0.022226548 -0.017483778 -0.016839538 -0.0059070145
000040 d6 6d 77 ba 4f bd 28 be 92 b4 3d be 21 60 2a bd
       -0.0009438669 -0.16478465 -0.18525913 -0.041595582
000050 f3 6a c0 bc 75 d2 ec bb 25 f9 a4 3d 1f 5a 5d 3d
       -0.023488497 -0.007227237 0.08055333 0.054041024
000060 7c 4f 53 3d 03 56 7e bd f0 1f 0f 3c 0e 34 00 3b
       0.051589474 -0.062093746 0.008735642 0.0019562277
000070 ab 73 02 3d fe 42 8d 3d 2f 7d c0 3c 31 81 3a bc
       0.03184859 0.06897543 0.023497192 -0.011383341
000080 74 86 ff bc d0 f3 b8 3c 9e b6 29 bd cc 64 3f bc
       -0.031192042 0.022577196 -0.041433923 -0.011681747
000090 7b 12 99 3d 77 9c 78 bc 57 9d a0 3d b8 58 4e bd
       0.07474228 -0.015174023 0.0784251 -0.050377578
0000a0 6b a4 99 3c 09 f0 05 3d 58 74 4c bd ec 31 de 3d
       0.018755158 0.03269962 -0.04991564 0.108493656
0000b0 04 c6 3b 3d 21 51 30 3b 2a ae f4 3c 92 be 23 3d
       0.04584314 0.0026903825 0.029868204 0.039976664
0000c0 ac 32 89 3b 6c 52 94 bb af d7 00 3d 91 09 ff bc
       0.0041869488 -0.004526427 0.031455692 -0.031132491
0000d0 12 5a 83 3d ee 86 5d bd 94 16 57 bc a9 ca ce 3c
       0.06413664 -0.054083757 -0.013127942 0.02524312
0000e0 e6 68 18 bd f5 f5 b3 bc c6 5c ee 3d 44 2c 09 3e
       -0.037209414 -0.021967867 0.11638789 0.13395792
0000f0 51 20 12 bd 8b f6 9b ba 66 ca 4e 3d 62 44 39 bd
       -0.03567535 -0.0011899037 0.05048599 -0.04523123
000100 6d 18 3f be f2 74 48 3d 25 22 6d bd b3 9f 88 3d
       -0.18661661 0.048939653 -0.05789389 0.06671085
000110 59 da c9 b7 af 1e 08 3d ee 6a cf bd 38 14 e2 3c
       -2.4062743e-05 0.033232387 -0.10127817 0.027597532
000120 2f 3f 28 3d 33 da 87 bc a1 a0 0d bf fe 64 93 bc
       0.04107588 -0.016583538 -0.55323225 -0.017992493
000130 9e 5b a7 3d b0 98 12 3a 30 6c 30 be 37 01 57 3d
       0.081717715 0.000559221 -0.1722877 0.052491393
000140 83 1c 32 bd 7b d1 a9 bc 49 89 b4 bd 39 77 47 be
       -0.043484222 -0.02072977 -0.088152476 -0.19479074
000150 51 06 bc bd b1 88 b0 bc c7 5b 00 3c 8e 97 b4 bc
       -0.09180892 -0.021549555 0.007834381 -0.022044923
000160 df 1f 71 3d 93 cf 43 bd 1c 79 31 be cb fe 82 3c
       0.058868285 -0.04780538 -0.17331356 0.015990635
000170 6c 3c fc bd 4f b8 a9 bd b1 4a ae bc 5e 1e 5e 3d
       -0.12316212 -0.08287107 -0.02127585 0.05422818
000180 7d 54 63 3d c4 74 d3 bc f0 eb 24 bd c9 a8 46 3c
       0.055500496 -0.025812514 -0.04026407 0.012125202
000190 0c 7b e8 3c cc 99 e4 bc 88 e9 14 be 5c d6 6f 3b
       0.028378986 -0.027905367 -0.1454221 0.0036596274
0001a0 b2 67 90 3c f6 ba 99 3d c5 f7 ce bc e7 8c 9e 3d
       0.01762757 0.07506363 -0.02526463 0.07741719
0001b0 f4 ef 2c 3d dc 0e 88 be a4 e4 23 3d 41 3c a9 3c
       0.042221025 -0.26573837 0.04001297 0.020658614
0001c0 e3 0f cf bc c8 f3 51 3c cc b0 03 3d 46 81 ea 3c
       -0.02527613 0.01281447 0.03215103 0.028626096
0001d0 7f d8 7d 3c 6a 00 6e bc 1c ae de bc 5d 8f c0 3d
       0.015493511 -0.014526466 -0.027182631 0.094023444
0001e0 c9 dd 0a 3d 8e 90 01 be ea c3 18 3d cd ee c0 3d
       0.033902917 -0.126528 0.037296213 0.09420548
0001f0 83 28 17 bc c4 21 4c 3d 35 67 b7 3d 6b b7 b4 3d
       -0.009225967 0.04983689 0.08955232 0.08824047
000200 5e af 57 bd 30 c8 03 bd 96 fc 29 3d c6 4f fd 3d
       -0.052657478 -0.032173336 0.04150065 0.12368731
000210 1f 20 85 bd cd b9 a6 3c a7 00 ef 3d 03 3c 94 3b
       -0.06500267 0.020352269 0.11670046 0.0045237555
000220 95 c9 02 bd 2a 36 fa 3d 96 96 87 3c a4 a4 62 3d
       -0.031930525 0.12217362 0.016551297 0.055332795
000230 a3 09 a8 bc 5a f4 38 bc db 76 82 3b 2b 72 04 3d
       -0.020512408 -0.011288727 0.003981454 0.03233544
000240 de a5 9f bd 92 6a b3 bd d5 a4 5e 3d d6 5b 0b be
       -0.077953085 -0.08760561 0.054356415 -0.13609251
000250 b7 d8 71 3d fd 0e 2f 3d 17 97 87 3c c1 06 12 3d
       0.059044566 0.042738903 0.016551537 0.035650972
000260 47 c9 ce 3d fe 1c 19 3e d7 8a 5c bd 0a 54 69 3d
       0.10096984 0.14952466 -0.053843345 0.05696491
000270 7d ff 2b 3d 88 6c 55 3d df aa 24 3e 6b 74 10 3d
       0.0419917 0.052105457 0.16080807 0.035267275
000280 60 18 b6 bd a8 ff 43 be ae 6d d0 be 60 6c ca bd
       -0.08891368 -0.19140494 -0.4070868 -0.09883952
000290 6b 33 f7 3b 4a e0 ac ba 4a 65 dc bd bc 1e 0a 3e
       0.0075439713 -0.0013189402 -0.10761507 0.13488287
0002a0 a5 8c 28 3d 8d 81 b4 3d 8c ef d1 3d fb 85 3c 3d
       0.041149754 0.08813772 0.10250768 0.04602621
0002b0 0b 05 28 3c 2d 74 b2 3d fa ab 07 3e df a9 cb 3c
       0.010255109 0.08713565 0.13249198 0.024861274
0002c0 ca c1 ee bd fd 08 81 bc a8 28 25 bd 0a 83 ca 3d
       -0.11658056 -0.015751356 -0.040321976 0.09888275
0002d0 32 cb 22 be 8b 56 f7 3c 84 3a e9 be d4 6f 84 3b
       -0.15897825 0.030192634 -0.45552456 0.0040416513
0002e0 6e a0 17 3d c3 ec 06 be d3 1f 8e 3d 43 0e c7 3c
       0.037018232 -0.13176255 0.06939664 0.024298793
0002f0 db 27 1c be 81 99 83 be 6d 52 06 3e aa b3 2a bc
       -0.15249579 -0.25703052 0.1311738 -0.010418812
000300 ce 2c 5b 3d b9 5a 1e 3d 6d 7e 8f 3d 22 4f 7a be
       0.053509526 0.03866074 0.07006536 -0.2444425
000310 6e 58 32 bd b9 4b 89 bd b0 d1 cf 3c f6 ff 7f 3c
       -0.043541364 -0.06703896 0.025368541 0.015624991
000320 89 9d 2c 3d 80 1c 3c bd a2 5c 89 3d c1 aa 87 bb
       0.042142425 -0.045925617 0.067071214 -0.0041402285
000330 46 4a 66 bc 60 db 5d 3c 8a e1 76 bd 87 c3 e2 bb
       -0.014055794 0.013541073 -0.060273685 -0.0069202813
000340 ad 48 88 3b 5f e0 80 3c 3a 55 f1 3c e6 05 5c 3d
       0.0041590543 0.015731988 0.029459585 0.053716563
000350 93 0b 37 3d 6c ec bc b9 43 1a f8 bc 65 18 de 3b
       0.044688772 -0.00036034302 -0.03028596 0.0067778104
000360 48 cd 2a 3d 8a d5 28 3c 1d 97 2c bd 1b 35 b2 bd
       0.041699678 0.010304818 -0.0421363 -0.08701535
000370 3a 34 0c bd ba df 28 bc 3e 98 54 3c bb d3 03 3e
       -0.034229495 -0.010307247 0.0129757505 0.12873738
000380 84 84 5a 3d f8 ad 37 bf 05 c2 b0 3d 7a 9b 67 3d
       0.053349033 -0.7174983 0.08630756 0.05654476
000390 6c 03 e3 3d 47 d2 00 bc c3 7a 2d bd 6a e2 51 bb
       0.11084637 -0.007862634 -0.042353403 -0.0032025822
0003a0 22 86 61 3d b7 26 52 3d e7 69 3b bd 28 9b 03 bd
       0.05505956 0.051306453 -0.045755293 -0.03213039
0003b0 04 85 16 3e c0 97 9d bd 14 7c 46 3d 75 33 50 be
       0.14699179 -0.0769496 0.048458174 -0.2033213
0003c0 25 5f ab 3d 53 8d 52 bc 36 57 9a bc cb e6 0e 3b
       0.08367757 -0.012851077 -0.018840414 0.0021805044
0003d0 1b 72 80 3c 03 06 1c 3d 60 c2 49 bd 34 89 bf 3c
       0.01567941 0.03809167 -0.049257636 0.023380853
0003e0 d8 bd af bd 8b 30 01 bd 45 03 58 bd be e5 45 bd
       -0.08581132 -0.031540435 -0.052737493 -0.048314802
0003f0 65 b1 80 3c c6 c8 ae bd 44 95 2c bd 78 3a 8c be
       0.015709588 -0.08534388 -0.04213454 -0.27388358

fc2.bias f4 [300]
000000 1a 90 9e bc 6e 63 3d bd c9 3b 56 3c 11 65 85 3c
       -0.019355822 -0.0462374 0.013075777 0.016283544
000010 47 14 ff bc 5b f2 41 3d b9 f0 d4 bb 9e 80 03 bd
       -0.031137599 0.04735027 -0.006498423 -0.03210508
000020 28 aa b8 bc 5e 0d 67 3d 8c 72 32 bd 8b 21 13 3d
       -0.022542074 0.056409232 -0.04356627 0.03592066
000030 1c 1a 35 bd 05 8d 71 3d db b4 f5 3c b1 df 26 3d
       -0.044214353 0.058972377 0.029993465 0.040740672
000040 33 8b 16 3d 32 07 e8 bb 0d 47 0c bc 66 d1 0a bd
       0.036753844 -0.007080936 -0.008561862 -0.033891104
000050 75 9a b8 bc 98 23 60 3d eb 5a 60 3b bf f1 2b 3d
       -0.022534588 0.054721445 0.0034233879 0.041978594
000060 6a ad a3 3b ac 23 13 3c 80 a8 9a bc b7 7c a7 bc
       0.004995038 0.008980673 -0.018879175 -0.02044521
000070 81 c0 84 bc c7 81 8b b9 ec 7e f9 3c d4 8b b2 3b
       -0.016205074 -0.00026608838 0.030456029 0.0054487977
000080 42 86 0d bd c7 52 44 bd 09 d2 a6 bc a2 8d cc bc
       -0.034551866 -0.047930505 -0.020363824 -0.02496988
000090 e3 c6 bf bb 00 1f 50 3d b8 ea 96 bb 5e 0c 19 3d
       -0.0058525666 0.050810814 -0.0046056174 0.03736531
0000a0 fb a3 51 bd 01 5f 22 3d ef a1 5a 3d 75 58 1d 3d
       -0.051181775 0.039641384 0.05337709 0.038414437
0000b0 1d 87 d3 3b b9 a6 03 bd 78 36 49 3d 12 6f 6f bd
       0.0064553157 -0.03214142 0.04912421 -0.058455534
0000c0 08 a2 e5 3c cd 83 53 3d 23 5e 00 bd 98 d9 99 3d
       0.028031364 0.051639367 -0.031339776 0.07512206
0000d0 8f 30 f1 bc 64 e5 a5 bc bb 91 53 bd 81 bd 03 bc
       -0.0294421 -0.020250984 -0.05165265 -0.008040787
0000e0 a3 8d 23 bd 3a bc 66 3c 6e c8 28 3c be c4 1a 3d
       -0.039929997 0.014082963 0.010301692 0.037785284
0000f0 64 65 3b bd 4b 03 58 3c 37 fb 3f bd 87 ff 3e 3d
       -0.04575099 0.013184379 -0.046870437 0.04663041
000100 90 64 cf bc 54 ec 06 3d 5a 88 84 3d 49 51 be bc
       -0.025316507 0.032940224 0.064713195 -0.02323212
000110 72 2f 0d 3d b4 68 32 bd e6 9c 97 3d 23 ec c2 3c
       0.034469076 -0.043556884 0.07402973 0.02379424
000120 ef 2d 53 bd da 69 2c 3d ab 82 13 3d 90 07 70 3c
       -0.051557478 0.042093135 0.036013287 0.014650241
000130 db fa 5d bc 31 b9 93 bb 6d 86 5c 3d 2b ab d6 3c
       -0.013548578 -0.0045081605 0.053839136 0.026204666
000140 74 a3 46 3d 8d ca 18 bd ac 8b 57 bc c4 4d ca bc
       0.048495725 -0.037302542 -0.013155859 -0.024695285
000150 5a 37 37 3d ec ca 1e 3d db c2 d5 bc a1 f4 4e 3d
       0.04473052 0.03876774 -0.02609389 0.050526265
000160 73 6a a4 3c 66 e7 c5 3c f0 62 4a bd 95 6d 6b bd
       0.02007029 0.024158191 -0.04941076 -0.057477552
000170 46 51 36 3d 80 8c 11 3d 90 86 c0 3c 48 19 01 3b
       0.044511102 0.035534382 0.023501664 0.0019698907
000180 68 0a 60 3d 47 32 67 3d 3e 0e f8 bb 69 3c f6 bc
       0.054697424 0.056444433 -0.007570057 -0.030058103
000190 cc b7 13 bd 1b 4d 77 3d 58 e2 80 3d fd 78 37 3d
       -0.036063954 0.060376268 0.06293172 0.044793118
0001a0 85 b8 f1 3c 77 01 cc bb 26 47 6b 3d e7 03 62 3c
       0.029506931 -0.0062257606 0.0574409 0.013794876
0001b0 a5 80 ea 3c fe 36 2e 3d aa a7 b2 bc 6e b7 b1 ba
       0.028625796 0.042532913 -0.021808464 -0.0013558695
0001c0 91 1e 5d 3c 80 ea 6f bc 09 fb f9 3c 47 62 c0 bc
       0.013496057 -0.0146433115 0.03051521 -0.023484362
0001d0 b6 04 ca 3c f6 05 d1 3c 17 88 44 3d 18 3f fc 3b
       0.02466045 0.025515538 0.047981348 0.007697951
0001e0 2b eb 24 bb da d5 37 bc cb 54 25 3d ed 1b 4c bc
       -0.0025164585 -0.01122042 0.040364068 -0.01245783
0001f0 2c 16 94 bc 33 d8 6f 3d 68 27 48 3d c6 08 10 3d
       -0.018076979 0.058555793 0.048865706 0.035164617
000200 68 4a ea 3c 21 3b 52 bd 8b df 01 3a df b7 38 3d
       0.028599933 -0.05132592 0.000495427 0.04509723
000210 4d 59 76 bd 1e b9 3c 3d 53 47 64 3d 4f 0d cc bc
       -0.060143758 0.04607498 0.055732083 -0.02490869
000220 f1 02 42 bc 4e 00 31 3d c7 cd 89 3c 36 94 79 bc
       -0.011841522 0.04321318 0.016821755 -0.01523309
000230 c6 ce 83 3d f3 a5 69 3d 56 68 34 bd 0f 4c 86 bc
       0.06435923 0.057043027 -0.044044815 -0.01639369
000240 08 25 3e bc bd b8 cb bc e3 a1 e7 3b 7a 81 cc bc
       -0.011605509 -0.024868364 0.007068859 -0.024964083
000250 1e 31 60 3c bc 66 30 3d 87 28 42 3d 30 7b 91 3c
       0.013683585 0.043066725 0.04740193 0.017758936
000260 86 c9 03 3c 74 12 99 bc 76 bf 35 3c 68 32 07 3d
       0.008043652 -0.018685557 0.011093011 0.033007056
000270 44 1c e7 3c fb 14 bd 3c 70 8b 0e 3d 62 32 55 3d
       0.02821172 0.023081293 0.034800947 0.052050002
000280 12 ff 60 ba 3d ab 8f 3d 02 03 fb b8 65 80 16 bd
       -0.00085829303 0.07015083 -0.00011969173 -0.03674354
000290 9a 4f 89 3d f3 6a 38 3c bb 65 66 3d 6c d7 f2 3c
       0.06704636 0.011255967 0.05624936 0.029643737
0002a0 61 65 6a bd ae c4 97 3c e0 a3 d7 bb c2 df 43 39
       -0.05722559 0.018526401 -0.0065808147 0.00018680005
0002b0 cb d7 db bc 7b 41 ad ba b7 f4 3b 3d 83 1a f4 3c
       -0.026836297 -0.0013218367 0.045887675 0.029797798
0002c0 ca 90 34 3c 5e b1 2b bb 00 2c d7 bb 0a 40 72 3c
       0.0110208485 -0.0026198248 -0.0065665245 0.014785776
0002d0 ab 21 70 3d 2f e3 25 3d b8 7a 12 3d 3f 6f 36 3d
       0.05862586 0.040499862 0.035761565 0.044539686
0002e0 89 6b 4f 3c 88 0a e1 3b ff 05 61 3d aa 63 66 bd
       0.012659916 0.0068677105 0.05493736 -0.05624739
0002f0 2c 52 23 3d 8b 40 d5 3c b8 73 86 bb 63 a6 0b 3d
       0.039873287 0.026031753 -0.00410315 0.034094226
000300 77 71 6a 3d 89 29 a6 bc 6b 1a af bc 04 20 42 3d
       0.057237115 -0.020283477 -0.021374902 0.047393814
000310 54 87 49 bd eb ef ef bb 59 ea 4e bd 5f 6f 54 bc
       -0.049201325 -0.0073223016 -0.05051646 -0.012966006
000320 10 c0 27 3d f5 ec cd 3c b3 52 e9 3a 3c b1 13 bd
       0.04095465 0.025137404 0.0017801136 -0.036057696
000330 36 1f fa 3c 73 b1 37 3c 5f 36 2f bd 63 19 7f 3d
       0.03053246 0.011211741 -0.04277646 0.06228007
000340 04 49 61 bc 28 10 9d 3d 85 90 36 bd 33 c7 88 3c
       -0.013750318 0.07669097 -0.04457142 0.016696548
000350 30 c8 62 3d 9b 3e da 3c 43 04 40 3d 2f 4f 2b 3c
       0.055366695 0.02664118 0.046879064 0.010455891
000360 da 9e 23 3d 80 fd 10 bb cd b0 57 bd d1 95 2f bd
       0.039946415 -0.0022123754 -0.052658845 -0.042867485
000370 c9 cc 09 3d 2e 3f a6 3d 53 6d 0c 3d 30 55 09 3d
       0.033642564 0.08117519 0.034283947 0.033528507
000380 1b 15 79 bc b8 2d 33 bd 62 35 0c bd 2d d6 0f bd
       -0.015202786 -0.043744773 -0.034230597 -0.035116363
000390 3e 20 84 3b 42 97 a2 3d 3a 40 85 3d cb 94 3a 3d
       0.004032164 0.079390064 0.06506391 0.045552056
0003a0 72 15 84 3c 0c f1 68 3d 04 e2 95 3c 0f f1 48 3d
       0.016123507 0.056870505 0.01829625 0.049058016
0003b0 d5 2d e9 3c e8 4f 0b 3c c9 ee 2f 3d 80 c5 c0 bb
       0.028464237 0.008502938 0.042952333 -0.005882919
0003c0 11 6e 24 bb 80 f9 cc bc 51 d6 6c 3d 7a 47 eb 3c
       -0.0025090019 -0.025021315 0.057821576 0.028720606
0003d0 f1 9f 36 3d 34 70 99 bc d9 f8 06 bd 86 d6 42 bd
       0.044586126 -0.01873026 -0.032952163 -0.047567867
0003e0 92 61 5c 3d 87 f1 54 3d cf 3d 21 bd 2a a0 af 3c
       0.053803988 0.05198815 -0.039365586 0.021438677
0003f0 ab 6a be 3c 85 6e a0 bc 7e 95 a2 3d 0c f9 7f bb
       0.023244223 -0.01958395 0.079386696 -0.0039058356

fc3.weight f4 [1, 300]
000000 b1 10 94 bd 2f 48 7f 3e 28 e3 8e bd 34 4c 01 3e
       -0.07229746 0.2492988 -0.0697692 0.12626725
000010 de 4a e1 3d ce 27 37 bc 80 2c 40 3e 4f 5d b3 3e
       0.11000608 -0.011178924 0.18766975 0.35032126
000020 67 37 d7 3d d5 d3 0f 3e 59 84 3d 3d 9c 1a 90 bd
       0.10508614 0.14045651 0.046268795 -0.07036325
000030 95 0f b9 bd 61 1f 8d bd 93 d1 e7 bd 06 6c 06 3e
       -0.09036175 -0.06890751 -0.1131927 0.13127145
000040 d5 95 6a bd a7 85 4f be 20 28 86 bd e5 6a b9 bc
       -0.057271797 -0.20265828 -0.06550622 -0.02263398
000050 05 2a 43 bd ef d2 de 3d 59 af 59 bd 95 3a 43 bd
       -0.047647495 0.10880076 -0.05314574 -0.04766329
000060 d3 92 e9 3d 17 43 03 be 05 40 6c bd f5 3b 96 3e
       0.114049576 -0.12818561 -0.05767824 0.2934262
000070 c4 a8 96 bd dc e6 6a bd 99 9c 62 3e 04 18 ee bd
       -0.07356408 -0.05734907 0.2213005 -0.11625674
000080 b8 5d 65 3d e2 d7 21 3e 1d bc 8d 3c 80 f1 15 3e
       0.05599758 0.15805009 0.017301613 0.14642906
000090 c4 73 00 3e 56 d3 fa bb ff 4c 45 3c 52 76 f6 bd
       0.12544161 -0.0076545877 0.012042283 -0.120342866
0000a0 65 ed b2 3e 2c bf 5c 3e a6 9e c0 bd 89 57 a6 bd
       0.34946743 0.21557301 -0.0940526 -0.08122165
0000b0 fa b5 ba bd cb ec b4 bd 41 35 08 be d8 00 33 bc
       -0.091167405 -0.08834227 -0.13301565 -0.010925494
0000c0 15 ed ed 3d 9c 05 d6 3e 6c c9 86 3e 08 26 23 be
       0.116174854 0.41801155 0.26325548 -0.15932477
0000d0 35 cb ad 3e 80 fd 84 3e 0c f5 98 3e 2a 28 b4 bd
       0.33944097 0.25974655 0.29874456 -0.08796723
0000e0 90 98 71 bd 8e 9f c4 bd 2f 63 5d 3d 5c ba b6 3d
       -0.058983386 -0.09600745 0.054049667 0.08922264
0000f0 40 24 5f 3e 2e 22 3a bd 0d 6e d3 3c 95 a4 3d bd
       0.21791172 -0.045442753 0.025809312 -0.046299536
000100 9c 44 d2 bd bc 4c ba 3d be eb bc bd a2 5b 5e bd
       -0.102669924 0.09096667 -0.09224652 -0.054286607
000110 8e 3f a2 bd d6 50 7e bd 32 f4 c5 bd 7d 7c 5d 3e
       -0.07922278 -0.06208881 -0.09665717 0.2162952
000120 bd 5f 1b 3a 6b bc 2a be 8c d5 94 bd 5a 89 2b bb
       0.0005927047 -0.16673438 -0.07267293 -0.0026174397
000130 ec 11 3f 3e ec 8c 33 bd bb 05 0b 3e de 2b cc bd
       0.1865918 -0.043835565 0.13576405 -0.099693045
000140 5d dd ed 3e d8 63 5c 3e c2 e6 49 bd 19 6e 66 bd
       0.4645795 0.21522462 -0.049292333 -0.05625734
000150 c7 d9 28 3e 0e de d6 3e 41 fc 4b 3e 5e c7 af bd
       0.16489325 0.4196629 0.19920446 -0.08582948
000160 29 26 13 be 98 a0 1a 3f 4a fb 24 bd 8b 57 3b 3b
       -0.14370026 0.60401297 -0.04027871 0.0028586115
000170 53 c6 22 bd 50 2a 50 3f 89 ff 0a 3e b1 40 5f bd
       -0.039739918 0.81314564 0.13574041 -0.054505054
000180 67 92 fe 3d 98 49 5d 3e db f7 83 bd 98 86 26 3e
       0.12430268 0.21610105 -0.06443759 0.16262281
000190 62 38 cf 3e 82 11 68 bd f1 f7 b9 bd f4 a0 d6 bd
       0.40472704 -0.05665732 -0.09080494 -0.10479918
0001a0 b8 1f 91 bd d4 58 0b 3e fe 1b 56 3e 12 48 14 be
       -0.07086128 0.13608104 0.20909116 -0.14480618
0001b0 59 74 6a bc a3 66 64 3e 81 96 44 bd 73 79 d8 bd
       -0.014309966 0.22304778 -0.047995094 -0.105700396
0001c0 bf 9e 67 3d ae 8a d8 bd 75 53 46 3e 91 e5 3a bd
       0.056547876 -0.10573326 0.19367774 -0.045629088
0001d0 78 1b 80 bc 22 7b e8 3e 0c 2e a3 bd 81 33 c1 bd
       -0.015638098 0.45406443 -0.07967767 -0.09433652
0001e0 c4 7f 9b bd 18 a7 63 bd 4c ca 92 bd d5 9a ca bd
       -0.07592729 -0.055579275 -0.07167491 -0.09892813
0001f0 b4 3b 27 3e e9 1f fb bc 62 dc 38 3d 10 cb fd 3d
       0.16331369 -0.030654864 0.04513205 0.12392247
000200 fd 25 93 bd 05 93 67 bd 0a f6 82 3e ab 16 f5 3d
       -0.0718498 -0.056536693 0.25578338 0.11967214
000210 bf 1c 30 bc f8 de ac bd d9 48 92 bd ac 0e 07 bc
       -0.010749041 -0.084409654 -0.07142801 -0.008243244
000220 9f 63 c5 bd 82 a3 a4 bd 14 15 4c 3e 29 78 e8 3d
       -0.09638142 -0.08038999 0.19929916 0.11351044
000230 cb c8 25 3e af bd 1b be 01 34 ae bc 79 61 a3 bd
       0.16189878 -0.15209077 -0.021265032 -0.07977576
000240 1f 64 48 3d aa 35 71 3e e3 cc 40 3e 52 55 aa bd
       0.048923608 0.23555627 0.18828158 -0.08317055
000250 23 4f c1 bd f2 57 57 3e 54 b5 5d 3e 6b 82 7b bd
       -0.09438922 0.21029642 0.21651202 -0.061403673
000260 44 88 cf bd 0c 68 b3 bd 7d 75 c0 3e d3 92 59 3e
       -0.101334125 -0.0876008 0.37589636 0.21247415
000270 35 68 95 bd 44 bc 4e 3e c1 90 a7 bd 40 81 9a bd
       -0.072952665 0.20189005 -0.081819065 -0.07544184
000280 aa 2e cd bd af a0 39 3e 43 6d a2 bd 9b 9b 80 bd
       -0.10018666 0.18127702 -0.07930996 -0.062796794
000290 3f 87 09 3e e5 d8 1b 3e a6 63 a1 3d 54 f4 a5 bd
       0.13430499 0.15219457 0.078803346 -0.081032425
0002a0 6f 01 13 bd b6 30 c5 bd fc 87 1a 3e f9 79 51 bc
       -0.03589004 -0.096284315 0.15090936 -0.012785428
0002b0 23 29 26 3e a7 aa da bc 92 ac ef 3d e7 f5 c5 bd
       0.1622663 -0.026692702 0.11702837 -0.09666043
0002c0 c2 99 49 bd fb 3e e3 bc 39 a3 dc bd 09 c2 34 3e
       -0.0492189 -0.027739992 -0.1077332 0.17652144
0002d0 4c 84 0a 3e 31 8f 48 3e c6 65 c7 bb 5e 09 03 be
       0.1352703 0.19585873 -0.0060851304 -0.12796542
0002e0 7b a8 69 bd f6 d3 e4 bd 98 fc b6 3d 8d b7 46 3e
       -0.05704544 -0.11173241 0.08934897 0.19405957
0002f0 ac 32 98 bd e6 7a ff 3d 69 fd 43 3d fc 4b d2 bd
       -0.0743154 0.12474613 0.047849093 -0.10268399
000300 a9 e5 47 bd b2 44 50 3e 83 71 c0 bd f0 a0 3c 3e
       -0.048803005 0.20338705 -0.09396651 0.18420768
000310 aa 16 ce 3d c1 e5 31 3d 45 0e bb 3d 72 6b 3e bd
       0.100629166 0.043432 0.09133581 -0.046489187
000320 13 a3 55 bd f3 78 4d 3e cc 23 b6 3d c9 4e f2 bc
       -0.052157473 0.2006567 0.088935465 -0.029578583
000330 c5 04 c1 bd 62 fb 12 3e 25 ec 9a bd a0 13 c0 bd
       -0.09424738 0.14353707 -0.07564572 -0.09378743
000340 86 bc 2c 3d f2 37 a2 bd 68 2b 52 bd e8 51 80 bd
       0.042171977 -0.07920827 -0.051310927 -0.062656224
000350 6d f1 9f bd b5 bb 98 bd 53 dd a2 bd dd c8 87 bd
       -0.0780972 -0.07457677 -0.079523705 -0.066301085
000360 5a b7 62 3e b8 08 e9 3d ec 83 82 3b 5f 3a 4e 3d
       0.22140256 0.11378616 0.0039830115 0.050348636
000370 45 fa 94 bd 08 d2 f7 bd 10 fe ad bd de eb c8 3d
       -0.072742976 -0.12100607 -0.08495724 0.09810613
000380 26 b1 cc bd 4e 5d 02 3e 2b 7e 88 3e ba 43 89 3e
       -0.09994726 0.12730905 0.2665876 0.26809484
000390 b1 f0 ab 3e 31 27 46 be 60 ee 92 bd 62 12 72 3e
       0.3358207 -0.19350888 -0.07174373 0.23639825
0003a0 69 da 9f 3e 0f d3 25 3e e5 a2 1e bd 86 4b 6b bd
       0.3122132 0.16193794 -0.038729567 -0.05744507
0003b0 76 09 9a bd e7 52 01 3d 68 1c 84 bd ab 62 44 3e
       -0.07521336 0.031573202 -0.064507306 0.19178264
0003c0 48 54 22 bd 6a 94 cf bd 5c f2 1e 3e 66 86 72 3e
       -0.039631158 -0.101357296 0.1552214 0.23684081
0003d0 3f bf b1 bd dc 62 0a 3d 0d 8c d4 bd d8 b8 73 bd
       -0.086790554 0.033785686 -0.10378275 -0.059502453
0003e0 4a 58 c8 bc 22 b5 30 3e 15 84 88 3e 59 3b 7b 3e
       -0.024456162 0.17256597 0.2666327 0.24534358
0003f0 a4 0d 77 bd f9 88 4f 3e a9 9c 21 3e f3 30 42 3f
       -0.060315743 0.20267095 0.15782417 0.7585594
