save/lsqmobilenetv2_cifar100_ratio0516bit26/critic.pkl (torch, 380421 bytes, 7 tensors)

fc11.weight f4 [300, 10]
00000000: 4c01 d5bc a688 28be ca27 4d3d 3b8f a4bd
00000010: e4ae 78be b4d4 0c3e 17a2 a3be 90af ad3e
00000020: 02b5 bbbe 73c5 28bd fa39 47be a015 89be
00000030: 7d19 933e 9d36 723d cf93 553e 4df2 7a3d
00000040: 74c9 a73d 2569 be3d 0025 1ebe 41a8 8cbe
00000050: 2513 0d3e 00a5 6b3d 97c5 9b3b 3f22 1fbe
00000060: e7f3 483e 9b69 f8be 91d9 44bf 6e66 cdbd
00000070: f7f8 3fbd 9c05 4b3e 0021 233e e3b2 58bc
00000080: c39d 6fbe 4776 a2ba 1abd 4c3e cd7b 2f3e
00000090: 181f 523d 8c4e fc3d bb69 b3bd 7a3e f23d
000000a0: 8ca3 24bc 131b 153e c6a4 85be 4b46 9a3c
000000b0: 4836 a03d eeea 90bf c6ce 0ebd eb65 cabe
000000c0: 8d87 b2bd c705 083e d692 32bd adc9 e43e
000000d0: 4345 f1be 1b19 ffbd 6926 7ebe 8380 a73d
000000e0: 02fb 413e 7978 53bd d223 b5bd 7e03 9d3e
000000f0: df32 843e 9cab 623e 3661 9dbe 2e76 a5bd
00000100: 702b 8c3d 7a8e 203d f3f0 d9bc b768 633d
00000110: 7e05 863e 41fb db3c 4117 163e 82c0 d3bd
00000120: 2b8c cbbe 2ce8 70be 5cbe 023c baa2 07bf
00000130: f4ca 593e 7274 a4be 0af3 4c3e fc2e 05be
00000140: 4188 87be 1365 11be c4ad d13c 9c1c 8cbe
00000150: e602 45be c369 9bbe d1c0 1d3c 387f 54be
00000160: c4dd 89bd 5c19 46be dfdf 0bbe 8288 a13d
00000170: ed5a 483d 6db7 0e3e 0291 61bd f340 433e
00000180: 5605 1b3e 9d33 21bd f751 2d3e 7533 51bd
00000190: 0d6a 8abd 3d27 353e bcf8 8a3e 5b55 33bd
000001a0: ecd1 2fbd 85c2 68be aaaa 513e a492 a9bc
000001b0: c91f 8cbe 7bd7 a93d 7537 053e 72d2 a5bd
000001c0: 6926 76be 0e3b 8c3e 8ce1 c7bd 8170 05bf
000001d0: 071a 4a3b b3dd 40bf 6246 bd3d e695 853e
000001e0: 8fc1 273e db15 743e b1e4 febd aafe 133e
000001f0: 1aae 2fbe e328 423e dfaf a13e f219 98be
00000200: a059 8abe ea33 903d 1cc7 673d 9dd9 7a3d
00000210: ac44 e3bd e626 4cbe c583 15be 9ed4 6abf
00000220: d601 8dbe 0684 06bf 20a2 55be 589a cf3c
00000230: 0ea0 453e c955 0fbf 9b33 033f bbb6 ecbd
00000240: 9106 41be bbfc 59be c3c6 0dbf d5f8 033c
00000250: f1c5 fe3d ad42 043d c88a a1be 3acd 83be
00000260: 5ef2 cebe 1787 af3d 9ac8 3cbe 9509 6dbf
00000270: 39fa 5ebd 82bc fcbe 110a a3bc ce64 ce3c
00000280: cbf2 6e3e 23d7 9c3e 1037 9d3e cab1 c63c
00000290: 604a 89be bb1c fdbc c0ac 9cbb 5caf 9ebe
000002a0: a773 383e 4fde 58be 2541 f6bc 305a 95bd
000002b0: 23ad aabd ee23 95bd d593 93be 8306 363e
000002c0: b6f7 f23d 5678 3a3e c217 eabe bfb5 fcbe
000002d0: 22ee 223e 22fd 37bf aa38 08be 64e5 09bf
000002e0: a820 67be abd3 99bf 7997 23be 0a3a d7be
000002f0: 1272 95be 55f3 e6bd 1881 cf3c 7b8c 3bbe
00000300: dd88 0abb 6334 043e 29cb 9a3c 4d1d 8fbe
00000310: 6bb1 53bf 1671 ab3e 8853 693e 758e 093e
00000320: 40e3 243e 14c7 8fbe 46e8 98be 2b3d 033e
00000330: fdea 09be 0843 21bf fca5 abbe 4b7f 863e
00000340: 8bc3 ccbe eb02 073d 8e0f 12be 5fd9 733e
00000350: 130a 69bd e209 9e3d 4147 2ebe 3018 d6be
00000360: 37fe b3be 6846 ddbe d5e7 3dbe 7a4e 06be
00000370: 667e 4c3e 4a5e 1dbe 78bb 74be 3adf bcbc
00000380: 62ea 95be 5830 f5bd 2365 403e d8d1 15bd
00000390: 48ee 8f3e 6b25 88bd 9b3f 7c3d 3eff 05be
000003a0: d76a 4a3e 4850 983e e2b4 2e3e 67f2 fa3d
000003b0: 0bd2 ccbd 4ea0 87bc 7c60 003d 1119 3fbd
000003c0: f340 57be d52c 2d3e a819 0bbf a1b6 f03b
000003d0: 766d 893d 6d01 5cbf cf34 a8bd 5dc7 3ebf
000003e0: 35a0 87be 2a12 82be 2d6d eb3d 3739 b4bd
000003f0: 3080 3abe dc81 8fbd b226 2a3e ec4f 77bd
-0.026001595 -0.16458377 0.050086774 -0.080351315 -0.24285465 0.13753015 -0.31959602 0.33923006
-0.36661536 -0.041203927 -0.1945571 -0.2677431 0.28730384 0.059134115 0.20857166 0.061266232
0.08192721 0.092973985 -0.15443802 -0.27472118 0.13776834 0.057530403 0.004753779 -0.15540408
0.19624291 -0.4851807 -0.7689448 -0.100293025 -0.04686829 0.19826359 0.15930557 -0.013226244
-0.23400025 -0.0012394869 0.19994012 0.1713707 0.051299185 0.12319669 -0.08760401 0.11828323
-0.010048758 0.14561109 -0.26102275 0.018832346 0.07822853 -1.1321695 -0.034865163 -0.39530882
-0.087172605 0.13283454 -0.043597065 0.44685116 -0.47123155 -0.1245596 -0.2481934 0.081788085
0.18943408 -0.051628564 -0.08844723 0.30666727 0.25820062 0.22135776 -0.3073823 -0.080791816
0.068442225 0.039198376 -0.026604151 0.055519786 0.26176065 0.026853206 0.14657308 -0.10339452
-0.39755377 -0.23526067 0.0079799555 -0.52982676 0.21268827 -0.3212009 0.20014587 -0.13006204
-0.2647114 -0.14198713 0.025595553 -0.27365577 -0.19239387 -0.30354127 0.009628491 -0.20751655
-0.067317516 -0.19345611 -0.13659619 0.07887365 0.04891484 0.13937159 -0.05506993 0.19067745
0.15138754 -0.039355863 0.16925798 -0.051074464 -0.06758509 0.1769075 0.27142894 -0.043782573
-0.042924806 -0.22730453 0.2047526 -0.020699807 -0.27368 0.08293053 0.13009436 -0.0809678
-0.2403809 0.27388805 -0.097598165 -0.5212479 0.0030838267 -0.75338286 0.0924194 0.26090926
0.1638243 0.23836462 -0.12445963 0.14452615 -0.17156258 0.1896091 0.31579491 -0.29707295
-0.27021503 0.07041152 0.05658637 0.06124269 -0.110970825 -0.19936714 -0.14601047 -0.9173068
-0.27540463 -0.525452 -0.20862627 0.025342152 0.19299337 -0.5599027 0.5125062 -0.115582906
-0.18850161 -0.21287815 -0.5538141 0.008054932 0.12440098 0.03229015 -0.31551194 -0.25742513
-0.40419286 0.08570688 -0.18435898 -0.92592746 -0.05443785 -0.4936257 -0.019902261 0.025194552
0.23334806 0.30632886 0.30706072 0.024254698 -0.26814556 -0.030897489 -0.0047813356 -0.30993164
0.18012868 -0.21178554 -0.03006036 -0.072925925 -0.083338045 -0.07282244 -0.28823724 0.17775922
0.11863653 0.18209967 -0.4572125 -0.4935741 0.15911153 -0.71870625 -0.13302866 -0.5386565
-0.22571051 -1.2017721 -0.15975751 -0.42036468 -0.2918859 -0.11276881 0.025330111 -0.18315308
-0.0021138706 0.12910609 0.018895702 -0.27952042 -0.82692593 0.33484715 0.22785771 0.1343325
0.16102314 -0.28081572 -0.2986471 0.12816302 -0.13468547 -0.62992907 -0.33525074 0.26268992
-0.39992937 0.032961767 -0.14263746 0.23813389 -0.056894373 0.07716729 -0.17019369 -0.4181533
-0.35154888 -0.43217778 -0.18545468 -0.13115874 0.19970092 -0.15368 -0.23899639 -0.023055661
-0.29280382 -0.119721115 0.1878858 -0.036577076 0.28111482 -0.06647762 0.061584096 -0.13085648
0.19767319 0.2974875 0.17061189 0.12253266 -0.10001 -0.016555931 0.031342015 -0.046654765
-0.2102087 0.16911633 -0.54336023 0.00734599 0.06710331 -0.85939676 -0.082131974 -0.74522954
-0.26489416 -0.25404483 0.11495433 -0.08799975 -0.18212962 -0.070071906 0.16616324 -0.060378954

fc11.bias f4 [300]
00000000: b417 403d 0fc1 483d 5f3d ca3c 368c 42bd
00000010: f197 073e 2168 923e f31b 343e 6ff0 4f3e
00000020: 8737 c93c 9aa6 663e 8e5d 893c 380f 6c3d
00000030: 80c6 54be 7128 55be 34ae a6be 4fb8 313d
00000040: 8145 973e d92a 0b3e 0eb9 9fbd add0 e23b
00000050: ca7f 9cbe cc3d fcbd 7258 813d 889b ecbd
00000060: 4c57 1ebc cac7 4dbd db86 17be 0971 c13d
00000070: b045 f83d 6418 0b3d 66cd 133d eeee c4be
00000080: 15bb 1d3e 7a7c 47bd 4988 873e 6fab 273e
00000090: ab6f 1d3e 0935 3e3e a871 8ebe e9f2 2e3e
000000a0: 1d2f f2be fbeb 2a3e 2b0a 1f3e e3ba 88bd
000000b0: 9540 aebd d651 9dbe 323e 99be db5f f73d
000000c0: 8139 c3bd b15a 00bd 6304 26be a77f 503d
000000d0: b131 8c3d 99e8 8cbe 6a30 f03d 12d1 043e
000000e0: 2b76 5dbe 3790 d4bd b59e 98be cb17 403e
000000f0: afaa 3cbe 0d54 a6bd a5e7 c5be b1ab f8bd
00000100: d34e 97be ef8b 143e dcfe 743d bd59 8c3d
00000110: 761b 66bd f117 07be efb4 71be a179 863e
00000120: 4afc d23d 47af 41be 610f 503e 3aa1 083e
00000130: 058e 2e3c 2cbb 453d 24cf 96bc 01ce 2dbe
00000140: 25d7 58be fa32 833e a7d3 173e 6ac8 27be
00000150: 7c85 e53c 100c 22be 06d4 963d 6b85 49bd
00000160: c50c ec3c 58b1 273e dfb7 e6be c2b9 99be
00000170: 7ed2 78be 6ae1 16be 85b0 073e fa13 bebe
00000180: 99ab 053e b324 3fbe 108d 89be 3c10 8bbd
00000190: 54a8 693d c172 4d3e 4313 0ebe dcac cfbe
000001a0: 5ad6 95be 3785 8cbe c9ba 55be 3bef c3bd
000001b0: 561f a7be 9de7 b4be 2a89 0cbe 07e4 e73d
000001c0: 520c cfbd c122 083e fd34 00bf bd10 59be
000001d0: 6462 803e 4083 9dbe 4f77 e7be 17dd 203e
000001e0: 4722 d63d 142d 74be a074 90be c73c 6abe
000001f0: 5fda f8bc d396 533e 60e7 d2be 8f15 a73d
00000200: 7df7 98be 42b9 c8be 5b99 19be bfe0 c3bd
00000210: 816d d6bd 8baa 01be 88a7 b83c f90a 70be
00000220: a608 8abe f499 893c 901d 8abe 60da b3be
00000230: 9cd6 5dbd 8ef2 4dbe e6eb a5bc 0e15 22be
00000240: c5d6 56be 75a7 83be a135 92bd 91e0 d13c
00000250: ba42 6d3e 1b6e 953c 34d6 043d c402 993e
00000260: df10 11be 83af 093e ebd5 84be 4c7d 3bbc
00000270: 8a38 c0be 1c62 69be 0425 8bbe 96c5 923e
00000280: d646 23be 1b76 883e 5c27 47be 5e78 60bd
00000290: 2cc3 fa3d e272 05bf 51d9 023e 5eb1 63bd
000002a0: e636 7fbe e745 a1be b91a 103e 6dda 433e
000002b0: 8b23 423d a150 a5be 4bcf 163e 485a dc3d
000002c0: c48d 8bbe 66cd 8bbe 38b0 c5be e6e6 5f3e
000002d0: 61cb 79be b01e 48bd 4c6c bebe bee1 1abe
000002e0: 996b 95bc d462 b0be 1db4 883e f401 8ebd
000002f0: b1bc 89be c46e 85be 5be6 433e bfec 333d
00000300: fa9c 8dbe 1a83 c6bd 7c42 33be b7fb 88be
00000310: 6cbd 8f3b e9e5 71be 28b5 72be 0743 d8be
00000320: e19e 66be 9591 ee3c 3f55 5fbe 7845 573e
00000330: 0aff 703e e96f 3cbd a4c4 85be 02d7 263e
00000340: 00db d9bd 6ed2 01bd d592 b83d d749 cdbe
00000350: adc3 91be ab0c 7eba cb64 0ebe c37d cebe
00000360: 08aa 35be 5424 2d3d 93fd 163d 33bf 97be
00000370: 2fd0 f9bd 1a93 9bbe ea15 2d3e e374 4bbe
00000380: 0c48 733d 2322 ebbb 8f5c 18bd 02eb f2bd
00000390: 7b2c 13bf 303a 113d 8756 a93d 879e 8d3e
000003a0: 92bf f33d 864d 01bf a09d 86be f61a cfbd
000003b0: f0dd 04bc ab9f ac3d 02b1 c7bd d3c3 533c
000003c0: 97ed e23d 0860 b0be 7051 8dbe 02df a13d
000003d0: f42e 8dbe 1204 9ebd 6360 91be 763e 12be
000003e0: 69bc c83d 1d96 99be 986f e53d 76fd 6f3d
000003f0: b393 81be b1c1 a1bd 2e76 0f3d 8996 3ebe
0.046897605 0.04901224 0.024687467 -0.047496997 0.13241555 0.2859507 0.17588787 0.20306562
0.02456261 0.22524491 0.016768243 0.0576317 -0.20778847 -0.20816208 -0.3255478 0.04338866
0.29545215 0.13590564 -0.07798968 0.0069218487 -0.30566245 -0.12316474 0.06315698 -0.11553103
-0.009664368 -0.05023936 -0.14797537 0.09445388 0.12122667 0.033958808 0.036084555 -0.3846354
0.15403397 -0.048702694 0.26471165 0.1637399 0.15374629 0.18574919 -0.27821088 0.1708485
-0.4730157 0.16691582 0.15531223 -0.06676271 -0.08508412 -0.30726498 -0.29930264 0.1207883
-0.095324524 -0.03133649 -0.16212611 0.05090299 0.068454154 -0.27521208 0.11727984 0.12970379
-0.21627109 -0.10379069 -0.29808584 0.18759076 -0.18424486 -0.081215 -0.38653293 -0.121421225
-0.29552326 0.14506505 0.059813365 0.06853054 -0.056178533 -0.13192727 -0.23604177 0.2626467
0.103020266 -0.18914519 0.20318367 0.13342753 0.010653977 0.048274204 -0.01840932 -0.16973116
-0.21175821 0.2562483 0.14826833 -0.16385046 0.028017752 -0.15824914 0.07364659 -0.049199503
0.028814683 0.16376245 -0.45062158 -0.30024534 -0.24299046 -0.14734426 0.1325093 -0.37124616
0.1305374 -0.18666343 -0.26865435 -0.06790206 0.057045296 0.20063306 -0.13874535 -0.4056157
-0.292651 -0.27445385 -0.20872034 -0.09567114 -0.32641095 -0.35332957 -0.13724199 0.1132279
-0.10109772 0.13294508 -0.50080854 -0.21197791 0.25075066 -0.30764198 -0.45208213 0.15709339
0.10455757 -0.23845321 -0.28213978 -0.22874747 -0.030377565 0.20663004 -0.4119215 0.08158409
-0.2987632 -0.3920384 -0.14999907 -0.09564351 -0.10470105 -0.12662713 0.022540823 -0.23441686
-0.26959723 0.016797043 -0.2697568 -0.35127544 -0.054159746 -0.20112059 -0.020254087 -0.15828344
-0.20980366 -0.25713697 -0.07139135 0.025619777 0.23169985 0.018240979 0.032430843 0.29884923
-0.14166592 0.13445859 -0.25944456 -0.011443447 -0.37543136 -0.22791332 -0.27176678 0.2866637
-0.1594499 0.26652607 -0.19448608 -0.05480229 0.12244257 -0.5212842 0.12778212 -0.055589072
-0.24923286 -0.31498644 0.14072694 0.19126292 0.047397178 -0.32288077 0.14727513 0.10759407
-0.27256596 -0.27305144 -0.38611007 0.21865425 -0.24393989 -0.04885739 -0.37192 -0.15125176
-0.018239783 -0.344504 0.26699916 -0.06933966 -0.26901773 -0.2606107 0.19130842 0.04392695
-0.27658826 -0.096929744 -0.1750583 -0.26754543 0.0043865945 -0.2362286 -0.23701918 -0.42238638
-0.22521545 0.029122153 -0.21809863 0.21022594 0.2353479 -0.046005163 -0.26126587 0.16292956
-0.10637474 -0.031694822 0.09012381 -0.40095398 -0.284696 -0.0009691219 -0.13905637 -0.40330324
-0.17740643 0.042270973 0.03686292 -0.2963806 -0.12197911 -0.30385667 0.16902891 -0.19868807
0.05939488 -0.0071757003 -0.037197646 -0.118612304 -0.57489747 0.035455883 0.08268457 0.2766001
0.119017735 -0.50508916 -0.26292133 -0.10112564 -0.008109555 0.08428892 -0.097505584 0.012925106
0.11080473 -0.34448266 -0.27601194 0.079038635 -0.27574885 -0.0771562 -0.2839385 -0.1428164
0.098015614 -0.2999734 0.112029254 0.05859133 -0.25307998 -0.07898272 0.035024814 -0.18612112

fc12.weight f4 [300, 1]
00000000: f020 52bf a013 77be 00a8 81bf d00f 223e
00000010: 818d 56bf 09cb 7bbf 2f82 5fbf a40b db3c
00000020: c666 11bf 9bc2 0b3e f4fd a33e 21f9 263f
00000030: 90c9 043e 408d c33e bcf2 15bf 45e8 2dbe
00000040: f0cb f3bd 3cce 483f 7907 d9bb 5a02 8f3e
00000050: a3c7 12bf 08c3 45be 8026 11be 3892 7cbe
00000060: 0624 c1be 3858 2abf 4fc5 51bf cc83 54bf
00000070: bc60 d1bf 6a7d 3abf 2772 7c3e 65f2 ab3e
00000080: 9836 b9be 0434 bfbd 3e17 43bf 0dec f43e
00000090: e76c 6e3f d6e7 4c3e 7039 30bd e1f7 3cbf
000000a0: 8dd4 033f e2ad 8dbf 80f7 07be f992 fd3e
000000b0: 0442 9bbe 95d9 9bbe fe4a e93e 0094 81bf
000000c0: 8806 083f 2c4e 393e d017 083f 4c03 043f
000000d0: f3e3 aabf f950 8cbd 221a 2dbe 8fae 50bf
000000e0: 82b7 873e 1f73 493e 890b 163f 49bf ab3e
000000f0: 56bc 62bf b38f a4ba c34d 403f 9e97 4ebf
00000100: 62e2 823d d6c3 8c3d bdb5 013f c897 ecbe
00000110: 6088 003e de9b 30bf 6c7a 66bf fafa f1be
00000120: a8ae b43e 9b0b eabe 5595 843c 5527 37bf
00000130: 4999 65bf f682 1abf b280 56bf 0b73 e1bd
00000140: 6515 c8bd 24b0 4abf dfd2 19bf 8497 253e
00000150: 3bf3 093f 9ab2 14bf 98c2 32bf 345d ce3e
00000160: 57b3 86bf d2f9 1dbf 46f5 c73d ec1b d93e
00000170: 539d 4d3f 78ff e73e 8ed5 56bf c60a 633f
00000180: 8a4e 613f a88c 86bf 2aff 1f3f ace0 1c3f
00000190: 6738 363e fb4f 50bf 0bc3 a7be fdaa 503f
000001a0: 4ec1 20bf 04ff a33e 8097 e5be 86cb 71be
000001b0: 9e23 003f 6bcb 32be fe4d b5be 7e92 38bf
000001c0: 4bed 62bd aed8 e6be b1e0 963e 2031 0b3f
000001d0: 5248 6ebf 2f33 123f cebb 213f 1f0b 30bf
000001e0: f1b9 893d 352f 5f3e 963d 59bf 3031 c53d
000001f0: d3d2 e33e 208e d53e 597e 393f acbb 74bf
00000200: 90af 133f eb1f e9be f325 3c3f 4cf4 b2be
00000210: d8b9 2ebe ab96 a33e 5e48 0abf f806 96bf
00000220: 3471 65bf 4a9f 3abf 158c ecbe 99cc c33e
00000230: 648a dd3d ac7a 02bf aee8 8c3e e6e8 09bf
00000240: 17c7 503e 1b7d 373f 2602 6b3e bb41 5e3e
00000250: 4b4e 3a3f 9824 203f 92b8 5bbd 483e a6be
00000260: ef0e 073f 0259 11bf b042 ef3d 762b 8abf
00000270: 001f 5b3e a820 d1bd e4d0 10bf c8c5 38be
00000280: 1e8d 2cbf 1eba 313e ed87 87bf e293 e03e
00000290: df91 42bf ae7f d63e 0a70 75bf 4207 743e
000002a0: 86a5 0e3f 0482 5b3e 4097 603f 2b64 f63d
000002b0: e604 1e3f 7611 1bbf 7420 dfbe e34a f73c
000002c0: 0080 813e 3e69 a0be 071c 363f 2bdc 003f
000002d0: f00a 7a3e 69a6 bebd 577d 0d3f a0e1 6bbd
000002e0: c4c8 8fbe 5af2 1c3d 3001 59be 1f13 293e
000002f0: 62d8 acbe e86e 80bf c8ec 283f e070 11bd
00000300: 48f3 1fbe ad16 59bf 0f1a 8a3e bbd1 6f3d
00000310: 76f7 ae3e 79dd c53c 5dd3 c03d 478b 1dbf
00000320: 8515 793c a952 61bf d3e1 a9bf 501a d43d
00000330: 44a2 153f 669c 93bb 91e0 833d 9213 41bf
00000340: c30a 1ebe 8862 bf3e 5d06 2e3f f32d b63e
00000350: 2c53 acbe 46a2 63bf 0639 05bf de8f 2a3f
00000360: f45b 073f 7054 75bf 4003 4f3f d44b 5abf
00000370: 1c1c 14bf b219 2a3f 7f1e 98bf 985b c5be
00000380: 7ac3 16bf 2e27 d2be 7e19 823c e4c4 a03e
00000390: e806 4dbe f846 3ebf 64a3 683d d2ae 2abf
000003a0: a5cb 68bf 78e4 283f c878 cb3e c1ef 7dbe
000003b0: c520 76bf 2c83 e3be 0b5c 45be 876d 97be
000003c0: 56d8 2d3f 2ceb b5bf 6e18 49be edd5 1b3f
000003d0: 3e17 a03e 2308 a33e 0077 823b f380 1c3f
000003e0: 12f8 4dbe 2b32 d23e 7204 96bf 4d3e fabe
000003f0: 113c 663e 909d 9a3e c049 dabe f8a9 623f
-0.8208151 -0.2412858 -1.0129395 0.15826344 -0.8380967 -0.9835668 -0.8730802 0.02673895
-0.56797445 0.13648455 0.32029688 0.6522389 0.12967515 0.38193703 -0.5857351 -0.16983135
-0.11904132 0.7843969 -0.0066232053 0.27931482 -0.5733587 -0.1931268 -0.14174843 -0.24665153
-0.37722796 -0.6654086 -0.81941694 -0.83013606 -1.6357646 -0.72847617 0.2465292 0.3358337
-0.36174464 -0.09336093 -0.7620734 0.47836342 0.9313492 0.20010313 -0.043023527 -0.73815733
0.514962 -1.106869 -0.13278008 0.49526194 -0.30323803 -0.3043944 0.45565027 -1.0123291
0.53134966 0.18096226 0.53161335 0.5156753 -1.3350815 -0.06851382 -0.169045 -0.81516355
0.26507193 0.19672821 0.5861135 0.33544376 -0.8856863 -0.0012555033 0.75118655 -0.807001
0.06390835 0.0687329 0.50667936 -0.4620955 0.12552023 -0.68987834 -0.9003055 -0.47261792
0.35289502 -0.4571198 0.016184488 -0.7154439 -0.8968702 -0.6035608 -0.83790123 -0.11008271
-0.09769706 -0.7917502 -0.6008739 0.1617108 0.53886765 -0.58085024 -0.69828176 0.40305483
-1.052348 -0.6170932 0.09763579 0.42404115 0.8031818 0.45312095 -0.8391961 0.88688314
0.88010466 -1.0511675 0.62498724 0.6128032 0.17794953 -0.8137204 -0.32765993 0.8151091
-0.6279496 0.320305 -0.44842148 -0.23612794 0.5005435 -0.1746041 -0.35411066 -0.7209853
-0.05540208 -0.45087188 0.294683 0.54371834 -0.930791 0.5710935 0.6317719 -0.6876697
0.06724919 0.21795352 -0.848596 0.096285224 0.44496784 0.41709995 0.72458416 -0.95598865
0.5768976 -0.45532164 0.73495406 -0.3495201 -0.17063081 0.31950888 -0.54016674 -1.1720877
-0.8962586 -0.72899306 -0.46200624 0.38242033 0.108174115 -0.5096843 0.2752127 -0.53871
0.20388447 0.7167527 0.22950038 0.21704762 0.72775716 0.6255584 -0.053642817 -0.32469392
0.5275716 -0.5677644 0.116826415 -1.0794513 0.21398544 -0.10211307 -0.5656874 -0.18044198
-0.6740283 0.17356154 -1.0588356 0.43862826 -0.7600383 0.41894287 -0.95874083 0.23830894
0.5572132 0.21436316 0.8773079 0.12030824 0.61726224 -0.6057352 -0.43579447 0.030187076
0.2529297 -0.31330293 0.71136516 0.5033595 0.24418235 -0.09309084 0.5526938 -0.05758822
-0.2808286 0.038317062 -0.21191859 0.165112 -0.33758837 -1.0033846 0.659863 -0.035508037
-0.15620148 -0.84800225 0.26973006 0.058549624 0.34173173 0.024153458 0.09415314 -0.61540645
0.015202885 -0.88016754 -1.3272041 0.10356581 0.5845072 -0.004504728 0.06439317 -0.75420487
-0.15433793 0.3737986 0.6797846 0.3558193 -0.33657205 -0.88919485 -0.52040136 0.66625774
0.52874684 -0.95831966 0.80864334 -0.85271955 -0.5785539 0.6644546 -1.1884307 -0.38546443
-0.58892024 -0.41045517 0.015881296 0.31400216 -0.20022166 -0.7432704 0.056796446 -0.66673005
-0.90935737 0.65973616 0.39740586 -0.2479849 -0.9614375 -0.44436014 -0.19273393 -0.2957575
0.6790823 -1.4212394 -0.19638225 0.608733 0.31267732 0.31842145 0.003981471 0.6113426
-0.20114163 0.410539 -1.1720107 -0.48875657 0.22483851 0.30198336 -0.42634392 0.885406

fc12.bias f4 [300]
00000000: 3589 0c3f 023b 7cbf 757b 11be 1e5a 5abf
00000010: 1f7e 543f 0117 b0be c8ce 75bf aed0 02bf
00000020: d4c9 5dbf 082b 75bf 0075 5ebf eb6e 5abf
00000030: 84ed 4cbf 23c2 d33d aefe ca3e f890 823c
00000040: b270 6fbf c65e 58bf 3309 2e3f a79d 7fbf
00000050: 2289 e63e c89b 9e3e fc8f 6fbf c604 03bf
00000060: 64cf 173f ece2 ecbe 2fe3 7d3f f741 583f
00000070: 0bb6 88be 38f2 74bf 56b9 cc3d ce49 803e
00000080: 5ce1 47bf e31a 563d bd29 31bf 9e5b 56bf
00000090: 10f1 43bf 39da 913e a6db 5a3e 2571 fc3e
000000a0: 1ebb e13e 492f 01bf 8ca1 70bf 888f 9a3b
000000b0: 62e5 3dbe 4511 4c3f 2db9 ef3e 2eb0 44bd
000000c0: acd1 5d3d fa17 bd3e 0a66 2abf 1f69 d4bd
000000d0: 989a e33e ba25 633d f241 29bf 022b 0ebf
000000e0: aab2 a6be f238 083f dae5 d13d ef62 35bf
000000f0: 04c9 18bf 6263 eebd 5079 0abf 5e89 4fbf
00000100: 8623 973e 89d8 dfbd 5437 79bf 7092 7bbf
00000110: 56d8 72bf e161 163f dfe5 3b3e 9049 05bf
00000120: 9b87 05bf 5723 283f f32e dbbd 6dd5 3c3e
00000130: f7bb f53e 5ce4 913e d075 4bbf d89b 223f
00000140: 4868 9f3e 7e3b 2b3f d655 2fbd 7ec5 dd3e
00000150: 9f4b 7bbe 10b1 aabe 8c53 cabe 364b 12bf
00000160: 0849 8b3e 4805 373e 368d 4b3f ce54 2abf
00000170: 4198 4abe 6954 073f ddc9 94be 86e1 7cbe
00000180: ddf6 1cbf 526a 8ebd c960 a9be 470c 70be
00000190: a216 2ebd a026 fa3d 3f1e 503f cc3b 93be
000001a0: 3fc8 163f 2c64 a3bd 7cd0 31bf 062a 82bc
000001b0: f548 2c3e c84b da3e 7b33 183f 4299 f63e
000001c0: 14ab 553d 3dfd fb3e 401c a53e e4a8 dfbe
000001d0: 14bb 1bbf 17d8 95bc 5805 d53e 0ab1 4d3f
000001e0: 7c7c da3d 9146 3bbf 8071 aebc ec62 f3be
000001f0: f714 99bc f18f 69bf 79c7 ba3d 5cb3 9cbe
00000200: 7869 32bf af18 b83e c676 2cbf 87ff f23e
00000210: 46b6 07bf b315 a4bd d85a ae3e 9cdf 123e
00000220: 2876 35bf 946f 74bf 70d0 433f 5e06 ad3e
00000230: 5868 473e 5b11 fa3e b58c 0f3d d200 edbe
00000240: 6296 30bd cf94 05bf c99f bd3e 2702 adbe
00000250: b733 34bf 8aa7 ffbe 137e 10be 4a07 3ebf
00000260: 4c19 0f3f 0339 e3be 6231 49bf b5a2 c73e
00000270: 4454 033f 7ec7 a63b 1c5b 53bf 1c0d 4ebf
00000280: ac77 42bf 8e13 053e 02e9 283f 1ca2 86be
00000290: 4f57 4a3e e9bf 0c3f e038 27bf 00da dfbc
000002a0: 80af 58bf b0a9 f73e 4558 dfbe cae3 6ebd
000002b0: 9b68 58bf 8b5c 563f 6992 063e 7521 d53e
000002c0: 469d 69bf 29dd 2e3f 3755 b7be 205f 7bbf
000002d0: b214 60bf 3a17 943e bd88 b7be 0406 32bf
000002e0: d8ed 0fbe d5a4 113f 801f 84be 22b5 493f
000002f0: 9c71 513d 944e 553f f36e 13bf 9283 44bf
00000300: 4c0b 35bf 1467 4e3e 8b85 30bf 1fe3 833e
00000310: 2a83 663d 3c20 093f 265f 063f 2945 183f
00000320: 2da9 c63e 9207 31bf caf3 f63e 58ab 09bf
00000330: 4c5f 81bf 9ae0 9cbd 9abe 423e 1982 3bbf
00000340: e0cf 043f a6f7 74bf 520c 37bf c218 053f
00000350: 60cd a5bd ba26 32bf 8eb4 2a3f 2c40 ffbd
00000360: 531c d4be cedb 99be 17fe 02bf 92bd 08bf
00000370: 38da 1dbf 306f ecbe e501 9d3e bed4 42bf
00000380: dda8 253f fc1d d4be 5b0b b33e f777 1f3f
00000390: 2882 1ebf a891 5dbf b0bf a7be f645 93be
000003a0: 9670 273f 466b 63be a2bd f03d 4c51 c73d
000003b0: c700 1d3f c7b1 633e 0b75 803e 6b25 7abf
000003c0: b624 78be 705d 74be d435 243f bf5d 5dbf
000003d0: b630 fbbe 8779 dcbe a0f1 1ebe e949 39bf
000003e0: 0289 82bb dccd 093f f22f 35bc 5356 b83e
000003f0: 79e7 90bc a0da 6abf 746c 49bf b468 71bf
0.5489686 -0.9852754 -0.14207251 -0.8529376 0.83004946 -0.3439255 -0.9601865 -0.5109967
-0.8663609 -0.95768785 -0.8689728 -0.853255 -0.8004992 0.10339763 0.3964743 0.015938267
-0.93531334 -0.8451961 0.67982787 -0.99849933 0.450265 0.30978227 -0.9357908 -0.5117916
0.5930083 -0.46266878 0.9917478 0.84475654 -0.26701388 -0.95682096 0.099962875 0.25056309
-0.78078246 0.052271735 -0.6920431 -0.83733547 -0.7653971 0.28486803 0.21372852 0.49305072
0.44088072 -0.50462776 -0.939965 0.0047168173 -0.18544534 0.7971385 0.46820965 -0.04801958
0.054155037 0.36932355 -0.6656195 -0.10371613 0.44453883 0.0554559 -0.6611625 -0.55534375
-0.32558185 0.5321189 0.10248919 -0.70854086 -0.59681726 -0.116400495 -0.5409136 -0.8106898
0.2951929 -0.10929973 -0.9735005 -0.9827032 -0.9486135 0.587431 0.18349408 -0.5206537
-0.5216004 0.65678924 -0.10702314 0.1844079 0.47994968 0.28494537 -0.7947664 0.6351905
0.31134248 0.6688765 -0.04280647 0.43314737 -0.24540566 -0.33338213 -0.39516866 -0.5714601
0.27204156 0.17873108 0.79512346 -0.6653565 -0.19784643 0.52863175 -0.2906026 -0.24695405
-0.61314183 -0.06953873 -0.33081654 -0.23442183 -0.042502053 0.122143984 0.8129615 -0.2875656
0.588993 -0.07978091 -0.69458747 -0.015889179 0.16824706 0.42635942 0.5945355 0.481638
0.052165106 0.49216643 0.32248116 -0.4368354 -0.60832334 -0.018291516 0.4160564 0.80348265
0.10668275 -0.7315455 -0.021294355 -0.4753641 -0.018686755 -0.9123526 0.09120078 -0.3060559
-0.6969218 0.35956332 -0.67368734 0.47460577 -0.530125 -0.08011951 0.34053683 0.14343113
-0.7088342 -0.95482755 0.76489925 0.3379392 0.19473398 0.48841366 0.035046298 -0.46289688
-0.043112166 -0.5218019 0.3703597 -0.33790705 -0.7039141 -0.4993251 -0.14110593 -0.7422987
0.55897975 -0.44379434 -0.7859098 0.38991323 0.51300454 0.0050896993 -0.82560897 -0.80488753
-0.75963855 0.12995741 0.6598054 -0.26295555 0.19759868 0.5498033 -0.6532116 -0.02732563
-0.8464279 0.4837165 -0.43622032 -0.058322705 -0.84534615 0.8373496 0.13141789 0.41627088
-0.91255605 0.68306214 -0.358072 -0.98192024 -0.8753158 0.2892397 -0.3584651 -0.6954043
-0.14055574 0.5689214 -0.25805283 0.7879201 0.051133737 0.83323026 -0.5759117 -0.7676326
-0.7072036 0.20156509 -0.6895377 0.25759217 0.05627743 0.5356481 0.52488935 0.5948053
0.38800946 -0.69152176 0.4823287 -0.53777075 -1.0107207 -0.07660027 0.19018021 -0.7324539
0.5187969 -0.9569038 -0.71503174 0.519909 -0.08095813 -0.6959034 0.66681755 -0.12463412
-0.4142786 -0.3005051 -0.5116896 -0.5341426 -0.616611 -0.4617858 0.30665508 -0.7610587
0.6471079 -0.41429126 0.349696 0.62292427 -0.6191735 -0.8655038 -0.32763433 -0.28764313
0.6540617 -0.2220889 0.117549196 0.09732303 0.6132931 0.22235785 0.25089297 -0.97713345
-0.24232754 -0.23863769 0.64144635 -0.8647117 -0.490606 -0.43061468 -0.1552186 -0.723784
-0.0039836178 0.5382974 -0.011058794 0.3600336 -0.0176885 -0.91739845 -0.7868111 -0.9430039

fc2.weight f4 [300, 300]
00000000: c790 aebc 2fbe 3c3d 892a 5fbd b195 efbc
00000010: 3056 00bd 409c 64bd 7930 78bb 1ddb 93bd
00000020: a0da 4ebc 55c8 413c 0873 213d 5802 783d
00000030: 6fdb 4d3d 1bea d13c 8443 41bd 2669 d0ba
00000040: c2fb 2f3d 2018 45bd 7bc4 6abd c50b b7bb
00000050: 44dc cbbc fd04 b1bd 6f07 2e3c 5342 3b3d
00000060: 4771 f7bb b306 5b3c fb42 06be 1a00 5dbd
00000070: 87c0 d83c 5da3 103d c0ed 873c 756a 193d
00000080: 449b 53bd bfe2 aebd 1598 edb9 e6a9 d73c
00000090: fd18 3f3d e62a 1bbd 4f94 a8bd b4dd c9bc
000000a0: 1ab1 82bc d145 2c3b f62d a83c bcb7 38bd
000000b0: 040c 5cbd 705d a0bd e119 283b a694 90bd
000000c0: b387 0c3d c681 9bbd 5a19 66bd 4659 463d
000000d0: 9fa3 2f3d b093 673c 8b13 1c3d ffc0 95bc
000000e0: c63a 52bc 51f1 003d a07d 7abc 9625 8bbc
000000f0: a5ad 393d 9a6c 5abd 3d21 2b3d b68d 2fbd
00000100: 1d22 4cbd 6848 b2bd e8ca 88bc 04da b5bc
00000110: ebe6 e33c 1ede 18be a1ea c0bc 9793 7d3c
00000120: 4391 80bd d224 20bd c0c1 7d3c ec2b 52bd
00000130: 600d ccbd c0b8 76bd 6b2c 943c c83d 45bc
00000140: bc19 073c 9390 7cbd e215 07bc 2edb c6ba
00000150: 56db d73c d9bd 67bd f04e dcbc f2b1 3e3d
00000160: 1ede d53a 8258 c0bb e116 52bd 724b ccbb
00000170: cbea 8dbc 7923 c0bc 64ea 0bbd 0b27 e53c
00000180: 6d47 043d 1fc7 2bbc 225e d13b 1f06 42bd
00000190: f614 2dbd aaf3 c7bb efc6 80bd 50da 293c
000001a0: b9d5 de3b 7d97 023d 3b0f 62bd d3c5 ae3c
000001b0: a3c1 a93c 00fb 25bd acfa d4bd bbb5 13bc
000001c0: 7630 fe3c f572 a93b f3eb d33b 7451 1e3d
000001d0: 1e71 9fbc eba5 093b b80f 31bc b571 95bd
000001e0: 3a46 04bd 0528 33bd 9e85 8a3c c96e 0e3d
000001f0: 0e62 eabb 17d5 28bd 5b42 ebbc 753d 343c
00000200: c3c3 25bd a139 5dbc 655d e23b 7324 29bd
00000210: 45a8 d1bc b0fc 37bd dea4 8e3c 5679 35b9
00000220: 6463 593d 44d7 e0bc a03a 16bd 06cf 7f3c
00000230: 5253 28bd ebd4 5abd 279f ccbc 4d18 5d3b
00000240: 8bf7 64bd 172e 8f3c 3ed4 72bd 6bd7 183d
00000250: 3371 07bd 7417 b6bd 7fa2 1abd e5c0 8bbc
00000260: c3f7 2fbd ad38 243d e10d ca3c 1b51 97bd
00000270: 03fc c73d 8c5e 13bd b1ea 14bd 3eaa a6bc
00000280: 8942 673b 8b16 5cbd 8610 b0bc ef11 65bd
00000290: b856 afbd a23a 223d f8bf 023d 05bc 3d3a
000002a0: 89ce 5f3c 20d4 d53c dcb1 d33b 7649 903c
000002b0: 617d 16bd 5124 b9bd aacf 893c d38a 23bd
000002c0: 88ec d93c 4dcd 07bd 8110 723b 3f15 61bd
000002d0: 4657 513d 13c8 153d dd49 ac3a bc9b 683c
000002e0: 42ed a1bb c2e4 bcbd ade3 57bd 8d93 b7bc
000002f0: 867d 823c 1bf4 83bd c21f 50bc 9291 46bd
00000300: 5220 213d 4132 13bd 23fe e0bc be6e 8abc
00000310: f3a5 10bd b60b aebd a52e fabd d959 fe3b
00000320: a6ba 9abd 195d 3dbd a890 bdbd 14ce 2ebd
00000330: 3a6b 1ebd 975e 7dbd 990d 5dbd 9d8e 113d
00000340: 0a0a 9738 a524 ffbc 24f0 05b9 4e01 a83c
00000350: b126 013d 41b9 4d3c 88e0 f23b 8aef 80bb
00000360: 4a87 96bd 9ddd 97bc fe07 cd3c 795f 383d
00000370: a8a7 93bc 733e a7b8 dd18 89bd 50d8 fbbc
00000380: 1ff6 5ebd 2e63 a33a 68eb 8cbb e951 3d3c
00000390: 0223 efbc 751a 29bd 7d0c 37bd 8837 cc3c
000003a0: 9616 49bd db0e 4dbd 0b33 1e3b e278 d23a
000003b0: 377b 86bd 17e1 7c3c 9b44 38bd 8291 5bbd
000003c0: 3a59 0b3e 5272 663d 10c6 4fbc 6811 ea3c
000003d0: c473 84bc 53a0 63bd d778 603d e4d9 c938
000003e0: eab4 15bd 81e2 6dbb 97d5 4c3c 0f8f 43bd
000003f0: d23f 1b3c 1628 95bc 9c41 3b3d 7358 7a3c
-0.02130927 0.04607981 -0.054483924 -0.029246183 -0.031332195 -0.055813074 -0.0037870689 -0.07219527
-0.012625366 0.011827548 0.039416343 0.06054911 0.050258096 0.025624325 -0.04718353 -0.0015900477
0.042964704 -0.04811871 -0.057316285 -0.00558612 -0.024885304 -0.086435296 0.0106218895 0.04571755
-0.0075513455 0.013368296 -0.13111489 -0.053955175 0.026458992 0.035312045 0.01659286 0.03745504
-0.051661745 -0.08539342 -0.00045317473 0.026326131 0.04665469 -0.037882708 -0.082314126 -0.02464185
-0.01595359 0.002628673 0.020529728 -0.045097098 -0.053722396 -0.07830322 0.002565019 -0.070596024
0.0343091 -0.07593112 -0.05617652 0.04842498 0.04288065 0.014134333 0.038104575 -0.018280504
-0.0128313955 0.031480137 -0.01528874 -0.016985696 0.045331616 -0.053326227 0.041779745 -0.042859755
-0.04983722 -0.08705217 -0.016698316 -0.022198685 0.027820071 -0.14928481 -0.02354938 0.015477083
-0.062777065 -0.039097615 0.015488088 -0.05131142 -0.099634886 -0.060234785 0.018087586 -0.012038656
0.008245882 -0.061661314 -0.008244963 -0.0015171522 0.026349705 -0.056577537 -0.02689311 0.04655642
0.0016316806 -0.005869926 -0.05129135 -0.0062345797 -0.017323872 -0.023454415 -0.03415908 0.027972719
0.03229468 -0.010484486 0.0063893953 -0.04736912 -0.042256318 -0.006102045 -0.062879436 0.010366991
0.00680038 0.03188275 -0.055190306 0.021334564 0.020722216 -0.040522575 -0.10399374 -0.009015496
0.031028967 0.0051711746 0.0064673363 0.0386519 -0.019463118 0.0021003436 -0.01080697 -0.072970785
-0.032293536 -0.043739337 0.016909417 0.03477362 -0.0071528023 -0.041218843 -0.028718164 0.011000981
-0.040469896 -0.013502509 0.006908106 -0.041294526 -0.025592932 -0.044918716 0.0174126 -0.00017306706
0.053073302 -0.027446397 -0.036677003 0.015613323 -0.041095085 -0.05342571 -0.024978234 0.0033736408
-0.055900138 0.017478032 -0.05928444 0.037314814 -0.03306694 -0.08891192 -0.037752625 -0.017059753
-0.042960893 0.040093113 0.024664821 -0.073885165 0.09764864 -0.03597884 -0.03635663 -0.02034485
0.003528746 -0.053732436 -0.021492254 -0.055925306 -0.08561462 0.039606698 0.031921357 0.0007237795
0.013660082 0.026102126 0.0064604115 0.017613154 -0.036740664 -0.0904013 0.016822655 -0.039927315
0.026602045 -0.033154774 0.0036936107 -0.054951902 0.05110862 0.03656776 0.0013144572 0.014197286
-0.0049416134 -0.092233196 -0.052707363 -0.022409225 0.015928995 -0.06443044 -0.012702884 -0.04847867
0.039337464 -0.035936598 -0.027464932 -0.01689851 -0.03531451 -0.084983274 -0.12215928 0.0077621755
-0.075551316 -0.046231363 -0.092561066 -0.042677 -0.038676478 -0.061857786 -0.053968046 0.035536397
7.202111e-05 -0.031145403 -0.00012773328 0.020508435 0.03153104 0.012556375 0.00741202 -0.0039348053
-0.07350023 -0.01853829 0.025028225 0.045012925 -0.01802428 -7.9748126e-05 -0.066941954 -0.030742794
-0.054433938 0.0012465471 -0.0043005235 0.011555173 -0.029191498 -0.041284997 -0.044689644 0.024928823
-0.049093805 -0.050062995 0.002413931 0.0016057754 -0.0656647 0.015434525 -0.044987302 -0.053605564
0.13608256 0.056261368 -0.012681499 0.028572753 -0.016168483 -0.05557282 0.05480274 9.625012e-05
-0.036549486 -0.0036298337 0.012502096 -0.047743853 0.009475665 -0.018207591 0.045716867 0.015279877

fc2.bias f4 [300]
00000000: b70b 053c 8094 51be 57ed fe3c 0a89 a1bd
00000010: 5b63 863c 64f1 fbbd ce3e 95bc 4ac7 713d
00000020: 8e57 89bd b822 47bd 231d 78bc ff46 66be
00000030: 00d3 4bbd 0d10 63b9 e58f 54bd c72d 40bd
00000040: f4fa 0a3c 58d1 72bd e820 a1bc fc7b 44bd
00000050: e6c7 15bc 1f1d 87bd 8c3f efbd c28e c1bd
00000060: 06b5 d9bd fde3 7ebb 1ffa 8bbe 6de2 863d
00000070: 7c3e efbd 2e17 ae3d b865 85bd a0b4 1bbd
00000080: a22d 89bd d665 28bd 0a1a 03bd 6a2d d73d
00000090: 2238 15bd 2428 16bd e1b8 55bd e535 aebc
000000a0: d8de c7bd d10d bcbc 0c33 16be 35f6 2dbd
000000b0: 293f 31b7 acdf b6bd c0b3 83bd d89c efbd
000000c0: da30 92bd 4048 32bd cc3a 51be b354 d8bd
000000d0: 39c1 673c 7982 d5bc 4fd7 45bd 7a90 ebbb
000000e0: 8f17 febc 52ff 2a3c 42a4 b23d b0f5 87bd
000000f0: b66b 04bd d780 9c3d f15f 08bd d290 4abc
00000100: 4f08 88bd 15bf a7bd bb6d 36bd 686f 8abd
00000110: c67c 5abd 5c92 b1bc a71b 99bd 1b1b 36bc
00000120: 90f5 08be 603f 6b3c edfd 53bd 196e 8abc
00000130: 9112 acbd 9728 e3bd a13f cdbc 115c f23d
00000140: d32b 9ebd b853 50bd 002e ff3b bd30 443b
00000150: 32cc 2fbd fa7a 0dbd 10b4 7dbd 235b f2bb
00000160: fd9e 92bd 7f5c 0d3c 6151 01bc b236 5e3d
00000170: 5b68 84bc 896c 9a3d a532 abbb 424c 92bc
00000180: 51cc c9bb ab9a 8bbd 1869 0b3b 2aec 9cbd
00000190: 9c28 c3bd 1b97 2cbc a8de 79bc 3495 02bd
000001a0: 51c8 5bbc 63eb 37be db26 54bd c310 a1bd
000001b0: bd74 d93a 6630 e4bc 428f 55bd 6590 14bd
000001c0: ded7 a53d 035a 0bbb 8b8c 2ebe 67ad 1b3c
000001d0: 5ee0 f13d 2491 fcbc 476d 6ebd 0950 78be
000001e0: ff2f 46be eed8 96bd 1c5c 273c 9c6e 00bd
000001f0: f0e4 6abc f104 9bbd 6623 33bd f635 f8bc
00000200: 7b77 98bd cc46 29bc e331 81bd dd2e 85bd
00000210: e3b0 2fbd 5e1a 913b 4beb 15bd f04b adbd
00000220: 53ff 06bd e9e1 883d 2b9e 0bbd 7dfe 013e
00000230: 81c9 b33b 3b89 bcba 631c 083b 86fa cfbd
00000240: 89d8 8fbc 1c9d babd 804b 773d 5b28 13bd
00000250: d6e2 b3bc 111c fcbc 767b b7bb 34d6 56bd
00000260: aaa4 3abd 3e12 63bd ce37 a5bd 954d 61bd
00000270: 4668 be3d 9fac 7abc 8f4a adbd 8626 bcbc
00000280: 6439 eebd bb2c 94bd 25b8 2bbd 50b2 56bd
00000290: fa3e 61be 9e7b 1abd 9cdb c33c 2f0b e2bc
000002a0: a7b8 81bc 1850 cc3c e7e6 e0bc 5d6d 96ba
000002b0: ec76 83bd 5623 a9b9 8425 8c3d e2af 9dbd
000002c0: 6196 c73c 9b32 debc b928 cabc f5c2 08bd
000002d0: 5c07 3abc 44f4 66bd b86c d0bc 0275 1a3c
000002e0: 16f3 01be 0ba7 6abd ad02 74bd 4631 bebb
000002f0: effb 453d f181 bfbc 127f 01bd 25a5 60bd
00000300: bc5c 38bc 3631 94bd da45 53bd 4fcd a6bd
00000310: afe6 8ebd a307 bebd 17ee 05bd 9820 55bd
00000320: 3823 b3bd 6f8b aabd d8e3 03bd aba9 0fbd
00000330: c8b2 72bd a2af 9c3d 464b 42bd 536b 9bbc
00000340: 2206 a5bd a136 63bd 23cc 82bd 468d 84be
00000350: b4c9 c7bc 3533 b4bd 162a c5bd 504f 93bd
00000360: fb1a 5bbd 9f47 a4bd 1e1c 813c d1e4 5fbd
00000370: c88f 6ebe 3a1f 84be c96b 63bd 8e82 68bc
00000380: d145 2e3c 18c8 81bd b54d 65be 91ac eabd
00000390: 504b 9ebd 6f56 49be a7e9 a3bd 2f76 5b3a
000003a0: cbac 49bd 5832 913c 05bb 133d 97e0 63bd
000003b0: 7b30 7cbd af27 c2bd d933 6f3e 2341 12be
000003c0: efa0 03bd 8a4a 24bd 0e0e 62bc 0edd 8ebc
000003d0: 2ece 18be a39a b43d 302f 93bd 049a 06bd
000003e0: adc8 fdbc 9fc0 253d 42c5 04bd b593 b3bd
000003f0: 79b9 133e fd4b 80bd 41d6 f3bd adad 74be
0.008120469 -0.20466805 0.031119032 -0.07887466 0.016404798 -0.12301901 -0.018218424 0.059027947
-0.06706153 -0.048617095 -0.0151436655 -0.2248802 -0.049761772 -0.00021654386 -0.05189504 -0.046918657
0.008482683 -0.059281677 -0.019669011 -0.047969803 -0.009141898 -0.06597351 -0.116820425 -0.09451057
-0.106302306 -0.0038893216 -0.27339265 0.06586156 -0.1168184 0.08500515 -0.06513542 -0.038014054
-0.06698157 -0.041112743 -0.032007255 0.10506709 -0.036430486 -0.036659375 -0.052178267 -0.021265933
-0.09759301 -0.022955807 -0.1466791 -0.04247113 -1.0564728e-05 -0.08929381 -0.06430769 -0.116998374
-0.07138224 -0.043525934 -0.20432585 -0.1056303 0.014145189 -0.02606319 -0.048301037 -0.007188854
-0.031017093 0.01043685 0.08722736 -0.06638658 -0.032329284 0.07641762 -0.03329462 -0.012363629
-0.0664221 -0.08190743 -0.04453824 -0.0675953 -0.05334165 -0.021676235 -0.074759774 -0.011114861
-0.13374925 0.0143583715 -0.051755834 -0.016898202 -0.08401979 -0.11091726 -0.025054755 0.118339665
-0.077232026 -0.05086109 0.007787466 0.0029936277 -0.042919345 -0.034541108 -0.0619393 -0.0073961182
-0.07159231 0.00862801 -0.007892937 0.05425138 -0.016163042 0.07540233 -0.005224543 -0.017858628
-0.0061583896 -0.0681661 0.0021272358 -0.07662232 -0.0952923 -0.010534073 -0.015250839 -0.031880572
-0.013414458 -0.17960887 -0.051794868 -0.07864525 0.0016590577 -0.02785511 -0.052138574 -0.036270518
0.08097814 -0.0021263368 -0.170458 0.009501792 0.11810373 -0.030830927 -0.058209684 -0.24249281
-0.19354247 -0.07365595 0.010214832 -0.031355485 -0.0143368095 -0.07569302 -0.04373493 -0.030299168
-0.07444664 -0.010331821 -0.06308343 -0.06503079 -0.0428933 0.004428192 -0.036601346 -0.084617496
-0.03295834 0.06683714 -0.034086388 0.12694736 0.0054866676 -0.001438416 0.0020768873 -0.101552054
-0.017559307 -0.091119975 0.060374737 -0.035927158 -0.02195875 -0.030775102 -0.0055994345 -0.052450374
-0.045567192 -0.05543732 -0.080672845 -0.05500563 0.09297232 -0.015299945 -0.084614865 -0.022967588
-0.1163204 -0.07235094 -0.04192366 -0.052416146 -0.2199668 -0.037715547 0.023908429 -0.027593223
-0.01583512 0.024940535 -0.027453853 -0.0011476685 -0.06419167 -0.0003226052 0.06843093 -0.076995626
0.024363698 -0.02712374 -0.024677621 -0.03338905 -0.011354294 -0.056385294 -0.025442466 0.009427311
-0.12690386 -0.05728821 -0.059572864 -0.0058042137 0.048335966 -0.02337739 -0.031615324 -0.054844994
-0.011252578 -0.07235949 -0.051580288 -0.08144628 -0.06977593 -0.092788 -0.032697763 -0.052033037
-0.08746952 -0.08327376 -0.03219971 -0.035073917 -0.05925253 0.07650687 -0.047435068 -0.018972075
-0.0805781 -0.05547202 -0.06386592 -0.25889033 -0.024388172 -0.087988295 -0.09627168 -0.07192862
-0.053492527 -0.08021473 0.015760478 -0.054661576 -0.23297036 -0.25805074 -0.055522714 -0.014191283
0.010636763 -0.06336993 -0.22392924 -0.11458696 -0.077292085 -0.19661878 -0.0800355 0.0008371798
-0.049237054 0.017724201 0.036067028 -0.055634107 -0.061569672 -0.09480225 0.23359622 -0.1428266
-0.0321359 -0.04011015 -0.013797296 -0.017439391 -0.14922401 0.08818557 -0.07186735 -0.032861724
-0.030979479 0.0404669 -0.032414682 -0.08768407 0.14426221 -0.062644936 -0.119061 -0.23894377

fc3.weight f4 [1, 300]
00000000: 3cd1 ba38 d929 15be 9d46 bcbb 85f8 8abc
00000010: 1356 ddbb 4841 1c3e eb1f ab3a 8e4e 953e
00000020: d284 e2bc dea8 0c3c 7bd4 84bc c70b bebc
00000030: fa3e 863b 51d2 a53b caed f53b c32a 5e3b
00000040: d5ae b3ba b807 9d3c db29 163b 2c27 4bbb
00000050: dc0c 793c ff59 ddbb d380 ad3c b31e 6e3c
00000060: 3f17 51bb 8815 c7bc 2918 d7bc d9c0 e73e
00000070: 85d7 863b 61ba 433e 049a 8a3b 0359 0a3c
00000080: 8ead 4ebc fb67 263c 6077 d3bc 6bdc 67be
00000090: 0ce3 a33c 09c1 b9bb ba47 cdbc 60cb 5f3b
000000a0: 4ca4 3e3e 09a3 f43c eda8 fa3d ba5d 993d
000000b0: e847 713b b5a5 24bd 549c 653b 0b59 433a
000000c0: 149f a83c e6d8 f63c 8c74 1dbf a41c 2f3e
000000d0: cc43 c1bb b59a 5c3c fa5a c23b 6aac 9c3c
000000e0: fb3f 3abb c6f1 a9bc 32eb 80be 6638 e03c
000000f0: 4f5c c8bc 7a40 073e da81 823e c765 2d3c
00000100: 5d2f ac3c bfbc 0a3b 9950 2e3b 706d 39bc
00000110: d5f0 cc3c f363 91bc b4a5 463c ed92 193a
00000120: d55d c5bb 2ae8 88bb 6377 10bb 3d87 403b
00000130: ef49 6ebb e6cc 86bd 07ef b43d 6938 3d3d
00000140: fef3 14bd 1ca2 833c 29bc 21bc ee11 0e3b
00000150: 05b8 01bc 655a e53c fe13 b0bb dc6b 063c
00000160: fa83 3abc d530 373b e095 f7bc d7a7 213c
00000170: 7287 0fbb 55a4 81be 16eb f13c a2bf 043b
00000180: f37d bfbb 1983 9bbb 7034 f83c c02b 06bd
00000190: 76f6 1ab9 8aed e7bc 5d77 b3bc f94e b83c
000001a0: b5c4 293a cda7 c0bd 5614 16bc 2281 c8bb
000001b0: 41b4 a538 31be 4f3e 1c47 373e 425e a8ba
000001c0: ed48 853b daea b7bc 3cc3 b1ba 62c5 20bc
000001d0: e784 47be fe13 c73c 0d08 2cbc 098e 65bc
000001e0: e59b 13bd 2f46 f7ba 5147 a5bc 1be6 703e
000001f0: 85c7 28bc 8d7c b43c 8883 9dbc 976f c23c
00000200: 7623 8f3c 9b61 39bc d8fb 433d 6aa7 24bc
00000210: e653 2cbb 81f1 79bb 07b0 f13b 191f 55bc
00000220: e5a0 8abc e2e5 813b 4975 2dbb 3959 b83e
00000230: 720b babb 0005 76bc 823a e4bc 5e9d 493d
00000240: f1f5 143c d61e cdbc 7c29 883e 1389 bebb
00000250: b9c2 323c 3d00 d53c 0767 fd3c 0878 97bc
00000260: ce65 04bd faa8 71bb e6b1 f4bc c099 1d3c
00000270: 8577 1bba bd13 5c3a 5cba 403b 24cc 973c
00000280: e4a0 253e 8a74 32bc 5fdd 84bc f326 d7bc
00000290: 1125 4a3e 15e5 61bc 1179 32be 55c1 1f3c
000002a0: 4fa8 0abd d783 843e e366 063c 1e37 943b
000002b0: 2b60 e63b ed0f acba 1306 f3ba b79b 5bbc
000002c0: 2a2c a53c a514 14bd e434 febc 2765 e63c
000002d0: 1183 ceba 8a49 9fbc f98b 94ba 96b1 043b
000002e0: 9f0a 0a3e 3a58 4d3e a42b 013d d08d 3f3a
000002f0: e766 e637 0539 b23c e493 57bc 1869 6d3c
00000300: f8ec 1b39 e008 bf3c 7c9f 1e3d 9cdc 833c
00000310: 5edf 433c 362e ce3a 0295 e93b b2a9 d3bc
00000320: d81e 9ebc d07e f23c 1830 493d a191 493a
00000330: f0b2 9ebc 11ef 4dbe ad1c 3ebb c216 25bb
00000340: a76f c1bd 3296 513e e183 d8bb 1a71 223b
00000350: eee8 59bb c876 f23a e188 813c 417a 67bc
00000360: 1194 ebbc 13eb f53b 8b12 b139 7767 4fbc
00000370: 9d64 1cbd 7b43 403b bd95 cbbc 47b5 d3bc
00000380: 1908 d53c 1847 f6bc 3b7a 813e e7df b3bc
00000390: 05bd 263c dc69 843c d5ed d03b 97a7 a2bc
000003a0: c8e9 f3ba 716a c73c 84ea dd3e 0653 3d3d
000003b0: a3a5 833b a51d a23c 4ce6 b43d f179 573e
000003c0: 0b50 e8bc 413d 203e 4a57 653c 924f be3c
000003d0: 6321 693d 9768 d2b9 f91a ddbc 4fe3 2d3c
000003e0: f2d6 743c acc3 1c3f 1489 e63b 92c4 ae3c
000003f0: 85ed 003e 4ae6 b73c e6a6 e93b b930 15bd
8.908144e-05 -0.14566745 -0.0057457224 -0.016964206 -0.0067546456 0.15259278 0.0013055777 0.29161495
-0.027651224 0.008585183 -0.0162146 -0.023198975 0.004096863 0.005060472 0.0075051533 0.00339
-0.001370872 0.01916872 0.0022913131 -0.003099869 0.01520082 -0.006755113 0.021179592 0.014533686
-0.0031904725 -0.02430226 -0.026256638 0.4526432 0.0041150474 0.19114067 0.004229786 0.008444074
-0.012614621 0.010156627 -0.025813758 -0.22642677 0.020005725 -0.0056687635 -0.025058616 0.003414832
0.18617362 0.029862897 0.12239251 0.0748858 0.003681654 -0.040197093 0.0035035806 0.0007451928
0.020583667 0.030132722 -0.6150596 0.1710077 -0.0058979746 0.013464619 0.0059312554 0.019125182
-0.0028419483 -0.02074517 -0.2517944 0.027370643 -0.024458079 0.1320819 0.25489694 0.010583348
0.021018678 0.002116963 0.0026598333 -0.011317596 0.025017181 -0.017747855 0.012124468 0.00058583805
-0.0060231485 -0.0041780667 -0.0022043816 0.0029377483 -0.0036359986 -0.0658205 0.08834653 0.046196375
-0.0363655 0.01606851 -0.009871521 0.0021678167 -0.007917409 0.027997205 -0.005373477 0.008204427
-0.011384005 0.002795269 -0.030222833 0.009866676 -0.00219008 -0.25320688 0.029531043 0.0020255824
-0.0058438717 -0.0047458527 0.030298442 -0.032756567 -0.00014778398 -0.02831151 -0.021907503 0.022498595
0.000647615 -0.094070055 -0.009160122 -0.0061189095 7.901388e-05 0.20287396 0.1789822 -0.0012845474
0.0040675313 -0.022450853 -0.0013562213 -0.009812685 -0.19484292 0.024301525 -0.010499966 -0.014010915
-0.036037344 -0.0018865521 -0.020175608 0.23525278 -0.010301475 0.022032047 -0.019227758 0.02373485
0.017472964 -0.011314775 0.0478476 -0.01004968 -0.0026295125 -0.0038138332 0.0073757204 -0.013007903
-0.016922424 0.0039641717 -0.0026467612 0.3600557 -0.005677634 -0.0150158405 -0.02785993 0.049222343
0.00909184 -0.025039118 0.2659415 -0.0058146804 0.010910683 0.02600109 0.030932916 -0.018489853
-0.03232365 -0.00368744 -0.029869985 0.009619176 -0.00059305906 0.0008395275 0.0029407954 0.018529959
0.16174656 -0.010892043 -0.01621884 -0.02626369 0.19740702 -0.013787528 -0.17428996 0.009750684
-0.033851918 0.25881836 0.008203241 0.004523172 0.007030507 -0.0013127305 -0.0018541239 -0.0134038245
0.02016266 -0.0361525 -0.03103108 0.028124405 -0.0015755614 -0.019444246 -0.0011333219 0.002024745
0.13480614 0.20053187 0.03153576 0.00073072035 2.7466054e-05 0.021755705 -0.0131578185 0.014490388
0.0001487023 0.023319662 0.038726315 0.016096406 0.01195511 0.0015730325 0.007128359 -0.025837753
-0.019301817 0.029601485 0.04911813 0.0007689242 -0.019372433 -0.20110728 -0.0029008791 -0.0025190567
-0.09445124 0.20467451 -0.006607518 0.0024786652 -0.003325041 0.0018498534 0.01581234 -0.014128269
-0.028757127 0.0075048297 0.00033773886 -0.012658945 -0.03818189 0.0029337096 -0.024851674 -0.025843276
0.026004838 -0.030063197 0.25288567 -0.02195735 0.010176902 0.016163759 0.006376008 -0.019855304
-0.0018609101 0.024342747 0.43342984 0.046221755 0.004017548 0.019789526 0.08832988 0.2104261
-0.02835848 0.15648367 0.013997862 0.023231301 0.056916606 -0.00040132247 -0.0269904 0.010613277
0.014943825 0.6123607 0.007035384 0.021333966 0.12590607 0.022448678 0.0071304915 -0.03642342
