save/qmobilenetv2_cifar100_ratio0496bit28/actor.pkl (torch, 377607 bytes, 5 tensors)

fc1.weight f4 [300, 10]
000000 63 44 aa 3e 65 39 23 3e cd 87 80 be 6d ef 9b be
       0.332553 0.15939863 -0.25103608 -0.30456105
000010 4f 8a cb 3d 7d ed c5 3e cf 2d 91 3c b0 fa 52 be
       0.0993849 0.38657752 0.017722039 -0.20603442
000020 fa a7 63 be 0d 64 9f 3e 8e b0 2c 3e 4a 6b 76 be
       -0.22232047 0.3113102 0.16864225 -0.24064365
000030 76 23 cb 3d 5c a5 61 3e 9b 94 9b 3d 51 25 7a be
       0.09918873 0.22035736 0.075967036 -0.24428298
000040 05 92 7e 3e b5 49 49 bd e9 25 1f 3d 18 40 9c be
       0.2486039 -0.049142558 0.038854513 -0.3051765
000050 50 7a da bd 86 d6 71 3e 94 25 a9 bd 85 61 86 be
       -0.106678605 0.2361699 -0.082591206 -0.26246276
000060 36 34 60 3e 91 29 93 be 02 25 5c be 81 89 53 bd
       0.21894917 -0.2874265 -0.21498492 -0.051644806
000070 61 4a 88 3e 08 28 a3 3e b3 27 44 3e f3 91 58 bd
       0.26619247 0.3186648 0.19155769 -0.052873563
000080 ed 73 c3 3d db 80 20 bd df 39 0a be 13 a7 07 3d
       0.095435955 -0.039185386 -0.13498639 0.03311832
000090 6b 1e ee bd d4 e4 82 3e 08 3b 70 3e 35 59 97 be
       -0.116268955 0.25565207 0.23460019 -0.29560247
0000a0 dc 80 8b bd 14 60 bf 3e 22 bf 89 be e6 9b c2 be
       -0.06811687 0.3737799 -0.26903635 -0.38009566
0000b0 a5 9a a7 be 94 a0 37 bd 2f b2 10 bf f4 25 0a 3e
       -0.32735172 -0.044830874 -0.56521887 0.1349104
0000c0 20 2e ec 3d 11 34 08 bd 12 fa 33 be f9 31 61 3d
       0.11532235 -0.03325278 -0.17575863 0.0549793
0000d0 fa 60 2e bd 59 e3 ee 3d 48 3f 5a be 62 6d 56 be
       -0.042572953 0.11664457 -0.21313202 -0.20940164
0000e0 4e 5e c0 3d a3 6c 7c be f6 b4 c5 3e b4 14 2f bd
       0.09392987 -0.24650817 0.38614625 -0.042744353
0000f0 db c5 71 be 94 4f b2 be e2 88 8e bb d8 ac 74 be
       -0.23610632 -0.34826338 -0.004349814 -0.2389406
000100 32 1e 74 3e 2b bb d7 3e 3b 26 0c 3e 97 27 81 3e
       0.23839644 0.42134985 0.13686459 0.25225517
000110 f3 69 37 3d a1 d1 54 3c 2e c1 be be 10 67 03 be
       0.044778775 0.012989433 -0.3725676 -0.12832284
000120 ec 25 57 be 60 4a 06 3e 38 8d d9 3e 04 4b 69 3d
       -0.2101056 0.1311431 0.42490554 0.056956306
000130 7d 84 8d 3d 2a af 7c 3d 56 27 22 be 43 65 96 bd
       0.06910036 0.061690487 -0.15835318 -0.07343533
000140 d1 93 60 3d 29 30 b6 3e 9a 66 5e be 05 46 ae 3d
       0.05482847 0.35583618 -0.21718827 0.08509449
000150 f2 d6 16 be c0 a2 23 3d 68 0d f5 3e a5 3a f8 bc
       -0.14730433 0.039950132 0.4786179 -0.030301401
000160 47 1c f6 3d f4 29 90 be e0 52 51 be 8e ab 8b 3e
       0.12017112 -0.28157008 -0.2044177 0.27279323
000170 14 e2 2d be db 3b 3d 3d 5e 18 b8 bb 5d be 11 bd
       -0.16980773 0.04619966 -0.005618139 -0.035581935
000180 e6 8f 24 be 7a 15 e2 3d f5 80 31 3e 72 00 0d 3e
       -0.16070518 0.110392526 0.1733435 0.13769701
000190 64 4e c6 3d d9 c5 29 bd e8 e4 b5 be aa 6f 22 bd
       0.096829206 -0.041448448 -0.35526204 -0.039657272
0001a0 be 73 89 be 00 4e 4b 3e 22 a8 92 3d 8e d5 37 3e
       -0.26846117 0.19853973 0.07160975 0.17952558
0001b0 c2 b1 a8 bd 1e 34 54 be 40 7d f5 bd 49 c3 e6 3d
       -0.082370296 -0.20723006 -0.1198678 0.112677164
0001c0 b1 2b 8c 3e fb 6d ee 3d ce 75 59 be 81 64 3d bd
       0.27377084 0.11642071 -0.21236345 -0.046238426
0001d0 72 45 e7 bd 7d 10 c5 bd f3 68 60 3c 9f d1 3b 3d
       -0.112925425 -0.096222855 0.013696897 0.045854207
0001e0 29 cb 84 3e db 71 78 be 16 61 a0 3e 30 24 0a 3e
       0.2593625 -0.24262182 0.3132407 0.13490367
0001f0 f8 b7 c5 3d 36 f6 bf 3d 37 cb b9 be 40 7e f5 bd
       0.0965423 0.09373133 -0.36287853 -0.11986971
000200 5c 66 5e be b7 92 b1 be 26 e4 50 be 23 8e a0 3e
       -0.21718735 -0.34682247 -0.20399532 0.31358442
000210 c5 e7 ba 3d 8a e7 fe 3d 5c 45 61 3e 70 f3 a6 3d
       0.09126238 0.12446506 0.21999115 0.08151901
000220 c9 4e 9d 3e 2a 50 af bd f1 fd 4e 3e 40 0b ac 3d
       0.3072417 -0.08560212 0.20214058 0.08400583
000230 7c 60 30 3e cf 19 ca bd 71 16 4c bd 7f 34 8d be
       0.17224306 -0.09868204 -0.04982609 -0.27579114
000240 30 eb 83 be 6b b0 75 3e d6 d8 95 be 8a 5e cc bd
       -0.2576537 0.2399308 -0.29266995 -0.099789694
000250 5e 4c c7 3d ad e8 6d 3c f4 c3 e9 3d 07 8a 9b 3d
       0.09731363 0.014520806 0.11414328 0.07594686
000260 13 dd 8b 3d c6 9c 52 3e 63 f4 3a be 2d 60 eb 3e
       0.06829276 0.20567617 -0.18257289 0.45971814
000270 db 9f 99 bc 01 06 e1 3e b6 43 02 3e 72 85 86 3e
       -0.018752983 0.43949893 0.12721142 0.26273686
000280 c9 87 c9 3d 06 ca cf be 01 1a 78 bd 18 e5 e8 bb
       0.09840352 -0.4058382 -0.060571674 -0.007107388
000290 8b 28 af be 3b a7 18 be 24 ff c4 bd 79 62 01 be
       -0.3421062 -0.14907543 -0.09618977 -0.1263522
0002a0 84 88 2b 3e 2f d1 1e 3e 70 05 93 be 82 94 94 3e
       0.16751295 0.15509485 -0.28715086 0.29019552
0002b0 3b f8 be be c1 64 96 bc 0d d5 b2 3e 5b c4 34 be
       -0.3729876 -0.01835859 0.3492817 -0.17653029
0002c0 7e 53 61 3e 08 69 4d 3c 31 5a 36 be 7c 3d 47 3e
       0.22004506 0.012537248 -0.17807843 0.19457048
0002d0 d8 5b bf 3d 1d 37 b8 3d 52 6c 49 be 89 49 55 be
       0.0934369 0.08994887 -0.19670227 -0.20828833
0002e0 b4 31 3e bb 9e 8d b4 3c 35 d5 eb 3d d3 9f bb be
       -0.0029021325 0.022040185 0.115152754 -0.36645374
0002f0 bf 08 b1 bb 94 78 9a be 6e 80 62 be 58 7e 1a 3e
       -0.005402654 -0.3017012 -0.22119305 0.15087259
000300 90 13 a7 3d 9f 7f c6 3d 37 0f c1 3c 97 5e d5 3d
       0.08158028 0.096923105 0.023566825 0.10418432
000310 fb 55 6d 3e 42 ef 9f be db 8a 70 3e e6 f8 44 be
       0.2317733 -0.31237227 0.23490469 -0.19235572
000320 3d a4 a9 3c 92 da 69 be 3d 2a ac bd 96 19 01 be
       0.020708198 -0.22837284 -0.08406494 -0.12607417
000330 81 f3 28 3e 89 4a a7 3d e9 44 22 3e 45 69 11 be
       0.1649914 0.08168513 0.158466 -0.14200313
000340 58 ab 39 3d f6 3d 96 3e b4 4d 56 be a8 84 36 3e
       0.04532942 0.29344147 -0.20928079 0.17824042
000350 db 74 f0 3d c1 23 9d be 28 35 75 bd d4 5f a7 3e
       0.117410384 -0.3069134 -0.059865147 0.326903
000360 b7 88 12 3d d0 59 32 be 49 ef 91 3e c0 17 18 3e
       0.035774913 -0.17417073 0.28502873 0.1485281
000370 4f dc 61 be 6b 5b 8c be e8 2b 32 3d ca af fc bd
       -0.22056697 -0.27413496 0.043498904 -0.123382166
000380 b4 d8 40 be 21 2e de 3d ac 7d ef 3d a8 22 d9 3d
       -0.18832666 0.10848642 0.11693892 0.10602313
000390 57 f7 89 bd b3 5e b2 3e 72 41 bb 3e 18 08 aa bb
       -0.067366295 0.34837875 0.36573368 -0.005188953
0003a0 b2 e8 ae 3b ab 93 4e 3e 72 ce 74 be 62 f0 97 3e
       0.005337798 0.20173518 -0.23906878 0.29675585
0003b0 9a 39 b9 3e 89 00 35 3e e1 e3 18 3d 69 ec 47 be
       0.3617676 0.17675985 0.037326697 -0.19523777
0003c0 65 0c 4b bd 80 83 95 be 01 c9 1f 3c 87 39 c6 3e
       -0.049572367 -0.2920189 0.009752513 0.38715765
0003d0 77 d9 1e 3e 16 b0 6f 3e 92 5a c0 3e 11 ac 45 bd
       0.15512644 0.23407015 0.375691 -0.0482598
0003e0 a6 4b 4c be 9c 61 92 3e 0c a3 25 3e 8f 34 17 be
       -0.19950733 0.28590095 0.16175479 -0.14766143
0003f0 a8 e4 96 3d f5 22 94 be b9 b7 9e be de 31 6f 3e
       0.073678315 -0.2893292 -0.30999544 0.23358867

fc1.bias f4 [300]
000000 81 b3 45 3d 03 bf 57 3e 3b aa ca 3d 4e 7e 96 bd
       0.04826689 0.21068959 0.0989575 -0.073483095
000010 c0 51 b9 be 9a 2d 21 be ef a3 0c 3e 90 9d 53 3e
       -0.36195183 -0.15740052 0.1373441 0.20665574
000020 db 06 31 3e 1e 3b c8 bd 4b cb 27 3e 2d 66 96 3e
       0.17287771 -0.09776901 0.16386144 0.2937483
000030 d6 3a 8b 3e ca 60 5d be b6 8f 6c be b6 d3 49 be
       0.27193326 -0.21618953 -0.23101696 -0.19709668
000040 e8 d1 6b 3e 34 c9 e0 bd 3e e0 8c 3e b8 62 4f 3e
       0.23029292 -0.109758765 0.27514833 0.20252502
000050 1a 40 e8 bd ba ed 19 3d 57 2d 09 3c 5c 24 5a be
       -0.113403514 0.03758023 0.008372626 -0.21302933
000060 cf e1 f3 bd b6 c4 72 be a1 4e e0 bd 06 3d 3b bc
       -0.11908304 -0.23707852 -0.10952497 -0.011428123
000070 b0 b5 cd bd 1c 1d 69 bd 53 7d 52 be 49 fa 4b be
       -0.1004442 -0.056912526 -0.2055562 -0.19919695
000080 14 ba 36 3e 21 7a a9 3e 2f 92 45 3d 0a 6d 1b 3d
       0.1784442 0.3310099 0.048235115 0.037945785
000090 2f c3 5b 3c 60 71 af bd 84 7f 1d 3e bb e1 29 3e
       0.013413235 -0.085665464 0.15380675 0.16590016
0000a0 d0 9a 92 3e b1 e9 76 be bf f1 90 3d ec 18 07 bc
       0.28633738 -0.24112584 0.070773594 -0.008245688
0000b0 db 1c de bd c1 77 93 be 8b 4e 6d 3e 2f 7b c2 3b
       -0.108453475 -0.28802302 0.23174493 0.005935095
0000c0 1a e8 6a 3e cb cd 8f be 0a dc 62 3e 37 37 51 bd
       0.22940102 -0.28086695 0.2215425 -0.051078048
0000d0 44 77 82 3d 4c 7d 70 3e b1 f5 a0 3e 51 f9 88 3b
       0.06370404 0.23485297 0.31437448 0.0041801115
0000e0 4f 8a 32 be 77 8b e9 bc ea 97 0a be e2 98 58 3e
       -0.17435573 -0.028508885 -0.13534513 0.2115207
0000f0 37 b6 0d 3d 65 a4 8e be 84 63 f0 bc 3b e7 11 bd
       0.0345976 -0.27859798 -0.029344328 -0.03562091
000100 96 05 ab bd 85 e2 d3 bd 47 7b 48 be 49 02 30 be
       -0.08350675 -0.103459395 -0.19578277 -0.17188372
000110 de 18 04 be b2 96 7f be 22 f4 60 bb 46 b3 a4 be
       -0.12900111 -0.2495983 -0.0034325202 -0.32168025
000120 c2 1b 2f 3e 6b 99 c6 bd c8 90 66 be ce 66 82 3e
       0.17100433 -0.09697231 -0.22516167 0.2546906
000130 c1 3c 80 be e7 21 6b be 3d 5f 47 be 86 0e c6 bd
       -0.25046352 -0.22962151 -0.19469924 -0.09670739
000140 1b 41 3d be 46 d2 c8 bd 60 e4 18 bd 34 8c da bd
       -0.18481867 -0.098057315 -0.03732717 -0.10671273
000150 2b 08 85 be 2d a9 1d 3e eb d2 2c 3e 8c 6d 65 be
       -0.25982794 0.15396567 0.16877334 -0.2240507
000160 cb e6 d5 bd 8d 06 2d 3e bd 77 84 be 2f 5e 04 bd
       -0.10444411 0.1689703 -0.25872603 -0.032316383
000170 b1 8b 35 be cc 15 c0 3d 62 46 7c be 18 0d c3 bd
       -0.1772907 0.093791574 -0.24636224 -0.09523982
000180 ba fb 02 be 2c 26 3d 3e db 66 df 3d a2 7f 0e bd
       -0.12791339 0.18471593 0.1090829 -0.03478969
000190 fb 1d 80 3e e3 9a 89 be 4f d2 91 bd 9a 24 f1 3c
       0.25022873 -0.26875982 -0.07120191 0.029436398
0001a0 91 de 11 be b9 81 71 3e 19 c9 50 3e b8 e9 99 3e
       -0.14245059 0.23584642 0.20389213 0.30061126
0001b0 8a 47 a2 3e a3 9f b3 3d 34 54 05 3d 31 6c ac 3d
       0.31695205 0.08770683 0.032551005 0.084190734
0001c0 e4 02 6d 3e a0 9a ad bd 68 ac 0b 3e e7 52 a8 3e
       0.23145634 -0.08476758 0.13639987 0.3287575
0001d0 e1 d8 1d be 8c bf 08 3e bf 84 5d 3e 18 56 40 3e
       -0.15414764 0.1335432 0.2163267 0.18782842
0001e0 7c aa b9 3d 3c ae 8f 3d ce 0a 85 be 8a 81 38 be
       0.090657204 0.070156544 -0.25984806 -0.18018165
0001f0 53 78 b5 3d 31 1a 2a be 71 2f a4 bd 1b e3 95 3e
       0.08860841 -0.16611554 -0.08016861 0.2927483
000200 9c 0f 88 be 98 ab 94 3e e4 1c 01 be 7c 84 37 be
       -0.2657441 0.29037166 -0.12608677 -0.17921633
000210 85 52 0d 3e 4c 89 29 be 7d 6e 09 3e 8d e1 97 bb
       0.1380101 -0.16556281 0.13421054 -0.004635042
000220 28 73 1f 3c be f4 87 3e 28 4d 8c bd ff 63 ea bd
       0.009732045 0.2655391 -0.06850654 -0.11444854
000230 53 4b 7d 3e 29 f0 7e 3c 01 27 a1 3d bb b4 39 3e
       0.24735765 0.015560188 0.078687675 0.1813535
000240 a6 2a eb bd b9 62 54 be 60 96 2f be 6a bb 03 be
       -0.11482744 -0.20740785 -0.17147207 -0.12864462
000250 29 d3 ad 3b 2a 7d 34 3d 77 0c 7a 3e 9f 28 0b be
       0.0053047133 0.04406468 0.24418817 -0.13589714
000260 de 23 14 be 3d 0b 2b 3e c1 19 1b 3d 8c 4b d9 3d
       -0.14466807 0.16703506 0.037866358 0.106101125
000270 2f 43 98 bb 71 db 43 3e b8 d1 a1 bd 73 37 92 be
       -0.004646681 0.19126679 -0.07901329 -0.2855793
000280 68 06 cb bd 92 ce 2b be 9f 7e 92 3d ea af 01 3e
       -0.09913331 -0.16778019 0.07153057 0.12664762
000290 85 7a 58 bd 84 b7 8f 3d b5 ee 20 be aa d5 80 be
       -0.05285122 0.07017425 -0.1571606 -0.25163013
0002a0 3e 32 12 3e 6e a3 49 3e 92 f4 1a 3e 7f c6 09 be
       0.14276978 0.1969125 0.15132359 -0.13454627
0002b0 aa 21 59 be 0f 78 0f 3e 82 05 3f 3e 17 3b 37 3e
       -0.21204248 0.14010642 0.18654445 0.17893635
0002c0 15 74 2c be 0b d2 f8 3d 91 e6 97 be ec 93 98 bb
       -0.16841157 0.121494375 -0.29668096 -0.0046563055
0002d0 c6 57 f7 3c 58 f2 52 3e b9 a3 82 be bd 3c 0f 3d
       0.03019322 0.2060026 -0.25515535 0.034970034
0002e0 70 4d 8c 3d ea f8 43 be db cc b2 3d b6 7e 57 be
       0.068507075 -0.19137922 0.08730479 -0.2104443
0002f0 02 ff 25 be 7e d4 9d be 0d 26 c0 bd 88 53 b9 bc
       -0.16210559 -0.3082618 -0.093822576 -0.022622839
000300 71 eb 04 be c5 80 38 be cb df 14 3e c8 78 51 3e
       -0.12980439 -0.18017872 0.14538495 0.2045623
000310 9c b0 0a be e1 6c 92 be f0 8c bb bd 01 5b 61 be
       -0.13543934 -0.28598693 -0.09157741 -0.22007371
000320 c4 9a 6f 3e e5 d7 55 3d 8f 06 03 3e 18 62 5e 3e
       0.23398882 0.052207846 0.1279547 0.21717107
000330 1f 26 81 3e f0 0a 4c 3e aa e5 0d 3e 8b 31 3a be
       0.25224397 0.19926047 0.13857141 -0.18182962
000340 a3 26 ad 3c 53 a7 27 3e ae 78 94 bc 1c 4c fa 3d
       0.021136587 0.16372423 -0.01812395 0.12221548
000350 6c 35 5d 3e da 15 11 3d a2 49 c0 bc e9 24 63 3d
       0.2160241 0.03542123 -0.02347261 0.055455122
000360 aa e8 32 be bc ee 53 be 15 63 e8 3d f0 d1 15 be
       -0.17471567 -0.20696539 0.113470234 -0.14630866
000370 df 62 96 bd f4 79 1f 3e df 32 59 3e 22 07 6e bd
       -0.07343077 0.15573865 0.21210812 -0.05811227
000380 b9 85 45 3c fc ec 4e bc 2f db 23 3e 44 c0 08 bd
       0.012055808 -0.012629744 0.1600158 -0.033386484
000390 27 be 78 3d d4 d8 d1 3d 47 e4 a6 3d 49 24 cc bc
       0.06072822 0.10246435 0.08149009 -0.024919646
0003a0 61 5a 34 3e d1 a8 a4 3d 4b 92 d0 3d 42 90 2b be
       0.17612602 0.08040012 0.10184153 -0.16754249
0003b0 fb 9e 21 3e b8 2a 9a 3d bc 94 92 be 55 30 b0 3d
       0.15783302 0.07527679 -0.286291 0.086029686
0003c0 e1 01 e5 3d 88 9c 9c 3b 69 e3 a5 bd 87 16 89 be
       0.11181999 0.004779402 -0.08100016 -0.26775
0003d0 5d b8 33 3e 32 07 4e 3e d0 b8 0f be ce e6 0d be
       0.17550798 0.20119932 -0.14035344 -0.13857576
0003e0 e3 30 8a be 3e 85 9d be e9 e7 84 3d 80 0c 8b be
       -0.26990423 -0.30765718 0.06489546 -0.27157974
0003f0 f4 9d 99 be a4 94 e6 3d 9e 63 54 3e 69 68 fb 3b
       -0.3000332 0.1125882 0.20741126 0.007672359

fc2.weight f4 [300, 300]
000000 1c a5 ba 3b 14 27 5f 3d 8b 9f 32 3d 36 bf 51 3d
       0.005695952 0.054480627 0.043609183 0.051207744
000010 fb 01 ec bd 83 8a 7f be 3f 12 d4 3d 63 19 8c 3e
       -0.11523815 -0.24955182 0.10355043 0.2736312
000020 9d d3 da bd 27 50 35 bb 07 8b 45 3d c8 bc 1a 3d
       -0.10684893 -0.0027666183 0.04822829 0.037777692
000030 91 e1 63 bc 21 76 d7 bc 12 f3 89 bc 04 4a 14 3d
       -0.01390876 -0.026301445 -0.016839538 0.0362034
000040 f2 b8 b1 3c bf d5 96 3d 0e e8 a5 3c 3b 8b b5 bd
       0.021694634 0.073649876 0.020252254 -0.08864447
000050 04 d7 18 3e 5c 79 40 bd 41 f8 f8 3c 6d ab 12 bd
       0.14925772 -0.046990737 0.030391814 -0.035808016
000060 59 be ad bc 1b ad 84 3c f8 5d 12 3c 00 0a 41 bd
       -0.021208929 0.016195824 0.008933537 -0.047128677
000070 c4 19 fa 3b 15 ac db be 9b 66 70 be 31 81 3a bc
       0.007632466 -0.42904726 -0.23476641 -0.011383341
000080 13 5c 3d 3d 84 98 ad 3d a0 6f c5 3d 05 9c b0 3c
       0.046230387 0.08476356 0.096404314 0.02155877
000090 24 1e 37 bd 77 9c 78 bc d3 c6 27 3d e7 ea 8e bd
       -0.04470648 -0.015174023 0.040961098 -0.06978398
0000a0 31 ea 7a 3d 72 12 1b 3d 66 56 33 bb a0 56 45 be
       0.0612585 0.037859388 -0.002736473 -0.19271326
0000b0 04 c6 3b 3d 21 51 30 3b ea 73 08 be 6b 37 21 3d
       0.04584314 0.0026903825 -0.13325468 0.03935949
0000c0 ad 33 9c 3c 6c 52 94 bb 81 53 e9 bd 1d e0 c5 3d
       0.01906761 -0.004526427 -0.1139288 0.09661887
0000d0 26 b3 19 3e a0 66 7a be 42 b4 7f bc a4 07 23 3e
       0.15009746 -0.24453211 -0.015606942 0.15920883
0000e0 79 63 97 bd da 8a fa 3c df 55 48 3d 27 fb a6 bc
       -0.0739202 0.030583788 0.048910018 -0.02038343
0000f0 e6 ac 9c bc 8b f6 9b ba 7f cc 42 3d fc f1 2a be
       -0.019125413 -0.0011899037 0.047558304 -0.16693872
000100 81 32 ab bd 8b a4 19 bc 6d 64 5b bd 41 fb b4 3d
       -0.08359242 -0.009377609 -0.05356257 0.088369854
000110 b4 b8 ed 3a af 1e 08 3d c4 6b 29 bd 25 76 f4 3d
       0.0018136711 0.033232387 -0.04136254 0.11936597
000120 a3 a4 9d 3d 4e f6 8c bd 60 9c f4 3d 6d d1 e0 bc
       0.076974176 -0.068829164 0.11943889 -0.027443612
000130 cc 28 af be 23 bc bb bd 97 b6 5f be 38 9e 6f bd
       -0.34210813 -0.091667436 -0.21846996 -0.0585005
000140 7e e1 1c 3d 7b d1 a9 bc c0 44 4c 3d 49 85 72 be
       0.038300984 -0.02072977 0.049870253 -0.23683657
000150 44 ca 47 3c 89 c4 ca bd e8 70 a0 bc 8e 97 b4 bc
       0.01219422 -0.09900767 -0.019585088 -0.022044923
000160 94 15 d9 3c 82 15 0d bd dd 48 e6 bd ac b6 2e bd
       0.026499547 -0.03444434 -0.11244366 -0.04265468
000170 e6 a8 ee 3d 4a 12 a2 be 13 1a 4c 3d ff 90 df bd
       0.116533086 -0.31654578 0.049829554 -0.10916328
000180 32 d0 a9 be 60 7f 9f 3d 13 99 17 bd 52 86 61 3e
       -0.33166653 0.07787967 -0.037011217 0.22023895
000190 be c1 d1 3c cc 99 e4 bc 1b b6 84 be d0 94 29 bd
       0.025605079 -0.027905367 -0.25920185 -0.041401684
0001a0 1e 90 6c bc e9 e1 a6 be 46 99 eb bb 4c 1d 15 3d
       -0.014438657 -0.3259423 -0.0071899025 0.036404893
0001b0 13 15 ca 3d d7 4b 7b bd d5 30 e0 bc 06 51 3f 3d
       0.09867301 -0.061351623 -0.027367035 0.04670813
0001c0 6a e0 41 bd aa 33 71 bc e8 6a 5e bd 43 94 4e be
       -0.04733316 -0.01472179 -0.054301172 -0.20173745
0001d0 7f d8 7d 3c 8a 19 12 3b 23 04 6d 3c 47 9a da bd
       0.015493511 0.0022293054 0.014466318 -0.10673957
0001e0 74 a6 88 3d cf 29 a3 bd d3 90 65 bd d6 1c 05 3d
       0.066723734 -0.07966959 -0.05604632 0.032498203
0001f0 98 60 19 3c cc c6 ab bc 15 2d c1 bc 31 dc b7 3d
       0.009361409 -0.020968817 -0.023581067 0.08977545
000200 5e af 57 bd 58 09 7e be ca 9b 00 be 87 6d 0f 3e
       -0.052657478 -0.24808252 -0.12559429 0.14006625
000210 58 07 2e bd 7f 29 00 3e 35 44 53 bb c6 53 d5 3c
       -0.042487472 0.1251583 -0.00322367 0.026040923
000220 f6 ee ac 39 bf 4f ae bd 10 0a 77 be 3b 6f 26 be
       0.00032984436 -0.08511304 -0.24124932 -0.16253369
000230 ff be 42 bd d8 66 2f 3c 99 ab 51 3d 6e ae 37 3d
       -0.04754543 0.010705672 0.05118904 0.044844083
000240 17 42 90 bc 21 66 ae be 02 06 98 be b6 d8 f6 bd
       -0.01760964 -0.34062293 -0.29692084 -0.12053053
000250 d9 77 95 bd 95 9e d0 3c 41 d9 ac 3d be db 0c be
       -0.0729825 0.025466243 0.084398754 -0.137557
000260 7d c9 8d 3b 14 a1 54 bd 49 d8 2e 3d ab d2 89 bd
       0.004326998 -0.05191143 0.042686734 -0.06729635
000270 7d ff 2b 3d 06 bf 1e bd ae 68 77 3c ca 95 24 bd
       0.0419917 -0.038756393 0.015100641 -0.040181912
000280 15 b3 1e be 31 ac fd b9 89 25 89 3d 3a 53 de 3c
       -0.15498002 -0.00048384213 0.066966124 0.027139295
000290 f6 d7 0c be 5a 8d 41 3d 9b 5f f2 3c ae b8 52 bd
       -0.13754258 0.047253944 0.029586604 -0.051445656
0002a0 cf c5 37 3d b3 c5 0a bc 63 c5 a9 bc 0a 24 59 3d
       0.04486638 -0.008469987 -0.020724004 0.053012885
0002b0 cb 31 5b 3d 45 64 79 3d 86 c9 61 3d 34 af 96 3a
       0.053514283 0.06088664 0.05512383 0.0011496306
0002c0 7d be 6c be 9c 59 c2 3a 10 59 c1 bc 6a 59 51 3d
       -0.2311954 0.0014827731 -0.023602039 0.051110663
0002d0 e6 be b7 bd 1e 2a c3 3d 2b 2a a7 bd f2 d4 ad 3b
       -0.08971958 0.095295176 -0.0816234 0.005304926
0002e0 90 a3 50 3b 3c 66 bf bc 88 6d be be 1e 31 88 3d
       0.0031835772 -0.023364179 -0.3719294 0.06649993
0002f0 2b d8 4c bd 0b 2b b2 bc 24 12 26 be bc c2 37 bd
       -0.05001084 -0.02174904 -0.16217858 -0.044863448
000300 ce 2c 5b 3d 66 d1 ea bd 4b 1f c1 3c 1b ac 68 be
       0.053509526 -0.11465721 0.023574492 -0.22721903
000310 0f 6f 25 3e 35 7c f5 bd fe 20 59 3d c1 02 0d bc
       0.16155647 -0.11986581 0.05300998 -0.008606614
000320 52 ca 80 3d fb e4 4f bd 5a fa 94 bd fe 91 34 3d
       0.062885895 -0.050755482 -0.07274313 0.04408454
000330 25 4b 26 bc 3b 39 04 bd 50 a5 82 3c 87 c3 e2 bb
       -0.010149752 -0.03228114 0.015947968 -0.0069202813
000340 7c 01 35 3c 6f 30 93 3a 3a 55 f1 3c 4e 97 b2 3d
       0.011047717 0.0011229644 0.029459585 0.08720265
000350 a9 74 f9 3c 87 81 28 bd 3b ab 46 3e f2 0a d4 3b
       0.030451136 -0.041139152 0.19401257 0.0064710313
000360 df 17 df bd 8a d5 28 3c 70 a5 bc bd 78 2e 03 3d
       -0.10893225 0.010304818 -0.09211242 0.032026738
000370 c8 cb 6a bd 9c 02 c6 3c 8c 4e 09 3d 91 45 37 bd
       -0.057323247 0.024171166 0.033522174 -0.044744078
000380 24 2a 0c 3d 8c db 38 be 62 c1 8d 3d 45 ba 3a 3e
       0.034219876 -0.180525 0.069216505 0.18235119
000390 d6 4a 56 3d 45 8c 9d bc 0a 97 24 bd d9 8c a5 3c
       0.052317463 -0.019231925 -0.040183105 0.020208763
0003a0 a3 b1 63 be bd 20 85 bd de b9 c5 be 09 45 a5 bc
       -0.22235732 -0.06500385 -0.38618368 -0.02017452
0003b0 93 7a db 3c 3e f2 5e 3c 9c f2 ec 3c a5 9f 9a be
       0.026791846 0.01360756 0.028924279 -0.30199924
0003c0 d9 e6 2f be 7c 77 cb bd 9e 63 aa bd 48 ca ee bd
       -0.17177905 -0.09934899 -0.08319782 -0.11659676
0003d0 b0 c5 4a 3c 0a d1 c4 3d 60 c2 49 bd 57 9d 22 3d
       0.012376234 0.096101835 -0.049257636 0.039700832
0003e0 26 8e 6b 3d 88 c1 84 bc 83 a6 bc bd be e5 45 bd
       0.05750861 -0.016205564 -0.09211447 -0.048314802
0003f0 65 b1 80 3c 95 b5 9f bd f0 3c 10 bd 8f 5e 78 3b
       0.015709588 -0.07798306 -0.035214365 0.0037898158

fc2.bias f4 [300]
000000 73 a6 5e bb 1c 92 dd bc d4 c1 c4 bb 95 b8 63 3c
       -0.0033973723 -0.02704721 -0.0060045514 0.013898988
000010 cb 97 38 bd 93 cc 8a 3c 71 2a 94 bc c9 b6 fb bc
       -0.045066636 0.016943252 -0.018086644 -0.030726807
000020 0a dc 82 bd e4 c2 87 3d 66 17 23 bc 2c 2e 1d 3c
       -0.06389625 0.06628969 -0.009954309 0.009593528
000030 b8 29 58 bd bf 7e 7f 3d d5 17 c4 3c 20 69 21 3d
       -0.05277416 0.062376734 0.023937145 0.039406896
000040 e1 55 87 3c 25 b8 97 bc e0 55 1f bd 75 46 65 bd
       0.016520442 -0.018520424 -0.038900256 -0.055975396
000050 8f 14 b3 bb 70 53 57 3d 6e 7a fd ba 61 61 61 3d
       -0.0054650973 0.052569807 -0.0019338855 0.05502451
000060 dc ce 3a 3c 49 52 f1 bb a9 2b 2e bd da 95 21 bd
       0.011401858 -0.0073645455 -0.042522106 -0.03944955
000070 09 53 e1 bc 42 69 c9 3c 56 34 1d 3d cd e1 b8 bc
       -0.027505415 0.024586324 0.03837999 -0.022568608
000080 89 41 1a bd 8d 0e 83 bb 2e 23 71 3c 17 05 54 bd
       -0.037660155 -0.0039995373 0.01471786 -0.051762667
000090 e6 f5 e2 bc 00 1f 50 3d b8 ea 96 bb 77 a1 6e bb
       -0.027705144 0.050810814 -0.0046056174 -0.0036412159
0000a0 72 9d 95 bc 2d 29 40 3c 9d 07 0d 3d e4 8a 66 3d
       -0.018263552 0.011728567 0.03443109 0.0562848
0000b0 22 3d cd bb 17 69 d9 bc 9f 3c a6 3c 24 58 79 bd
       -0.006263391 -0.026539369 0.020292578 -0.060875073
0000c0 b6 6a a3 3c 33 52 51 3d 2d 00 44 3c c0 99 f5 3c
       0.019948345 0.051103782 0.011962933 0.02998054
0000d0 a6 ba ba bd 6c f7 ae bc fd fa 87 bc 3d 1c a5 bb
       -0.091176316 -0.021358214 -0.016599173 -0.0050387667
0000e0 4d d8 59 bd 9b 27 1e 3c de 47 a3 3b 07 66 34 3c
       -0.053184796 0.009652997 0.0049829325 0.011010653
0000f0 a5 b1 3a bd 87 26 f5 3c 48 f4 fe bc 19 3a 83 3d
       -0.04557957 0.029925598 -0.031122342 0.064075656
000100 e9 a6 d1 bc f6 ac 5c 3c c5 90 2d 3d 79 bd d6 bc
       -0.025592284 0.0134689715 0.04237439 -0.026213394
000110 c6 87 d3 3b d7 c5 3e bd ea 80 3f 3d b7 10 86 3d
       0.0064553944 -0.046575394 0.0467538 0.06546157
000120 41 5b 87 bd 9b 6b 7c bc 07 df 32 3d 7d 4a c9 3c
       -0.06609202 -0.0154065145 0.043669727 0.024571652
000130 3a 52 0b 3d 78 58 5c bb 57 57 65 3d fe 3e 80 3d
       0.034013964 -0.0033622067 0.055991497 0.06262015
000140 0c ba 84 3d 6f 5c 81 bc 89 c0 ae bc d9 80 e6 bc
       0.06480798 -0.015791146 -0.021332042 -0.028137611
000150 f8 80 95 3c bf ae 1d 3d 2f b2 11 bd 66 d3 6f 3d
       0.018249974 0.03849673 -0.03557032 0.058551215
000160 3c 48 82 3b c1 a8 7d 3d 11 bb 8b bd d3 aa d5 bc
       0.003975896 0.061928514 -0.068227895 -0.026082432
000170 eb 3e 1f 3d e9 a6 48 3d 5a c2 fd 3c fe be 42 bb
       0.038878363 0.048987303 0.030976463 -0.002971589
000180 76 3e 17 3d 0d f9 00 3d 15 c0 fb bc 12 ee b7 bc
       0.0369248 0.031487513 -0.03073124 -0.022452388
000190 ff 12 25 bd 7f be 06 3d 53 05 69 3d fa e2 67 3c
       -0.04030132 0.032896515 0.056889843 0.0141532365
0001a0 9c ba 0a 3d 78 6c 42 bc 84 00 47 3d 39 25 98 bc
       0.03386937 -0.011866681 0.048584476 -0.018572437
0001b0 f8 88 74 3c fe 15 8f 3d 3e 31 0e bc 3f 6c c9 bb
       0.014925234 0.069866166 -0.008678732 -0.006146937
0001c0 04 74 35 3c c7 a0 2c bd 57 a8 3e 3c df 45 20 bb
       0.011075024 -0.042145517 0.011636815 -0.002445571
0001d0 79 7c ba 3c ff 70 cf 3c f3 a0 32 3d de 2f 25 3c
       0.022764431 0.025322435 0.043610524 0.010082213
0001e0 2f 6c b6 bc 2d 5f 12 bd ed b8 c8 3c 94 3b e8 bc
       -0.022268383 -0.035735298 0.024502242 -0.028348722
0001f0 a9 08 fd bb c8 b6 ac 3d 46 5c 8f 3d 27 bd a3 3c
       -0.0077219796 0.084333 0.07000022 0.019987656
000200 4a c6 94 3c bd c4 e5 3b c2 91 3c bc 03 c7 3c 3d
       0.018160958 0.0070119784 -0.011509361 0.04608823
000210 a0 21 ff bc 8a a6 f9 3c e5 c1 d2 3c 13 d4 c8 bc
       -0.031143963 0.03047492 0.025727222 -0.024515187
000220 2e 09 2b bd 36 14 3c 3d 31 31 dc 3c 98 4f a4 bc
       -0.0417568 0.045917712 0.026878925 -0.020057485
000230 1d 82 39 3d 51 40 d7 3c de dc 23 bd cd ba 0f bd
       0.0452901 0.026275786 -0.040005557 -0.035090256
000240 e8 f5 99 3c 48 98 29 bc d2 2d 5a 3d 40 2f 3c bb
       0.018794015 -0.010351248 0.053266354 -0.0028714687
000250 53 db 72 bc 9f 8b d3 3c 80 33 87 3c 22 6f f9 bb
       -0.014822799 0.025823412 0.01650405 -0.007612125
000260 d9 e3 3e 3d 26 d3 46 bd b9 3d 8f 3d 99 6d 59 3d
       0.04660401 -0.04854121 0.069941945 0.053083036
000270 e0 96 be 3c 08 b7 11 3c 5c 46 b6 3c cc 9f 7a 3c
       0.023265302 0.008893736 0.022250347 0.015296888
000280 ee c1 a6 3c 28 62 a6 3d b3 64 85 bc 77 14 84 bc
       0.020356145 0.081241906 -0.016283369 -0.01612304
000290 b5 59 b2 3d 6a 6f 23 bb a0 e2 37 bc 76 fb 59 3c
       0.087085165 -0.0024938234 -0.011223465 0.013304582
0002a0 d8 86 5b bd 37 a0 47 b7 eb f7 3c bd be c4 3c 3c
       -0.053595394 -1.1898627e-05 -0.04613487 0.011521516
0002b0 4d bc 49 bd 36 c8 53 ba 33 d7 16 3d 88 2f 7b 3b
       -0.049251843 -0.0008078845 0.036826324 0.0038327891
0002c0 5f 8a 9d bc 50 f8 d7 3b 71 ed 04 bd 45 da 4e 3d
       -0.01923102 0.0065908805 -0.032453004 0.050501127
0002d0 f7 80 42 3d e8 48 39 3d 58 ff 1e 3d 70 75 6f 3c
       0.04748627 0.045235544 0.038817734 0.014615402
0002e0 09 38 cf bc 9b 24 31 3c 31 16 0f 3d c8 1c 42 bd
       -0.025295274 0.01081195 0.034933273 -0.04739073
0002f0 74 74 62 3d 93 46 eb 3c b8 73 86 bb b8 db ce 3b
       0.05528684 0.028720176 -0.00410315 0.0063128136
000300 e7 25 6b 3d 74 8f 16 bc ce 07 5d bd e2 da d5 3b
       0.057409193 -0.009189475 -0.05396252 0.006526337
000310 f7 a1 2c bc 3a 27 2d 3c 92 9f 64 bd e6 fb 71 bc
       -0.010536662 0.010568434 -0.05581624 -0.01476953
000320 f9 7b e9 3c f4 3b 43 3c 06 78 c1 3c 19 d1 12 bd
       0.028501498 0.011916149 0.023616802 -0.035843942
000330 65 0d ec 3b 59 05 6e 3c 24 2a 05 bd ce c7 47 3d
       0.007203745 0.014527642 -0.03251089 0.048774533
000340 57 1c a7 3c 8c 29 4b 3d 85 90 36 bd 90 33 b8 bc
       0.020399256 0.04960017 -0.04457142 -0.022485524
000350 c5 39 33 3d e5 cd 2b 3d 8f fe a9 3c 86 58 a5 3c
       0.043756265 0.041944403 0.020751266 0.020183813
000360 8a 22 33 3d 80 4b ce 3c 2d f1 5a bd fc 3a 90 bc
       0.04373411 0.025182486 -0.05345266 -0.017606251
000370 2e 16 b9 3c 2c 46 dc 3c 97 17 e5 3c 13 b6 13 3d
       0.022593584 0.02688893 0.02796535 0.03606231
000380 6c be 99 bc 20 e2 35 bd 22 12 f8 bc 19 86 8f bc
       -0.018767558 -0.044405103 -0.030282084 -0.017519997
000390 2e 4c 12 3d c6 34 31 3d b5 51 42 3d 7a 00 68 3d
       0.03571718 0.04326322 0.047441203 0.05664108
0003a0 d4 df d2 bc 34 cb 76 3d 03 cf 0a bb ee 6c 19 3d
       -0.025741495 0.060252383 -0.0021180518 0.0374574
0003b0 ec 68 77 b9 e8 4f 0b 3c ff d3 02 3d 2d 14 45 bc
       -0.00023594842 0.008502938 0.031940456 -0.012028736
0003c0 1f 68 ef bb 5d ce a8 bc 67 07 34 3d 51 41 c1 3b
       -0.0073061134 -0.020606214 0.043952372 0.005897679
0003d0 ac 10 52 3d 81 31 79 bc 2a 43 77 bd de 0d a4 bd
       0.05128543 -0.015209557 -0.060366787 -0.080104575
0003e0 6b 30 4d 3d 2e d8 ba 3c d7 ec ed bc c3 6d d3 3c
       0.050095003 0.02280816 -0.029043598 0.025809174
0003f0 10 7f 1a 3c f7 49 c8 39 88 d7 08 3d 35 ea a9 3c
       0.009429708 0.0003820208 0.03340867 0.020741561

fc3.weight f4 [1, 300]
000000 87 ed 33 be 8e 2e 8b 3e 54 7b 79 bc 81 96 54 3e
       -0.17571078 0.27183956 -0.015227158 0.20760538
000010 bd 07 22 3f 58 09 9d be dc 62 f3 3d 5b 26 3d 3e
       0.6329306 -0.3067119 0.1188409 0.18471663
000020 c9 d4 c5 3c e2 73 81 3e bf 0c 8a 3e a9 9f 21 be
       0.024149315 0.25283724 0.2696285 -0.15783562
000030 49 39 fd bd 97 bf ac be 47 fa 3e bd 61 a2 6f 3e
       -0.12364442 -0.3373992 -0.0466254 0.23401786
000040 19 14 ac 3d d0 ae 8f bc 2a 79 45 be 29 43 d0 bd
       0.08402271 -0.017539412 -0.19284502 -0.1016906
000050 0c ed 0a be 90 b4 2a 3e 98 35 55 bd 77 0b c9 bd
       -0.13566989 0.16670442 -0.052053064 -0.0981664
000060 d8 aa 3e 3e 83 24 38 be 23 a5 17 be 7b e5 eb 3c
       0.18619859 -0.17982678 -0.14809088 0.028795948
000070 49 41 11 bd e2 f5 fe bd 54 bc 0f 3e f9 a5 0c bd
       -0.03546265 -0.12449242 0.14036685 -0.03433797
000080 5b 83 62 3d 53 57 34 3e 4b 48 f9 3e 58 cf 76 3c
       0.05530105 0.17611437 0.48687968 0.015064083
000090 cc 6c ae 3d 56 d3 fa bb ff 4c 45 3c 4b 2e 5e bd
       0.08516845 -0.0076545877 0.012042283 -0.054243367
0000a0 23 92 d6 3d 51 fc 1e 3e 10 39 27 be 02 18 8e be
       0.10477092 0.15525939 -0.16330361 -0.27752692
0000b0 19 73 0d bd d0 30 06 be ec 9d a3 ba 6b fb f2 bb
       -0.034533594 -0.13104558 -0.0012482977 -0.0074152253
0000c0 4b 94 89 3d 56 f5 c2 3e 33 4f 30 3f 39 ec e8 bd
       0.06717738 0.380778 0.6887085 -0.11373181
0000d0 53 25 8c 3e e9 94 b3 3d 8c 39 4b 3e d9 64 f2 bd
       0.27372226 0.08768637 0.19846171 -0.118356414
0000e0 1a c1 da bd e0 0b 17 be fa 7f 5c 3d cb a3 6a 3b
       -0.106813625 -0.14750624 0.053832985 0.0035803195
0000f0 e1 b7 37 3e 6e 42 a7 3d d6 ae 83 3d 90 2f 03 be
       0.17941238 0.08166967 0.06429832 -0.12811112
000100 aa 0b e5 bd a3 a0 04 3f b0 46 7d be c5 f5 4a bd
       -0.11183865 0.5180761 -0.24733996 -0.04955079
000110 88 91 08 be 03 0d 52 be b9 5e e5 bc 0e ca 04 3e
       -0.13336766 -0.20512776 -0.027999269 0.12967703
000120 26 56 12 be ad 40 3a be dd 1a 2c be 53 8a 06 be
       -0.14290676 -0.18188734 -0.16807123 -0.13138704
000130 e6 5d ba 3e 08 2a 34 bd e0 45 a8 3e 47 be 1f be
       0.36399764 -0.043985397 0.3286581 -0.15599929
000140 de e5 f3 3e ca d3 14 3f 1c 64 83 be 86 a0 57 bd
       0.47636312 0.58135664 -0.25662315 -0.05264332
000150 3c f7 a5 3c 9b a0 53 3e f6 7f 64 3e 10 ef 24 be
       0.020259492 0.20666735 0.22314438 -0.1610682
000160 4b eb b6 bd 42 3c c6 3d 67 80 36 be 03 37 30 3e
       -0.08931597 0.09679462 -0.17822419 0.17208485
000170 c5 aa c6 3e c0 01 ee 3d 7a b4 fe 3d 5a a5 5f be
       0.38802162 0.116214275 0.12436767 -0.2184042
000180 77 a9 c5 3d 0e cc d9 3d 4c 87 9b ba 88 c1 90 3d
       0.096514635 0.106346235 -0.0011865883 0.07068163
000190 d0 52 cb 3d f9 e2 be bd a4 f4 bb bd aa 5b 6b be
       0.099279046 -0.09320635 -0.09177521 -0.22984186
0001a0 59 48 9c be 4a 19 1d 3f bf ba 5d 3d 2c b5 21 be
       -0.30523947 0.61366713 0.054133173 -0.15791768
0001b0 b5 e0 3a be f7 53 be 3d f8 0e 7d be 8c f4 23 be
       -0.18249781 0.09293359 -0.24712741 -0.16011256
0001c0 3e b0 5b 3d 23 ab 2e be 58 7f a2 3b c3 21 21 be
       0.053634875 -0.17057471 0.004959028 -0.15735535
0001d0 fd 24 94 bc 5f f2 0b 3e 95 81 ae bd 4d 15 a0 bd
       -0.018084044 0.13666676 -0.085208096 -0.07816563
0001e0 38 9c 54 be f1 91 e6 bd 88 51 16 be a2 ea 35 bd
       -0.20762718 -0.11258305 -0.14679539 -0.044413216
0001f0 25 30 3e 3e de 62 1d 3e 27 19 06 3e 2b 7c c8 3e
       0.18573053 0.15369746 0.13095532 0.39157233
000200 0e a5 a0 be 9e d2 53 be e5 9d 41 3d a3 93 fc 3d
       -0.31375927 -0.20685813 0.04726972 0.12332847
000210 00 32 d7 bd f3 8b 90 be 82 1b 8f be f5 59 0c bc
       -0.105075836 -0.28231773 -0.27950674 -0.008566369
000220 6f 8a 18 be 9c fe c2 bd 17 da 48 3e 4f b2 f7 3d
       -0.14896558 -0.09521219 0.19614445 0.120945565
000230 01 9a 80 be 5f 36 7c be 2c 11 95 bc 9d 05 fa bc
       -0.25117496 -0.24630116 -0.018196665 -0.030520255
000240 11 12 75 3e 50 fa 83 3e d4 43 5f 3e b6 a8 21 be
       0.23932673 0.2577691 0.21803218 -0.15787014
000250 35 35 5e be bc 4d cf 3d fe 32 f6 bd a3 26 03 be
       -0.21699984 0.101222485 -0.12021445 -0.12807707
000260 58 41 1c be 45 f7 b2 be bd ad 35 3e a8 20 a4 3e
       -0.15259302 -0.34954277 0.17742057 0.32056165
000270 c1 46 75 bd 47 2e 55 3e d9 aa 25 be 4e a8 1b be
       -0.05988193 0.20818435 -0.16178454 -0.15200922
000280 b0 cd fb bd 35 50 6d 3e b6 b9 8e bd e0 05 93 bd
       -0.12295091 0.23175128 -0.06969015 -0.07178855
000290 21 65 a3 3e 5a 42 cc 3d 81 55 ec 3e ce 66 18 be
       0.31913093 0.09973593 0.46158984 -0.14882967
0002a0 0a 89 15 bd e7 9c 6a be 44 42 25 3c 2e 14 f9 bd
       -0.036507644 -0.22911416 0.0100866 -0.12162052
0002b0 a8 3b cd 3c ff 40 ea bc c2 de 24 3e 92 88 a4 bd
       0.02505286 -0.028595446 0.161006 -0.08033861
0002c0 28 7a 14 be 61 32 b6 bd e6 03 cc bd 2a c6 0a 3e
       -0.14499724 -0.08896328 -0.09961681 0.13552156
0002d0 e3 3b aa 3d 91 9b b4 3d 61 12 fd bb ad 6a 47 bd
       0.08312204 0.088187344 -0.007723138 -0.04868572
0002e0 1c d6 d5 bd 9f 80 36 be a6 d7 00 3e 4f 11 b7 3d
       -0.10441229 -0.17822503 0.12582263 0.08938848
0002f0 06 c1 13 be 6c 4d 80 3e 69 fd 43 3d 98 e9 1f be
       -0.14429101 0.25059068 0.047849093 -0.15616453
000300 46 e1 a5 bd 5c 35 9b 3d bd 28 e8 bd d7 1a 53 3d
       -0.08099608 0.07578537 -0.11335895 0.05153927
000310 a0 0d ca 3d 3f 94 fd 3d 6b cb 98 3e dd 4e 5c bd
       0.0986588 0.12381791 0.29842696 -0.053786147
000320 c2 55 63 be 2c 5a 40 3e 89 0c 1e 3e 00 1f f2 bc
       -0.22200683 0.18784398 0.1543447 -0.029555798
000330 00 e4 7d be a0 6c 9d 3d 3b 72 b9 bd 6d ae 8d be
       -0.24794006 0.07686734 -0.09054991 -0.2767214
000340 37 51 4c 3e 31 62 02 be 68 2b 52 bd 41 2d dc bd
       0.19952856 -0.1273277 -0.051310927 -0.10750819
000350 b3 16 23 be d9 5d 63 be e9 f7 53 be 60 3b 86 bd
       -0.15926628 -0.22203769 -0.20700039 -0.06554294
000360 c5 8b 9a 3d ae b2 f8 3e d8 f1 7f 3b 1f 00 7d 3e
       0.0754619 0.48573822 0.0039054062 0.24707077
000370 d1 97 00 be ba d3 18 be 9d b6 ea bd 8c 1e 48 3e
       -0.12557913 -0.14924517 -0.11460612 0.19542903
000380 73 85 d0 bd 90 06 05 3f 85 90 04 3e 5c f5 1e 3f
       -0.101817034 0.5196314 0.12945755 0.6209314
000390 1a 73 83 3e 74 ca 77 be 93 85 b9 bc df 65 41 3e
       0.25673753 -0.24198323 -0.022646701 0.18886517
0003a0 0e 63 1e 3e 22 99 3c 3e ef 94 21 be b6 64 db bd
       0.15467474 0.1841779 -0.1577947 -0.107125685
0003b0 59 3f c6 bd e7 52 01 3d 0d 05 c0 bd f0 d4 95 3d
       -0.09680051 0.031573202 -0.09375963 0.07316005
0003c0 1d e0 8a 3d 03 3c 19 be c4 2d 39 3b a5 2f 3a 3e
       0.067810275 -0.14964299 0.0028256038 0.18182237
0003d0 a5 94 be bd 9a 7f fb 3d e5 b7 24 be c0 43 cb bd
       -0.093056954 0.122801974 -0.16085775 -0.09925032
0003e0 95 0c a8 bc 5e 2e 8c 3c 89 47 c5 3d 2d 07 2d 3e
       -0.020513812 0.017111953 0.09632785 0.16897269
0003f0 19 0f e2 bd 8b be a7 3e 9d 01 01 3f e0 14 1f 3e
       -0.11038036 0.3276256 0.50393087 0.15535307
