save/qmobilenetv2_cifar100_ratio0496bit28/critic.pkl (torch, 380421 bytes, 7 tensors)

fc11.weight f4 [300, 10]
000000 8c 32 8f bc be 50 16 3e c4 98 13 3d b2 12 b5 bd
       -0.017480157 0.14679238 0.03603436 -0.088414565
000010 d0 f4 6f be 72 bf 6c 3e 84 65 ab be ab 05 d0 3e
       -0.23433232 0.23119906 -0.33475888 0.40629324
000020 2c 49 09 bf eb c2 fa 3c fa 39 47 be a0 15 89 be
       -0.53627276 0.030610522 -0.1945571 -0.2677431
000030 7d 19 93 3e 9d 36 72 3d cf 93 55 3e 4d f2 7a 3d
       0.28730384 0.059134115 0.20857166 0.061266232
000040 74 c9 a7 3d 25 69 be 3d 00 25 1e be 41 a8 8c be
       0.08192721 0.092973985 -0.15443802 -0.27472118
000050 7c b0 b3 3d 27 4f 46 3c bc d4 46 bd eb 9d b8 3d
       0.08773896 0.012103832 -0.048542723 0.090144955
000060 41 a0 12 3e 47 18 99 bf aa 72 2f be 4a c1 63 be
       0.14318945 -1.1960534 -0.17133585 -0.22241703
000070 8a 58 18 be a9 99 2a 3e 00 21 23 3e e3 b2 58 bc
       -0.14877525 0.16660179 0.15930557 -0.013226244
000080 c3 9d 6f be 47 76 a2 ba 1a bd 4c 3e cd 7b 2f 3e
       -0.23400025 -0.0012394869 0.19994012 0.1713707
000090 18 1f 52 3d 8c 4e fc 3d bb 69 b3 bd 7a 3e f2 3d
       0.051299185 0.12319669 -0.08760401 0.11828323
0000a0 6b cd 32 bd 5d d2 36 3d 2e 13 82 be c2 21 c3 3d
       -0.043652933 0.04463421 -0.25405258 0.09527923
0000b0 d5 0d d3 3c ab 1f 40 bf 09 cc c4 bd e2 ea b5 be
       0.025763432 -0.7504832 -0.09609229 -0.35530764
0000c0 8b a1 ae bd ac 8a 4b be d6 92 32 bd 5d ea a7 3e
       -0.085269056 -0.19877118 -0.043597065 0.32795992
0000d0 74 e2 14 be 1b b7 ff be 20 63 69 be 47 46 a8 3e
       -0.1453951 -0.49944386 -0.2279172 0.32866117
0000e0 a4 87 d7 bd 3c 88 25 be e9 3c 12 be 0e d9 79 3e
       -0.10523918 -0.1616525 -0.14281048 0.24399206
0000f0 59 dd 86 3e 71 3f 6d 3e 29 0e 98 be 3c ff 90 bd
       0.2634075 0.23168732 -0.29698303 -0.07079932
000100 50 d5 96 3d ed 49 2f 3d 80 11 b7 bc 1e 23 82 3d
       0.07364905 0.04279511 -0.022347212 0.06354354
000110 f8 af 88 3e 6a 51 03 3d a5 2e 33 3e d0 c3 38 3d
       0.26696754 0.032060064 0.17498262 0.045108616
000120 4e e7 85 be ca 09 3b be fe dd 1a 3d 65 8f ba be
       -0.26153034 -0.18265453 0.037809364 -0.36437526
000130 f3 02 74 3d 20 09 34 bd 03 cf 05 3e d8 3f 22 be
       0.059573125 -0.043954015 0.1306725 -0.15844667
000140 41 88 87 be 13 65 11 be c4 ad d1 3c 9c 1c 8c be
       -0.2647114 -0.14198713 0.025595553 -0.27365577
000150 e6 02 45 be c3 69 9b be d1 c0 1d 3c 38 7f 54 be
       -0.19239387 -0.30354127 0.009628491 -0.20751655
000160 c4 dd 89 bd 5c 19 46 be df df 0b be 7a f2 b5 3d
       -0.067317516 -0.19345611 -0.13659619 0.08884139
000170 02 32 71 3d 6d b7 0e 3e 02 91 61 bd f1 75 4d 3e
       0.05888558 0.13937159 -0.05506993 0.20064522
000180 26 c9 25 3e 64 bf f0 bc b2 33 39 3e 86 74 49 bd
       0.16190013 -0.029388137 0.18086126 -0.04918339
000190 0d 6a 8a bd 3d 27 35 3e bc f8 8a 3e 5b 55 33 bd
       -0.06758509 0.1769075 0.27142894 -0.043782573
0001a0 ec d1 2f bd 85 c2 68 be aa aa 51 3e a4 92 a9 bc
       -0.042924806 -0.22730453 0.2047526 -0.020699807
0001b0 c9 1f 8c be 7b d7 a9 3d 49 af 46 3e d7 51 79 3e
       -0.27368 0.08293053 0.19402803 0.24347626
0001c0 7a 73 44 be 83 71 ba 3d 3e 75 11 b9 84 80 a5 be
       -0.19184676 0.09103682 -0.00013871954 -0.32324612
0001d0 77 13 5b be 08 87 69 be 91 45 89 be 24 ea 5f 3e
       -0.21394144 -0.22805417 -0.26810887 0.21866661
0001e0 8f c1 27 3e db 15 74 3e b1 e4 fe bd aa fe 13 3e
       0.1638243 0.23836462 -0.12445963 0.14452615
0001f0 1a ae 2f be e3 28 42 3e df af a1 3e f2 19 98 be
       -0.17156258 0.1896091 0.31579491 -0.29707295
000200 a0 59 8a be ea 33 90 3d ad 3e 41 bd 12 3a 0d be
       -0.27021503 0.07041152 -0.047178913 -0.13791683
000210 79 7d a2 be 31 d3 b3 bd 92 6c 7f be 5a 11 6b bf
       -0.31736353 -0.08780516 -0.2494376 -0.9182335
000220 75 dc 49 bd 12 58 5b bf 67 20 08 be 3f 62 84 3d
       -0.04928251 -0.8568126 -0.1329361 0.064640515
000230 9d c3 82 3e 19 31 02 bf e8 7f 7d 3e 72 c0 1e be
       0.25539866 -0.5085617 0.24755824 -0.155031
000240 41 df 18 be 6d 33 13 bf f2 6d 0a bd ae 9a d1 bc
       -0.14928915 -0.57500345 -0.03379626 -0.025586452
000250 15 88 22 3d c8 df ab 3d 65 4d 03 be 0f 41 34 bf
       0.03968056 0.08392292 -0.12822492 -0.7041177
000260 00 56 91 3e 7b 9f f1 3d be eb db bd 0f 19 d9 be
       0.28385925 0.117979966 -0.10738324 -0.4240193
000270 d3 f3 c8 3d f7 44 fa be c7 d5 91 bd 0f c7 54 be
       0.09812131 -0.4888074 -0.07120853 -0.2077906
000280 cb f2 6e 3e 23 d7 9c 3e 10 37 9d 3e ca b1 c6 3c
       0.23334806 0.30632886 0.30706072 0.024254698
000290 60 4a 89 be bb 1c fd bc c0 ac 9c bb 5c af 9e be
       -0.26814556 -0.030897489 -0.0047813356 -0.30993164
0002a0 a7 73 38 3e 4f de 58 be c2 37 a5 bd 6a 32 00 be
       0.18012868 -0.21178554 -0.080672756 -0.12519231
0002b0 f6 83 45 bf 9b 8b ac 3c d7 7d ad be 51 bb f9 be
       -0.7715448 0.021062663 -0.3388507 -0.48775724
0002c0 f9 65 de be 20 b5 84 3d 4f bd 87 be 14 bf ac be
       -0.43437174 0.06479859 -0.26511618 -0.3373953
0002d0 bc 57 09 3e 02 0c 48 bf 62 78 34 be ad 9e 1e bf
       0.13412374 -0.7814332 -0.17624047 -0.6196087
0002e0 7d 60 87 be 84 a3 9c bf 60 4b 99 be 83 c3 ba be
       -0.26440802 -1.2237401 -0.2994032 -0.3647729
0002f0 c0 25 93 be 53 77 e5 bd 96 60 d7 3c bf bd 88 bd
       -0.28739738 -0.112044 0.026291173 -0.06676816
000300 4d 75 4c 3e 1b 7c ae 3e ff 64 f4 3c e2 31 00 be
       0.19966622 0.3407906 0.029833315 -0.12519029
000310 fc 00 45 bf 17 d5 87 3f 06 68 94 3e d2 e3 6d 3e
       -0.7695463 1.0611905 0.28985614 0.23231438
000320 2b be 89 3e 5c f8 8e bf 41 1a 91 bf 8b 4f a0 3e
       0.269029 -1.1169543 -1.1336137 0.31310686
000330 cd ba 99 bd 96 e2 a4 bf 1a 20 01 be ad 94 3e bf
       -0.075063325 -1.2881649 -0.12609902 -0.7444561
000340 16 e4 3d be cc f9 a6 bd ee 49 57 be f0 cb d1 3d
       -0.18544039 -0.08153114 -0.21024296 0.10243976
000350 1d 83 c5 bd eb 45 79 3d 6b af 56 be ba 22 5e 3d
       -0.096441485 0.060857695 -0.20965354 0.054232337
000360 41 eb 16 be 9f 6b 85 bd 7f b9 6f be e1 70 47 be
       -0.1473818 -0.06514668 -0.23410605 -0.19476654
000370 66 7e 4c 3e 4a 5e 1d be 78 bb 74 be 3a df bc bc
       0.19970092 -0.15368 -0.23899639 -0.023055661
000380 62 ea 95 be 58 30 f5 bd 23 65 40 3e d8 d1 15 bd
       -0.29280382 -0.119721115 0.1878858 -0.036577076
000390 48 ee 8f 3e 6b 25 88 bd 9b 3f 7c 3d 3e ff 05 be
       0.28111482 -0.06647762 0.061584096 -0.13085648
0003a0 d7 6a 4a 3e 48 50 98 3e e2 b4 2e 3e 67 f2 fa 3d
       0.19767319 0.2974875 0.17061189 0.12253266
0003b0 0b d2 cc bd 4e a0 87 bc 7c 60 00 3d 11 19 3f bd
       -0.10001 -0.016555931 0.031342015 -0.046654765
0003c0 28 b9 1e be 8c 81 c9 3d 12 6a 2a bf b8 0d 19 3c
       -0.15500319 0.09839162 -0.665681 0.00934165
0003d0 27 d1 cd 3c 27 d9 fc be 92 bc 3c bd ce 7c 53 bf
       0.025124146 -0.49384424 -0.046078272 -0.8261231
0003e0 6e ce 9f be 7c 36 cc be 2d 6d eb 3d 37 39 b4 bd
       -0.3121218 -0.39885318 0.11495433 -0.08799975
0003f0 30 80 3a be dc 81 8f bd b2 26 2a 3e ec 4f 77 bd
       -0.18212962 -0.070071906 0.16616324 -0.060378954

fc11.bias f4 [300]
000000 91 a7 b5 bd 0f c1 48 3d b8 d4 58 bc 36 8c 42 bd
       -0.088698514 0.04901224 -0.01323431 -0.047496997
000010 91 fa 96 3d 35 52 59 3e e8 70 39 3e 75 7e 55 3e
       0.073720105 0.21222766 0.18109477 0.20849021
000020 87 37 c9 3c 98 db 70 3e 8e 5d 89 3c cd 08 47 ba
       0.02456261 0.23521268 0.016768243 -0.0007592559
000030 80 c6 54 be 20 81 2b be 44 17 c3 be 25 f9 11 3d
       -0.20778847 -0.16748476 -0.38103688 0.035637993
000040 81 45 97 3e 52 95 3b 3e d9 9e 07 be e0 e7 a4 3e
       0.29545215 0.1831868 -0.1324419 0.32208157
000050 e4 0a 1a be 65 b6 50 be 72 58 81 3d 88 9b ec bd
       -0.15043217 -0.20382078 0.06315698 -0.11553103
000060 b6 a2 0e bd ca c7 4d bd 8b 1d 3b be 8f 68 5a 3d
       -0.034823142 -0.05023936 -0.18272988 0.05332237
000070 40 ff 85 3d 64 18 0b 3d 82 16 1e 3c 9d f7 9f be
       0.06542826 0.033958808 0.009648921 -0.312436
000080 15 bb 1d 3e 12 16 df 3c ae 53 0f 3e ba c1 e7 3d
       0.15403397 0.027232204 0.13996765 0.11316247
000090 a4 55 b1 3e a6 4a e1 3c 00 14 8f be e7 f4 38 3e
       0.3463565 0.027501415 -0.27944946 0.18062173
0000a0 13 bf fa be 22 33 40 3e 2b 0a 1f 3e fe ed 00 bd
       -0.48973903 0.18769506 0.15531223 -0.031476967
0000b0 3e 65 a3 bd 98 a4 ec be 7b 6a 9f be ae 59 a4 3d
       -0.07978295 -0.46219325 -0.31135926 0.080249175
0000c0 2b c9 97 bb cf 33 cb 3b 84 41 31 be 37 4b 28 3d
       -0.0046321354 0.0062012444 -0.17310148 0.041087355
0000d0 0e 36 06 3e 96 69 30 be db 61 d1 3d f7 e2 28 3e
       0.13106558 -0.17227778 0.102237426 0.1649283
0000e0 f9 75 54 be 3e 43 2c be 42 3f e8 be b4 be 0c 3e
       -0.20748128 -0.16822526 -0.45360762 0.13744622
0000f0 af aa 3c be 2d c0 ad bd c1 7a a5 be b1 ab f8 bd
       -0.18424486 -0.0848392 -0.32320216 -0.121421225
000100 59 52 91 be b2 29 1e 3e 12 af 6e 3d bd 59 8c 3d
       -0.2838314 0.15445593 0.05827243 0.06853054
000110 76 1b 66 bd a5 95 93 bd 11 86 73 be b4 0e 58 3e
       -0.056178533 -0.07206277 -0.23781611 0.21099359
000120 ad f0 e3 3e 23 49 9c be 80 24 af 3e 94 ff 94 3d
       0.4451956 -0.3052455 0.34207535 0.0727531
000130 43 e2 05 3e de b5 6e bd 24 cf 96 bc 4f c1 0c be
       0.13074593 -0.05827891 -0.01840932 -0.13745616
000140 fb af 66 be c6 b6 33 3d 8a 14 c8 3a c9 0d 51 bd
       -0.22528069 0.04387548 0.001526491 -0.051038537
000150 bf ec 88 bd 10 0c 22 be 06 d4 96 3d 04 d5 be 3c
       -0.06685781 -0.15824914 0.07364659 0.023294933
000160 8f d3 24 3e d1 b8 8f 3e de fb bb be c2 b9 99 be
       0.16096328 0.2807069 -0.36715597 -0.30024534
000170 c5 56 b4 be 51 2b 7e bd e9 e9 7c 3d 0f 09 a6 be
       -0.3522245 -0.06205303 0.06174651 -0.32428786
000180 a8 9b 10 3d f1 66 54 be 27 28 ae be 82 28 35 3b
       0.035304695 -0.20742394 -0.3401501 0.0027642553
000190 e5 9c 79 3d 80 30 d2 3d 3f 4d 20 be 4d 0e b3 be
       0.060940642 0.10263157 -0.15654467 -0.34971848
0001a0 63 91 ba be be 19 85 be c9 ba 55 be 0e b0 3e be
       -0.36439046 -0.25996202 -0.20872034 -0.18621847
0001b0 56 a8 e6 be 31 86 c0 be 2e 0a c3 bc a3 fb 97 3d
       -0.45050305 -0.3760238 -0.023808565 0.07421043
0001c0 56 fc 54 be be 78 0d 3e bf 92 dd be bd 10 59 be
       -0.20799384 0.1381559 -0.4327602 -0.21197791
0001d0 a4 98 54 3e 3b 08 a7 be b8 71 0a bf 09 52 5c 3e
       0.20761353 -0.32623467 -0.5407977 0.21515669
0001e0 4d 51 ae 3c f1 89 95 be a0 74 90 be c7 3c 6a be
       0.021279002 -0.29206803 -0.28213978 -0.22874747
0001f0 30 f0 46 3c 14 08 b3 3e f0 61 e8 be 8f 15 a7 3d
       0.012142226 0.349671 -0.4538722 0.08158409
000200 7d f7 98 be 5f 1e 92 be 03 79 78 be a4 5a 3b 3e
       -0.2987632 -0.28538796 -0.24264912 0.18296295
000210 81 6d d6 bd d6 7b 0c be 7d 7c ce 3d cc c2 b2 bd
       -0.10470105 -0.13719115 0.10082338 -0.08728561
000220 a6 08 8a be f4 99 89 3c b7 cc 87 be 80 d1 7d be
       -0.26959723 0.016797043 -0.26523373 -0.24786949
000230 8d 08 eb bc fd 88 a6 3d 6b ed b0 bd 17 1c 10 be
       -0.0286906 0.08131597 -0.08639034 -0.14073215
000240 b9 1e 66 be e6 61 92 be 13 93 24 be d7 ea d2 3c
       -0.22472657 -0.28590316 -0.1607173 0.025746746
000250 67 8f 70 3e d4 4a 2c 3e 3f f5 b0 bd c4 02 99 3e
       0.23492204 0.1682542 -0.08640527 0.29884923
000260 d7 da 7e be ba ad 0e 3e eb d5 84 be 0e c7 0d be
       -0.24888168 0.13933459 -0.25944456 -0.13845465
000270 8b 62 c9 be 19 28 71 be 04 25 8b be 96 c5 92 3e
       -0.39332995 -0.23550452 -0.27176678 0.2866637
000280 d6 46 23 be db 9e 41 3e 5d 5c cd be d5 67 52 bd
       -0.1594499 0.18908255 -0.4010953 -0.051368553
000290 44 a4 02 3e 34 33 ee be 51 d9 02 3e 28 b9 90 be
       0.12757975 -0.4652344 0.12778212 -0.28266263
0002a0 e6 36 7f be 88 b2 2b be 1e 86 1a 3e 48 86 69 3e
       -0.24923286 -0.16767323 0.15090224 0.2280513
0002b0 fe 85 a7 3d fa ad 87 be 6c 61 13 3e 90 8f 05 3d
       0.08179854 -0.2649992 0.14392632 0.032607615
0002c0 c4 8d 8b be aa 7a aa be a4 bd b6 be 70 43 12 3e
       -0.27256596 -0.3329671 -0.3569156 0.14283538
0002d0 61 cb 79 be 4f 0d 42 3d d9 8c 9d be be e1 1a be
       -0.24393989 0.047375973 -0.3077152 -0.15125176
0002e0 24 09 8b 3e 6b 42 c5 be 37 09 41 3e cb 92 8f 3d
       0.2715541 -0.38527235 0.18851171 0.070104204
0002f0 33 c4 55 be 56 3e c8 be b2 fa 30 3e bf ec 33 3d
       -0.20875625 -0.3911006 0.17283133 0.04392695
000300 fa 9c 8d be 6b af 3b be e5 12 9a bc 58 9d 0b be
       -0.27658826 -0.18328635 -0.018807838 -0.1363424
000310 3a 99 84 3d 05 61 91 be 7b 4f 98 be e4 e8 b8 be
       0.06474538 -0.28394333 -0.2974814 -0.3611518
000320 92 8e a3 be 56 94 99 3c 86 2c 9a be 78 45 57 3e
       -0.3194471 0.01874749 -0.30112094 0.21022594
000330 ae 7b 80 3e 3e 01 a9 bd a0 98 8c be f4 67 e6 3d
       0.2509436 -0.0825219 -0.27460194 0.11250296
000340 01 ff fc bd 23 d2 1d bd 67 d6 9a 3d 9b 13 c5 be
       -0.12353326 -0.03853048 0.07560425 -0.3849152
000350 ad c3 91 be ab 0c 7e ba 97 8a 21 3d c0 00 01 bf
       -0.284696 -0.0009691219 0.03943881 -0.5039177
000360 01 4a a1 be 30 fc f7 3c 8a c6 72 bd 33 bf 97 be
       -0.31501773 0.03027162 -0.059271373 -0.2963806
000370 2f d0 f9 bd 7e 7d d3 be bb f3 18 3e e3 74 4b be
       -0.12197911 -0.4130668 0.14936726 -0.19868807
000380 45 07 bb 3d 79 e5 21 3c 70 4c 7c bd 8c d3 da 3c
       0.09132246 0.009881371 -0.061596334 0.026712202
000390 49 66 0f be 30 3a 11 3d 3e 92 90 3d f5 7b 9c 3e
       -0.14003862 0.035455883 0.070591435 0.30563322
0003a0 d6 14 41 3e 63 06 f6 be 14 1b ad be 1c 7f 4b be
       0.18855605 -0.48051748 -0.3380972 -0.19872707
0003b0 9b e0 d6 3d de 2d 11 3e 47 34 e5 bd 64 e4 67 3e
       0.10492059 0.14177653 -0.11191612 0.22645718
0003c0 17 0e 28 3e 49 10 ad be 67 c7 5b be 86 29 6b 3d
       0.16411625 -0.33801487 -0.21462785 0.057412647
0003d0 79 ff 19 bd 21 b9 0c 3e 63 60 91 be fb e1 55 be
       -0.037597153 0.13742496 -0.2839385 -0.20886986
0003e0 0f c5 4a 3d f3 ba 1b be 20 9e dd 3c 19 3d 8c 3d
       0.049504336 -0.15208034 0.027052939 0.06847591
0003f0 09 c5 a6 be b1 c1 a1 bd 2e 76 0f 3d ac d9 54 be
       -0.325722 -0.07898272 0.035024814 -0.2078616

fc12.weight f4 [300, 1]
000000 2d 71 16 bf a0 13 77 be 88 32 64 bf d0 0f 22 3e
       -0.5876644 -0.2412858 -0.89139605 0.15826344
000010 9c 6c 6c bf 8f e2 5a bf bc 29 5e bf e6 34 4a 3d
       -0.92353225 -0.8550195 -0.8678243 0.049366854
000020 c6 66 11 bf d3 28 21 3e f4 fd a3 3e fd 74 34 3f
       -0.56797445 0.1573823 0.32029688 0.7049101
000030 90 c9 04 3e c6 39 01 3f 0d c5 1f bf 6b fd bd be
       0.12967515 0.5047878 -0.6241005 -0.37107405
000040 f0 cb f3 bd bc ba 42 3f 9e ad 22 bd 14 88 f8 3e
       -0.11904132 0.76066184 -0.039716356 0.4854132
000050 36 79 ca bd 0d 20 42 be 80 26 11 be 38 92 7c be
       -0.098864004 -0.18957539 -0.14174843 -0.24665153
000060 23 89 92 be 38 58 2a bf 3e b0 71 bf 14 ed 2d bf
       -0.28620252 -0.6654086 -0.9440955 -0.6793988
000070 13 70 45 bf 6a 7d 3a bf 62 7d 94 3e 86 b2 de 3e
       -0.77124137 -0.72847617 0.2900191 0.43495578
000080 98 36 b9 be 59 a2 d4 bd 97 2d 0f be 05 d8 9a 3e
       -0.36174464 -0.10382528 -0.13982235 0.30242935
000090 eb 37 66 3f af c3 07 3d f1 b8 06 3d ec 33 65 bf
       0.89929074 0.033145603 0.032891218 -0.8953235
0000a0 40 49 f6 3e cb 1d 9b bf 80 f7 07 be bb ea f3 3e
       0.4810276 -1.2118467 -0.13278008 0.47640023
0000b0 38 6d 02 bf 20 12 48 be 0d 15 d3 3e 7e e1 85 bf
       -0.50947905 -0.19538164 0.41226998 -1.045944
0000c0 51 f5 08 3f aa 20 84 3e 92 bc ee 3e 53 3d 05 3f
       0.53499323 0.2580617 0.46628243 0.520467
0000d0 cd 62 68 bf 41 5a 1c 3e 20 8e b0 bd af 6a 2a bf
       -0.9077576 0.15268804 -0.08620858 -0.66569036
0000e0 fb ba 95 3e 4e 26 65 3e f1 9f f2 3e 41 f2 98 3e
       0.29244217 0.22377893 0.4738765 0.29872325
0000f0 56 bc 62 bf 12 ee df 3d 2a 61 61 3f 9e 97 4e bf
       -0.8856863 0.1093408 0.88038886 -0.807001
000100 00 17 a2 3d 76 25 e6 3c cd 0a 0c 3f c8 97 ec be
       0.07914543 0.028094035 0.5470398 -0.4620955
000110 60 88 00 3e e2 0e 15 bf 96 1a be bf c6 47 f8 be
       0.12552023 -0.58225834 -1.4851863 -0.4849226
000120 40 1d fe 3e 9d ef 19 bf 40 ad 7f 3e 1b 84 58 bf
       0.4963169 -0.60131246 0.24968433 -0.84576577
000130 a9 72 48 bf e5 7f 16 bf b2 80 56 bf be 31 05 be
       -0.7829996 -0.587889 -0.83790123 -0.13007256
000140 83 15 07 bc fd 73 16 bf a1 95 92 be 35 1b b1 3e
       -0.008244875 -0.58770734 -0.28629783 0.3459107
000150 d8 f8 e5 3e 9a b2 14 bf 98 c2 32 bf 5f ec f6 3e
       0.44916415 -0.58085024 -0.69828176 0.48227212
000160 42 00 6a bf 14 f6 14 bf ce fe e1 3d ec 1b d9 3e
       -0.91406643 -0.58187985 0.11034928 0.42404115
000170 0e 65 31 3f 02 d1 d0 3e ad f7 2b bf 1d de 8c 3f
       0.6929482 0.4078446 -0.671748 1.1005284
000180 e1 0d 47 3f 0b 59 69 bf 71 0c 53 3f c0 78 4d 3f
       0.7775555 -0.91151494 0.8244086 0.80262375
000190 c0 11 dc 3d 5d 44 45 bf 52 9b ea be 83 61 6d 3f
       0.10745573 -0.7705744 -0.45821625 0.92726916
0001a0 02 1e 83 bf 20 a6 d8 3e 80 97 e5 be 0b d8 31 be
       -1.0243533 0.42314243 -0.44842148 -0.1736757
0001b0 e8 db 1b 3f c0 61 3b be e7 d8 14 bf 60 4e 35 bf
       0.60882425 -0.18299007 -0.58143467 -0.70822716
0001c0 6c ba 1f bc 9e b8 da be 35 c4 c6 3e 20 31 0b 3f
       -0.009749036 -0.42718977 0.3882157 0.54371834
0001d0 f8 29 a7 bf 0f 1f 3e 3f 33 f9 f5 3e ea 7a ef be
       -1.3059683 0.7426614 0.48041686 -0.46773463
0001e0 56 b2 b8 3d ce e2 1a 3e 96 3d 59 bf 30 31 c5 3d
       0.0901839 0.15125582 -0.848596 0.096285224
0001f0 23 a6 1e 3f 3f eb 0a 3f b8 8b 43 3f ac bb 74 bf
       0.61972255 0.5426521 0.7638507 -0.95598865
000200 90 af 13 3f 91 8b d7 be 89 49 2c 3f ae 1c e1 bd
       0.5768976 -0.42098668 0.67299706 -0.10991798
000210 d8 b9 2e be 54 02 89 3e 39 61 69 bf 42 21 83 bf
       -0.17063081 0.2675959 -0.91163975 -1.0244524
000220 34 71 65 bf 4a 9f 3a bf 97 b7 fd be 0c 58 e1 3e
       -0.8962586 -0.72899306 -0.4955413 0.44012487
000230 6f 46 0d 3e 81 b3 e5 bd 06 68 6b 3e 31 7f 03 bf
       0.137964 -0.11215878 0.229889 -0.51365954
000240 e7 b8 93 3e 0d f4 23 3f 83 e0 54 3e 11 d5 ee 3d
       0.28852007 0.64044267 0.2078877 0.11661733
000250 9f 3e 33 3f cc 0f 38 3f 29 79 9f bf 48 3e a6 be
       0.7001743 0.71899104 -1.245885 -0.32469392
000260 72 2b 0a 3f c7 11 14 bf b0 42 ef 3d 01 32 9b bf
       0.5397254 -0.57839626 0.116826415 -1.2124635
000270 16 08 6f 3e 13 45 3f be e4 d0 10 bf c8 c5 38 be
       0.23342928 -0.18678693 -0.5656874 -0.18044198
000280 1e 8d 2c bf 54 94 06 bd c4 20 8c bf 4a 3c 14 3f
       -0.6740283 -0.0328563 -1.0947499 0.57904494
000290 dd 8e 11 bf 7f 20 01 3f 0a 70 75 bf 42 9b 8f 3c
       -0.5685862 0.5044021 -0.95874083 0.017530087
0002a0 86 a5 0e 3f 40 e9 4b 3e 5d ed 33 3f 15 4d 1a 3d
       0.5572132 0.19913197 0.7028406 0.037671167
0002b0 31 22 01 3f aa 19 26 bf 58 e1 44 bf a5 a5 5f 3d
       0.50442797 -0.6488291 -0.7690635 0.05460133
0002c0 00 80 81 3e 83 5f 63 be 37 ea 32 3f ca 2b a1 3e
       0.2529297 -0.22204404 0.69888633 0.3147872
0002d0 f0 0a 7a 3e 2d 0e c9 be a4 45 33 3f a0 e1 6b bd
       0.24418235 -0.39268628 0.7002814 -0.05758822
0002e0 85 04 97 bc a2 84 40 bd 56 6b f8 bc 67 b4 44 3e
       -0.018434772 -0.04700149 -0.03032462 0.19209443
0002f0 16 9f 4c be 2f 1a 83 bf 58 6f 10 3f e0 70 11 bd
       -0.19982561 -1.0242366 0.564199 -0.035508037
000300 48 f3 1f be 31 b2 35 bf 8e 92 e8 3e 50 cf 1a 3e
       -0.15620148 -0.70975024 0.45424312 0.15118146
000310 8b c8 a5 3e 0c 80 b1 bb d9 56 a1 3d fd ea 1a bf
       0.32379565 -0.0054168757 0.07877893 -0.60514814
000320 56 64 ac bc 96 27 60 bf 68 71 69 bf 50 1a d4 3d
       -0.021043938 -0.87560403 -0.9118867 0.10356581
000330 33 4e 44 3f 74 19 bf 3d ab d0 9f 3d 61 85 50 bf
       0.7668182 0.09331027 0.07803472 -0.8145352
000340 7f 2b b2 be 9b e2 bb 3e 36 3d 24 3f 2c a9 d5 3e
       -0.3479881 0.36696324 0.641559 0.4173063
000350 2c 53 ac be 46 a2 63 bf 4d 16 f2 be b7 e9 0a 3f
       -0.33657205 -0.88919485 -0.4728264 0.5426287
000360 be f6 17 3f 94 45 67 bf a1 6a 1a 3f d4 4b 5a bf
       0.59360874 -0.9034054 0.6031895 -0.85271955
000370 1c 1c 14 bf f7 af 0d 3f bc c7 76 bf 98 5b c5 be
       -0.5785539 0.55346626 -0.9639852 -0.38546443
000380 7a 35 28 bf a7 60 c9 be 60 97 11 bc b1 41 d5 3e
       -0.657066 -0.39331552 -0.008886188 0.4165168
000390 77 fe d8 3e f8 46 3e bf 4d cd 24 bd f8 38 4b bd
       0.4238164 -0.7432704 -0.040234853 -0.049614877
0003a0 08 42 2b bf 09 ec 1a 3f c5 33 e8 3e e5 15 2a be
       -0.6689763 0.6051641 0.45351997 -0.16609915
0003b0 2e 84 5e bf bd 57 90 bd 8f 99 06 be 34 4d bf be
       -0.8692044 -0.07047985 -0.13144515 -0.3736359
0003c0 30 ad f8 3e b2 90 b6 bf 36 79 c5 be 19 92 14 3f
       0.48569632 -1.4262908 -0.3856904 0.5803543
0003d0 3e d7 c3 3e 14 3e d4 3e 00 77 82 3b e1 aa f5 3e
       0.38250154 0.41453612 0.003981471 0.47981933
0003e0 00 81 3c be 48 35 06 3f 84 dd b2 bf f9 02 88 be
       -0.18408585 0.5242505 -1.3973851 -0.26564768
0003f0 69 8c 3c 3e 90 9d 9a 3e c0 49 da be 16 e8 57 3f
       0.18412937 0.30198336 -0.42634392 0.8433851

fc12.bias f4 [300]
000000 1a a6 d3 3e 02 3b 7c bf 5a 50 38 be 1e 5a 5a bf
       0.41337663 -0.9852754 -0.17999402 -0.8529376
000010 96 77 45 3f ea d5 d5 be 84 79 74 bf 2e 6d 01 bf
       0.771356 -0.41764766 -0.9549792 -0.5055722
000020 d4 c9 5d bf cd 9d 72 bf 00 75 5e bf 44 61 69 bf
       -0.8663609 -0.94772035 -0.8689728 -0.9116404
000030 84 ed 4c bf 16 89 13 3e 9e 95 ae 3e cd 22 06 3c
       -0.8004992 0.14407763 0.34098524 0.008187008
000040 b2 70 6f bf 47 44 4c bf 44 18 20 3f 22 ef 2e bf
       -0.93531334 -0.7979168 0.62537026 -0.6833364
000050 16 02 1b 3f d9 a0 6a 3e fc 8f 6f bf c6 04 03 bf
       0.6055006 0.22912921 -0.9357908 -0.5117916
000060 7c 5e 11 3f ec e2 ec be 6d fd 74 3f 51 ba 4d 3f
       0.56784797 -0.46266878 0.956992 0.8036242
000070 03 48 a5 be 38 f2 74 bf 70 95 96 3d e0 40 a5 3e
       -0.32281503 -0.95682096 0.07352722 0.32276058
000080 5c e1 47 bf 44 48 03 3e cf 18 51 bf e0 4d 63 bf
       -0.78078246 0.12820536 -0.8167848 -0.887907
000090 32 a3 12 bf f3 a8 01 3e 02 97 59 3e 11 b9 00 3f
       -0.57280266 0.12662105 0.21249011 0.5028239
0000a0 5b 2b d9 3e 9c bb f7 be 8c a1 70 bf 8c da 23 3d
       0.4241589 -0.48385322 -0.939965 0.040003344
0000b0 cd 77 38 be ca 67 24 3f 61 8d e9 3e ae 5d b5 bd
       -0.1801445 0.6422087 0.45615676 -0.088557586
0000c0 d5 52 14 3e e2 4f d0 3e 8a 35 2d bf 87 83 e8 bd
       0.14484723 0.40685946 -0.6765982 -0.11353212
0000d0 5d d4 01 3f 74 31 22 3e 15 1c 2d bf a5 26 05 bf
       0.50714666 0.15839177 -0.67620975 -0.5201209
0000e0 93 32 a2 be 10 74 ef 3e 9f 36 59 bd fc 38 42 bf
       -0.3167921 0.46768236 -0.053030606 -0.758682
0000f0 04 c9 18 bf 99 cf f5 bd ce 85 f4 be 5e 89 4f bf
       -0.59681726 -0.12002487 -0.47758335 -0.8106898
000100 cd 1f 9d 3e fc 9b cc bd 56 9c 79 bf 70 92 7b bf
       0.30688325 -0.09990689 -0.97504175 -0.9827032
000110 56 d8 72 bf 66 b5 25 3f df 14 3a 3e 7b 82 12 bf
       -0.9486135 0.6472992 0.18172024 -0.5723035
000120 d5 ba 37 be b6 6a 0a 3f 18 89 02 3d ba 67 fd 3d
       -0.17942365 0.5406908 0.031869024 0.123733
000130 86 9c 19 3f 00 ac 36 3e d0 75 4b bf 0f df 2a 3f
       0.6000446 0.1783905 -0.7947664 0.6674661
000140 b8 7b 98 3e d5 ba e9 3e 7c 19 42 be 71 c3 0b 3f
       0.2978189 0.45650354 -0.18955034 0.54595095
000150 08 39 ae be 10 b1 aa be 8c 53 ca be 1b 78 ff be
       -0.34027886 -0.33338213 -0.39516866 -0.4989632
000160 d9 f1 ce 3e bf 62 97 3e 7f eb 60 3f ce 54 2a bf
       0.4041889 0.29567525 0.8785934 -0.6653565
000170 9d 39 9d be ca 29 1d 3f 24 05 b9 be 75 ca 4c be
       -0.30708018 0.6139189 -0.36136734 -0.19999106
000180 9a 58 35 bf db ed b8 bd 44 fc cd be 63 af 27 be
       -0.7083832 -0.09029742 -0.40231526 -0.16375498
000190 7b 21 1e bd 4f c6 c5 3c d6 8f 4b 3f 09 3b 6d be
       -0.03860615 0.024142412 0.7951635 -0.23167051
0001a0 3c 6a 04 3f 82 b6 85 bd 7c d0 31 bf d4 fb d9 bd
       0.517246 -0.06528951 -0.69458747 -0.106437355
0001b0 c4 da 34 3d 34 ad ce 3e ae 3d 35 3f 67 9f e2 3e
       0.044153944 0.40366518 0.7079724 0.4426224
0001c0 58 2c 60 bd a6 a7 fe 3e 96 f3 c7 3e e4 a8 df be
       -0.05472979 0.4973728 0.3905303 -0.4368354
0001d0 73 c6 26 bf ad 15 17 bd b0 98 a7 3e 7d 8e 5c 3f
       -0.6514656 -0.036885906 0.3273368 0.8615492
0001e0 8c b9 bf 3c 1b 00 49 bf 80 71 ae bc ec 62 f3 be
       0.023403905 -0.78515786 -0.021294355 -0.4753641
0001f0 64 3c c3 3c e6 f1 44 bf 9d b8 49 3d 5c b3 9c be
       0.023832507 -0.7693161 0.049248327 -0.3060559
000200 78 69 32 bf 16 b3 ee 3e ac 2e 44 bf 1e d2 40 3f
       -0.6969218 0.46621007 -0.76633716 0.75320613
000210 46 b6 07 bf c7 b7 b9 bd 09 70 d6 3e a7 c4 94 3e
       -0.530125 -0.09068256 0.4188235 0.29056284
000220 28 76 35 bf 94 6f 74 bf 13 f9 44 3f cc f7 e1 3e
       -0.7088342 -0.95482755 0.7694256 0.44134367
000230 db 7b 61 3e cc 56 45 3f 90 af fe bc 49 04 e4 be
       0.22019903 0.77085567 -0.031089574 -0.4453452
000240 d9 b5 6d bd 25 f2 0c bf 94 e3 8f 3e 08 f1 ac be
       -0.05803475 -0.55056983 0.28103316 -0.33777642
000250 93 5f 33 bf 7e d9 b2 be 5f 17 85 be 4a 07 3e bf
       -0.7006771 -0.34931558 -0.25994393 -0.7422987
000260 82 4d e7 3e eb b9 e0 be 62 31 49 bf 0f 9b 86 3e
       0.4517632 -0.43891844 -0.7859098 0.26290175
000270 7c 7f fd 3e be 02 24 bb 1c 5b 53 bf 1c 0d 4e bf
       0.49511325 -0.0025026049 -0.82560897 -0.80488753
000280 ac 77 42 bf ff 1b 57 3d fa 09 e8 3e d4 df 84 be
       -0.75963855 0.052516934 0.45320112 -0.25952017
000290 c0 98 4f 3e 82 19 1b 3f e0 38 27 bf 7c 40 82 be
       0.20273113 0.60585797 -0.6532116 -0.25439823
0002a0 80 af 58 bf 1d 8b 21 3f 45 22 da be 19 62 b0 bc
       -0.8464279 0.63102895 -0.4260427 -0.021531152
0002b0 d5 99 4f bf 53 2d 65 3f 64 24 03 3e 0c bd ae 3e
       -0.81094104 0.89522284 0.1280685 0.34128606
0002c0 46 9d 69 bf ae 86 1f 3f 9d 62 a8 be dc 63 87 bf
       -0.91255605 0.6231488 -0.32887736 -1.057735
0002d0 b2 14 60 bf 43 5d c5 3e 4e a9 96 be 04 06 32 bf
       -0.8753158 0.38547716 -0.29426044 -0.6954043
0002e0 f3 d1 18 3e 31 35 07 3f 02 4f ac be 01 67 6d 3f
       0.1492384 0.5281554 -0.33654028 0.92735296
0002f0 19 23 e4 3d 95 e6 33 3f d9 29 18 bf 92 83 44 bf
       0.11139507 0.70273715 -0.59438854 -0.7676326
000300 4c 0b 35 bf 36 f3 eb 3d 92 85 08 bf 07 11 c7 3e
       -0.7072036 0.11520998 -0.5332881 0.38880178
000310 40 de ee 3d b2 d2 f9 3e 60 c9 ed 3e 08 f2 27 3f
       0.116634846 0.4879356 0.464427 0.65603685
000320 60 6a 96 3e 83 af 33 bf d9 71 cc 3e 58 ab 09 bf
       0.29378033 -0.70189685 0.3993061 -0.53777075
000330 04 c0 7e bf 73 a9 e7 bd e6 15 35 3e 72 6a 48 bf
       -0.9951174 -0.11311617 0.17684135 -0.7828742
000340 85 6b 00 3f 9d b7 76 bf cb c3 3a bf c7 33 09 3f
       0.5016406 -0.9637392 -0.72955006 0.5359463
000350 60 cd a5 bd ba 26 32 bf 11 67 58 3f 27 a7 66 be
       -0.08095813 -0.6959034 0.84532267 -0.22524701
000360 a7 48 0d bf 8e 00 a0 be 83 9a 1b bf 92 bd 08 bf
       -0.55188984 -0.31250423 -0.6078264 -0.5341426
000370 38 da 1d bf cc 2c 12 bf b4 f0 92 3e be d4 42 bf
       -0.616611 -0.57099605 0.28699267 -0.7610587
000380 69 d5 2d 3f 44 62 cb be 7b 8e a6 3e 41 ac 44 3f
       0.67903763 -0.39723408 0.3253058 0.7682534
000390 3a bc 3c be a8 91 5d bf fd f0 ad be 8f 68 84 be
       -0.18431178 -0.8655038 -0.33972922 -0.25861022
0003a0 3c 3d 39 3f cd 42 4a be 27 92 2d 3d c8 1c 92 b9
       0.7235906 -0.19752045 0.04237571 -0.00027868734
0003b0 d0 f0 39 3f 88 47 8f 3e f1 27 72 3e 4f 7b 43 bf
       0.72633076 0.27984262 0.23648049 -0.7636003
0003c0 60 8d 41 be 3a be 6d be 7e ec 33 3f e9 e6 62 bf
       -0.18901587 -0.23217097 0.70282733 -0.8863359
0003d0 5e 41 81 be 52 38 5d be a0 f1 1e be cc 32 4a bf
       -0.25245184 -0.21603516 -0.1552186 -0.7898376
0003e0 a2 04 57 bd ea aa 2f 3f 54 ae c4 bd 9e 65 bd 3e
       -0.052494653 0.6862017 -0.09603563 0.3699159
0003f0 fa fe b8 bd a0 da 6a bf 74 6c 49 bf db f9 76 bf
       -0.09033008 -0.91739845 -0.7868111 -0.96475

fc2.weight f4 [300, 300]
000000 c8 61 9c bc 2f be 3c 3d 73 0a 89 bd b1 95 ef bc
       -0.019089594 0.04607981 -0.06691446 -0.029246183
000010 13 23 9f 3c 10 d8 4d bd 79 30 78 bb df 97 1b bd
       0.019425904 -0.05025488 -0.0037870689 -0.037986632
000020 a0 da 4e bc 55 c8 41 3c 08 73 21 3d a8 3a 5c 3d
       -0.012625366 0.011827548 0.039416343 0.053766876
000030 6f db 4d 3d b8 a2 6f bd 9d 41 38 bd 5d 3b e1 3c
       0.050258096 -0.05850479 -0.04498445 0.027494127
000040 c2 fb 2f 3d 20 18 45 bd 2f a0 c3 bc c6 b8 5b bd
       0.042964704 -0.04811871 -0.023880092 -0.05364301
000050 e8 34 b4 bc 09 79 59 bd 6f 07 2e 3c 53 42 3b 3d
       -0.021997884 -0.053093944 0.0106218895 0.04571755
000060 64 8f 1a 3d b3 06 5b 3c f2 52 93 bc 24 cd 80 39
       0.037734404 0.013368296 -0.017983887 0.00024566904
000070 87 c0 d8 3c 5d a3 10 3d 08 a6 d1 3c db 5c 17 3d
       0.026458992 0.035312045 0.025591865 0.03695379
000080 44 9b 53 bd fe fb 5f bd 15 98 ed b9 e6 a9 d7 3c
       -0.051661745 -0.054683678 -0.00045317473 0.026326131
000090 55 5e 40 3b de cf 1e bc d6 1c 55 bd 48 54 b2 bb
       0.0029353101 -0.009693114 -0.052029453 -0.005442176
0000a0 46 4d 86 bc b1 c7 b9 bb f6 2d a8 3c 8c 0b 92 bd
       -0.016394269 -0.005669557 0.020529728 -0.07131109
0000b0 04 0c 5c bd 98 d4 68 bd f9 64 cc bc 95 da 10 bd
       -0.053722396 -0.05684337 -0.024950491 -0.035364706
0000c0 9e 2e 15 3d 85 ea 81 bd 5a 19 66 bd be 99 fb bc
       0.03642141 -0.06343559 -0.05617652 -0.030712958
0000d0 7b 5e d0 3c ee f9 ef 3c f4 5d 31 bc ff c0 95 bc
       0.025435677 0.02929398 -0.010825623 -0.018280504
0000e0 c6 3a 52 bc a2 83 07 3d 3b fb 5e ba 96 25 8b bc
       -0.0128313955 0.03308452 -0.0008506064 -0.016985696
0000f0 a5 ad 39 3d 7f 01 85 3b 3d 21 2b 3d b6 8d 2f bd
       0.045331616 0.0040590162 0.041779745 -0.042859755
000100 bd 5f 50 bd 91 90 5a bd e8 ca 88 bc 04 da b5 bc
       -0.050872553 -0.053360526 -0.016698316 -0.022198685
000110 eb e6 e3 3c 9d 67 81 bd ba 6f 3d 3c 97 93 7d 3c
       0.027820071 -0.06318591 0.011562282 0.015477083
000120 2a 7b aa bd 44 1a f9 bb 77 ac 2d bc c1 bf 2d bc
       -0.08324273 -0.007602008 -0.010600201 -0.0106048
000130 8f 43 92 bd c5 39 df bb 6b 2c 94 3c f4 3a 29 bc
       -0.07141792 -0.0068123066 0.018087586 -0.010328997
000140 21 71 16 3b 9a 20 12 3d 62 a5 c5 bc aa 04 2e 3c
       0.0022955614 0.035675623 -0.024126712 0.010621229
000150 d6 da 2d bc d9 bd 67 bd f0 4e dc bc f2 b1 3e 3d
       -0.010611257 -0.056577537 -0.02689311 0.04655642
000160 86 8f 0a 3d 4e 1b a8 bc 3e ca 77 bd 72 4b cc bb
       0.03382828 -0.020520832 -0.060495608 -0.0062345797
000170 41 45 d1 3b 8f d4 5a bd f1 75 6f bb c2 fa a6 3b
       0.0063864295 -0.053425368 -0.0036538804 0.0050958106
000180 b8 00 8d 3c ee 39 b6 bc 24 c7 77 3c 7c 45 3e bd
       0.017212257 -0.02224442 0.015123162 -0.046452984
000190 cd ed 22 bd 42 ad 1a 3c 3b 3b 69 3c f6 64 c4 bc
       -0.039777566 0.009440722 0.014235313 -0.023973923
0001a0 d5 24 1b 3c 7d 97 02 3d 3b 0f 62 bd b3 f1 4f 3d
       0.009469231 0.03188275 -0.055190306 0.05076761
0001b0 7d 74 b9 3c 7e 08 de bc 32 24 8a bd 7a 9b 5f 3c
       0.022638554 -0.027103659 -0.06745185 0.013647908
0001c0 99 36 1b 3d c1 72 87 3b d6 9e 16 3d 74 51 1e 3d
       0.037893865 0.004133553 0.03677257 0.0386519
0001d0 1e 71 9f bc cd 0f 07 3d d3 c9 15 bc f9 18 c9 bb
       -0.019463118 0.032974053 -0.009142357 -0.00613701
0001e0 5f 62 0b 3d 05 28 33 bd 9e 85 8a 3c c9 6e 0e 3d
       0.03402936 -0.043739337 0.016909417 0.03477362
0001f0 b3 74 c4 3c c2 72 a3 bd 3d 2b 5f bd 75 3d 34 3c
       0.023981428 -0.07980873 -0.054484595 0.011000981
000200 c3 c3 25 bd 22 31 40 bc 65 5d e2 3b 00 40 95 39
       -0.040469896 -0.011730464 0.006908106 0.00028467178
000210 45 a8 d1 bc ae e9 2e bd 70 f8 22 3d 52 b0 81 bc
       -0.025592932 -0.042703323 0.03978771 -0.015831146
000220 64 63 59 3d 44 d7 e0 bc 84 ff 27 3d be 47 f7 bc
       0.053073302 -0.027446397 0.041015163 -0.030185577
000230 5a 72 8a bc 27 ba b6 bc a9 e5 0c 3c fc 9c 0f 3d
       -0.01690023 -0.022305561 0.008599677 0.03506182
000240 b9 05 68 bd 17 2e 8f 3c dc dc d4 bc 6b d7 18 3d
       -0.056646083 0.017478032 -0.02598422 0.037314814
000250 42 e1 07 bd 60 6c 8b bd 08 d7 a1 bc e5 c0 8b bc
       -0.033173807 -0.0680778 -0.019755855 -0.017059753
000260 ad 8c 7b bc ad 38 24 3d e1 0d ca 3c 54 92 87 ba
       -0.015353364 0.040093113 0.024664821 -0.0010343292
000270 c2 3d 4a 3c 00 60 7e bc b1 ea 14 bd 3e aa a6 bc
       0.012343826 -0.015525818 -0.03635663 -0.02034485
000280 89 42 67 3b 27 b8 8a bc 99 a0 b3 bc 03 dd 6a bd
       0.003528746 -0.016933514 -0.021927165 -0.05733968
000290 46 c9 a2 bc 40 1b 1f 3d f8 bf 02 3d c2 96 c4 3b
       -0.019871365 0.038844347 0.031921357 0.005999417
0002a0 89 ce 5f 3c 94 60 43 3c 9a d2 8c bc db 2c 54 3c
       0.013660082 0.0119248815 -0.017190266 0.0129501475
0002b0 61 7d 16 bd bf 61 6d bd ca 5d 3c 3d f4 b5 1c bd
       -0.036740664 -0.057954546 0.04598788 -0.03825946
0002c0 88 ec d9 3c ae a6 00 bd 81 10 72 3b 3f 15 61 bd
       0.026602045 -0.031408958 0.0036936107 -0.054951902
0002d0 46 57 51 3d 14 c0 02 3d dd 49 ac 3a bc 9b 68 3c
       0.05110862 0.03192146 0.0013144572 0.014197286
0002e0 3d 99 8f ba f2 83 9f bd df eb ed bc cb 1f 2f bc
       -0.0010955703 -0.077888384 -0.029043136 -0.010688732
0002f0 ca f1 08 3d b1 e0 9a 3c c2 1f 50 bc 92 91 46 bd
       0.033433713 0.01890597 -0.012702884 -0.04847867
000300 52 20 21 3d b5 cc af bb 23 fe e0 bc 45 64 50 3c
       0.039337464 -0.005364979 -0.027464932 0.012719219
000310 77 3d 17 bd 95 cf c6 bc 87 2c 9e bd d5 68 13 3d
       -0.03692385 -0.024268905 -0.07723337 0.035988647
000320 a3 56 2c bd 19 5d 3d bd b9 a2 95 bc 14 ce 2e bd
       -0.04207481 -0.046231363 -0.018266069 -0.042677
000330 3a 6b 1e bd 6f b3 a3 bd 55 ab 01 bd d8 44 8f 3c
       -0.038676478 -0.079932086 -0.031657536 0.017488882
000340 3b 51 83 bc a5 24 ff bc 24 f0 05 b9 09 33 18 3c
       -0.016029945 -0.031145403 -0.00012773328 0.0092895115
000350 b1 26 01 3d 41 b9 4d 3c f2 73 5b bc f7 85 23 bd
       0.03153104 0.012556375 -0.013394343 -0.03992268
000360 67 71 18 bd 9d dd 97 bc fd b4 28 bd 79 5f 38 3d
       -0.037217524 -0.01853829 -0.04118823 0.045012925
000370 a8 a7 93 bc 73 3e a7 b8 a8 e0 4d bd 50 d8 fb bc
       -0.01802428 -7.9748126e-05 -0.050263077 -0.030742794
000380 39 1d 3f bc 2e 63 a3 3a 16 81 64 3d fa 49 08 bd
       -0.011664682 0.0012465471 0.05578717 -0.033273675
000390 d4 df 9a bd 75 1a 29 bd 7d 0c 37 bd 54 42 fd 3c
       -0.07562223 -0.041284997 -0.044689644 0.030915417
0003a0 98 28 f6 bc a9 78 3f bd a9 93 13 3d d9 f8 10 3d
       -0.030048653 -0.04674593 0.03602949 0.03539357
0003b0 57 90 3b bd cb 11 6c 3c 4d 72 32 bd 82 91 5b bd
       -0.04579195 0.014408539 -0.043566037 -0.053605564
0003c0 8d bf 06 3d 53 c4 2e 3d 0c 00 6d bd 68 11 ea 3c
       0.03289752 0.042667698 -0.057861373 0.028572753
0003d0 b7 c0 37 3b 75 75 ac bd d7 78 60 3d 47 54 1c 3c
       0.002803845 -0.08420841 0.05480274 0.009541578
0003e0 70 61 5b bd 53 60 8c bd ee d4 59 3d 1a 99 82 3c
       -0.05355972 -0.0685431 0.05318158 0.015942145
0003f0 95 2c af 3c 16 28 95 bc 9c 41 3b 3d 73 58 7a 3c
       0.021383563 -0.018207591 0.045716867 0.015279877

fc2.bias f4 [300]
000000 59 8d a5 ba 7a f9 9f bd 1d 9c fd 3c 6e 6c ae bd
       -0.0012630626 -0.07811256 0.03095823 -0.08516775
000010 66 36 ab 3b bd d9 35 bd de 25 11 bd 4e ee 54 bd
       0.0052249907 -0.044397105 -0.035436504 -0.051985078
000020 63 1c 87 bd ff c6 95 bd bd 18 6e bd 1a a9 14 be
       -0.06597211 -0.07313346 -0.05812906 -0.14517632
000030 e3 57 44 bd 26 92 85 bb 9c 05 70 bd 76 e0 d1 bb
       -0.047935378 -0.00407626 -0.0585991 -0.0064049317
000040 c7 75 c2 bd 91 d8 1b bd 73 68 3e bc b4 c1 57 bd
       -0.094951205 -0.03804833 -0.011621582 -0.052674964
000050 91 77 16 bd 85 93 86 bd 8a 81 5b bd c4 07 b3 bd
       -0.03673512 -0.06571106 -0.053590335 -0.087417156
000060 0a 05 5e bd 4d ac d4 39 3b e5 11 bd 73 f1 08 3c
       -0.054204024 0.00040564165 -0.035619 0.008358347
000070 40 96 60 bd 20 e6 0d be 66 4f 0b bc 5c 13 62 bd
       -0.05483079 -0.13857317 -0.008502817 -0.055194244
000080 55 e8 88 bd f9 c7 3d 3c 6a 62 86 bd 59 c9 c4 bc
       -0.06684939 0.011583322 -0.0656174 -0.024021791
000090 65 34 75 bd 00 00 8e bd e7 6f 04 bd 34 52 16 bc
       -0.05986442 -0.06933594 -0.03233328 -0.009174872
0000a0 69 fd dd bc 75 6a 1c bd 6d 3b b1 bd 6c 64 6f 3b
       -0.027098374 -0.038187463 -0.08653913 0.0036528362
0000b0 55 85 5b 3c f2 e1 48 bd 19 d8 99 bd cb 36 c0 bc
       0.013398488 -0.049043603 -0.075119205 -0.023463627
0000c0 d8 7b 2a bd c5 37 1a bd 70 33 b9 3b 3b db 98 bd
       -0.041622013 -0.037650842 0.005651884 -0.0746369
0000d0 19 90 88 3a 06 99 f6 bc 47 a4 85 bd 77 0f 24 3c
       0.0010418921 -0.030102264 -0.06525474 0.010013453
0000e0 88 28 5c bd 5d 40 06 be c7 c0 16 be 05 8a a9 bc
       -0.05374959 -0.1311049 -0.14721976 -0.020695696
0000f0 03 23 0c bd b4 62 18 bc 78 0b 44 3c 47 ae 07 bd
       -0.034213077 -0.009300876 0.011965625 -0.03312519
000100 31 48 bd bd f1 49 a5 bd 57 01 1e bd 0c a7 ba bd
       -0.09242285 -0.08070744 -0.038575497 -0.09113893
000110 8e 68 3a bd aa 71 e2 ba 52 48 6b bd a5 47 b1 bb
       -0.045509867 -0.0017276306 -0.057442017 -0.005410152
000120 72 f9 c7 bd 1e 4c 7f 3b e0 25 47 bd 50 46 ad bc
       -0.09764375 0.0038955281 -0.048620105 -0.021151692
000130 43 a1 a9 bd 3e 59 fe bc 58 3e e9 bc 5e fd 85 bc
       -0.08282711 -0.031048413 -0.02847211 -0.016356166
000140 a2 01 ab bd 0a 34 48 bd ce 83 24 3c 30 8d 78 3c
       -0.08349921 -0.048877753 0.01004119 0.0151703805
000150 3b 91 0e bd dd 5a 49 3a 0e 36 8c bd b8 40 ca 3c
       -0.03480647 0.0007681081 -0.068462476 0.024689063
000160 70 7e 88 bd b2 fe 4b bc ea 29 84 bc f9 54 32 3d
       -0.06664741 -0.012450861 -0.016133267 0.043538067
000170 e6 d9 d1 bc 32 ee 2f bd e1 ea 19 3d 83 99 43 bd
       -0.025616597 -0.04295177 0.037577514 -0.047753822
000180 ff 57 96 bc 87 b7 f2 bc 75 0d 91 3c e2 12 a1 bd
       -0.018352507 -0.029628528 0.017706612 -0.0786493
000190 3c b5 95 bd a9 13 b0 bb fd 70 4f bd 4a 62 a2 bc
       -0.07309958 -0.0053734374 -0.050644863 -0.019822259
0001a0 e4 fb bd bc 69 4f ef bb eb f1 53 bd 2a 1b 74 bd
       -0.0231914 -0.0073031676 -0.051744383 -0.05959622
0001b0 94 80 f8 bc 56 1f 9a bb df 03 40 3b c3 9d 18 bd
       -0.030334748 -0.0047034426 0.0029299182 -0.03725983
0001c0 29 44 03 3d 68 ba 11 3c 57 f7 d5 3b 78 35 2d 3c
       0.032047424 0.00889454 0.0065297293 0.01057183
0001d0 f0 52 ee bb da f2 c2 bc fd e4 9e bd 90 f0 81 bd
       -0.0072730705 -0.023797441 -0.0775852 -0.06344712
0001e0 ce 87 82 bd 4a 02 78 bd e5 af 67 3c ea ea 8c 3c
       -0.06373559 -0.060549058 0.014141058 0.01720186
0001f0 4b 75 70 bc c4 73 9e bd 60 94 ad bc 9f 3a ea 3d
       -0.014676402 -0.07736924 -0.021188915 0.11436962
000200 4a 2d b0 bd 48 de 22 bd 20 24 75 bd 43 a4 8e bd
       -0.08602388 -0.039762765 -0.059848905 -0.06964924
000210 8e dd a0 bc 46 f0 dd 3c 2c 75 8b bd 5b 90 ad bd
       -0.019636896 0.02709211 -0.06809458 -0.08474799
000220 f1 d7 10 bc 6f 70 f7 3c 3b 29 ae bc b4 99 c5 3c
       -0.008840547 0.03020498 -0.021259895 0.024121143
000230 3e 22 3c 3c 95 fd 74 bc 5d 72 6a 3c ea f8 25 bd
       0.011482773 -0.014953037 0.014309493 -0.040520586
000240 e9 22 9e bc 6f a1 98 bd 8b 46 cd bd be d5 9e bd
       -0.019303756 -0.07452666 -0.10023221 -0.07755612
000250 c1 54 08 bc 58 3e 05 bd 81 7c d5 bc ea 37 62 bd
       -0.008320988 -0.03253016 -0.026060345 -0.055229105
000260 e3 a6 88 bd b4 5a 5d bd a5 0b c4 bd 5c 1e 4c bd
       -0.06672456 -0.05404158 -0.095725335 -0.04983364
000270 71 2f 65 bd 94 fa 2e bd f5 04 4e bd 43 aa 55 bd
       -0.055953447 -0.04271944 -0.050297696 -0.052164327
000280 2e 3f 6a bd 57 52 ad bd 05 e1 30 bc 93 9b 2e bb
       -0.05718916 -0.08462971 -0.010795836 -0.0026643022
000290 89 5a b4 bd 63 a9 1f bd 3c 9e ed bd 63 70 88 3c
       -0.08806331 -0.0389799 -0.116024464 0.016655153
0002a0 94 55 9e 3c 22 92 a0 3c 39 3e 85 bc d5 4e fc bc
       0.019327916 0.019600932 -0.016265022 -0.030799309
0002b0 85 d3 92 bd cf 6b ea bb 16 b4 b7 3d 4f c7 54 bd
       -0.071692504 -0.007153965 0.089698955 -0.051947888
0002c0 7c 09 8b 3b 90 d0 6d bc 6e 22 de bc ce b5 29 bd
       0.004243074 -0.014515057 -0.027116027 -0.041433148
0002d0 0d 83 60 bd 32 c5 2a bd 21 d5 ca bc 9d fc 69 bc
       -0.05481248 -0.041691966 -0.02475983 -0.014281419
0002e0 d2 4a 8e bb cc 91 cc bc 29 32 90 bd 27 9d b4 bd
       -0.0043424154 -0.024971865 -0.07040817 -0.08819037
0002f0 7c 14 73 3c 11 aa 67 bd 70 7a ce bc 4d cc 2d bd
       0.014836427 -0.056558672 -0.025204867 -0.042431165
000300 00 84 b5 3b 6b 03 88 bd 30 98 9d bd 80 c0 90 bd
       0.0055394173 -0.06641277 -0.07695043 -0.070679665
000310 64 78 67 bd 6b ea 92 bd 6c 4f 28 bd a2 06 63 bd
       -0.056511298 -0.07173618 -0.041091368 -0.055426247
000320 ab 8b 84 bd 61 69 fb bd 4e 44 41 bd f8 2a f6 bc
       -0.06471952 -0.12275959 -0.04718428 -0.030049786
000330 6a 00 68 bd 34 8f 60 bd cc f2 7c bd b4 eb de bc
       -0.05664102 -0.05482407 -0.061754987 -0.027212001
000340 33 f9 b4 3b 27 1e 42 bd 24 aa 8a bd e2 4b ce bd
       0.005522871 -0.047392037 -0.06770733 -0.10073067
000350 7c c8 85 bd dd f4 b2 bd 55 cc 91 bd a6 fc 6f bb
       -0.0653238 -0.0873811 -0.07119051 -0.0036619096
000360 06 ec 5a bd 46 cf 86 bd 28 78 6d bd 46 3b 9c bd
       -0.053447746 -0.06582503 -0.057975918 -0.07628493
000370 46 b9 1a 3d 5d 5d 57 be f0 0b a8 bd 5e 8f 16 bd
       0.037774347 -0.21031709 -0.08205402 -0.03675782
000380 0a 7c 90 3b 70 e2 24 bd e4 06 db bd c6 40 9c bc
       0.004409318 -0.04025501 -0.10694674 -0.019073855
000390 86 a0 a8 bd 9f 3f b1 bd 73 d2 50 bd e8 a4 8c ba
       -0.082337424 -0.08654713 -0.05098195 -0.0010730298
0003a0 eb 7d 21 bd 6b 60 15 3d 52 14 50 bc 97 e0 63 bd
       -0.039426725 0.036468904 -0.012700157 -0.055634107
0003b0 39 d2 40 bd 67 9b 84 bd e0 61 a3 3d 37 14 a5 bd
       -0.047075484 -0.06474953 0.079776525 -0.08060496
0003c0 7d 9c 33 bd bf e2 9a 3d dc 96 0e bb a5 6b 65 bc
       -0.04385041 0.0756278 -0.00217574 -0.014002715
0003d0 0d 42 b6 bd 13 81 32 3d 96 6f 40 3e e6 76 15 bd
       -0.08899317 0.043580126 0.18792567 -0.036490344
0003e0 55 83 8a bc 72 82 88 3c c1 97 d0 b9 0e 89 b9 bd
       -0.016908327 0.016663764 -0.00039785917 -0.09059344
0003f0 e8 80 53 bc c7 44 69 bd 51 1f 7d bd 3d 2e 59 3e
       -0.012909152 -0.056950357 -0.061797444 0.21209045

fc3.weight f4 [1, 300]
000000 35 01 a2 bb e2 3b 37 3c 84 da 39 b9 24 ba a6 3b
       -0.0049439915 0.011183711 -0.00017724378 0.0050881077
000010 bc ef 4a 3c b3 71 18 3d e0 c0 b9 3c 74 26 8d bb
       0.012386259 0.037217807 0.022674978 -0.0043075625
000020 f0 89 dc bc d9 e1 ed bc 79 df ae be 94 81 a2 b9
       -0.026921242 -0.029038357 -0.3415487 -0.0003099559
000030 e4 67 64 bc 76 47 13 3f 58 bf 88 3c f4 70 84 3c
       -0.013940785 0.57530916 0.016692802 0.016167141
000040 8b 7f f9 bc 7f 11 c5 3a fc 88 54 bc 20 d7 b4 3c
       -0.030456325 0.0015035121 -0.012972113 0.022075236
000050 55 52 47 bb ec 2c 81 bb af 0e 6a b9 23 c5 c7 3c
       -0.0030414064 -0.0039421227 -0.00022321449 0.024385994
000060 6d 54 ca bc 29 3a 03 3c ce 43 a2 bd 14 c9 ba 3a
       -0.02469846 0.008009472 -0.07923089 0.00142506
000070 a9 85 d6 bc a6 2b 27 3b 8a 5d d1 bc 51 f7 ed bc
       -0.026186781 0.0025508194 -0.025557298 -0.029048594
000080 c4 05 b2 bc 25 62 7a 3b a9 cd b0 bb 66 e0 61 bc
       -0.021731265 0.0038205471 -0.0053956104 -0.013786411
000090 4e 33 ba bc f1 3b ca bb 31 ba 83 bb d0 88 ee bc
       -0.022729542 -0.0061716964 -0.0040199985 -0.029117972
0000a0 14 26 d6 3c f4 24 1c 3c 7b 2b b5 bc 16 23 1f ba
       0.026141204 0.009530295 -0.02211546 -0.0006070597
0000b0 a5 c1 b9 bb a1 2c 86 be db 6f 0a 3c f1 f2 d0 3c
       -0.005668836 -0.26205924 0.00844952 0.025506468
0000c0 ff 89 7c bb 22 3a f5 3c 80 e3 a9 bb 5f fc 14 3d
       -0.00385344 0.029934946 -0.005184591 0.036373492
0000d0 fb 67 8b ba c9 85 28 bb 10 4d 5c bc 5b 2b ff b9
       -0.0010635847 -0.0025714508 -0.0134461075 -0.00048669692
0000e0 02 83 d6 3c 87 f5 63 3c c1 72 1d 3c 49 96 d2 bc
       0.026185516 0.013913519 0.009609879 -0.025706427
0000f0 61 f3 e8 bc fc 07 72 3c 0e ff 18 3c ad dc 23 bc
       -0.028436365 0.014772411 0.0093381535 -0.010001344
000100 61 26 2d 3d 3b e0 79 ba a4 c4 ef 3a af b3 5a bc
       0.04227293 -0.0009532009 0.0018292856 -0.013348504
000110 67 ee bb 3c 70 4a f4 bb 95 5e 6e b9 db 70 68 bb
       0.022940828 -0.0074551627 -0.00022732683 -0.0035467658
000120 64 15 08 3d 26 22 e2 bc 75 68 0f bd b1 f8 f6 3c
       0.033223525 -0.027604174 -0.035011727 0.030147882
000130 d3 18 33 bc d7 df b0 3c 38 15 69 3c 82 9f 74 bb
       -0.0109312115 0.02159111 0.01422625 -0.003732652
000140 f8 ac 8b bc 07 b9 d7 3b b3 56 1f 3c 7f 4c 7e 3a
       -0.017050251 0.0065833363 0.009725261 0.000970073
000150 e2 38 e2 bc d5 e6 d6 bc 99 f5 43 bc 4d 53 d1 bc
       -0.027615014 -0.026233116 -0.0119604105 -0.025552416
000160 be 6f d6 bc 78 60 72 ba d7 79 a3 bc 3c ab 2c bd
       -0.02617633 -0.00092459423 -0.019955559 -0.04215549
000170 39 a0 6f 3c 3a 03 3c b8 89 20 b0 be b6 9a aa 3c
       0.014625602 -4.4825698e-05 -0.34399822 0.020825725
000180 11 f1 99 3c 0c 14 f2 38 49 de 11 3c 63 df 10 3d
       0.018791707 0.00011543193 0.008903095 0.03536929
000190 40 53 06 bd 36 30 b8 3a 93 ed 48 bc c0 b0 ab bb
       -0.032794237 0.0014052454 -0.012263673 -0.005239576
0001a0 e6 f0 0f 3a 05 1c 24 3c 26 a9 27 bc 38 a0 04 bd
       0.0005490914 0.010016446 -0.010233199 -0.03237936
0001b0 bb a3 f1 bc f9 48 48 3c d7 8d cd 3c 05 b3 a8 bb
       -0.029497018 0.012224429 0.025092049 -0.005148294
0001c0 57 22 98 3b 14 29 1c 3c ce e2 1b ba a2 fa 31 3d
       0.0046427655 0.009531278 -0.00059465773 0.043451913
0001d0 09 bc a9 bc 1e f2 d8 bc b6 6d 6e 3d 88 21 4c bd
       -0.020719545 -0.026482638 0.058210097 -0.049836665
0001e0 96 eb a2 be 3c b0 58 3d fa 62 2c bd 81 92 5e 3c
       -0.31820363 0.052902445 -0.04208658 0.013584734
0001f0 a3 6e 00 bc 15 82 82 3c 5f 15 1a bc 32 ce 75 3e
       -0.007838878 0.015931169 -0.009404509 0.24004439
000200 e5 b1 31 3c 70 ff 8e 3c 96 d5 c1 bc 0e bd 2f bd
       0.010845636 0.017455786 -0.023661416 -0.042904906
000210 a9 1b 0d 3c 0a cd 4a 3b 32 2d bb bc b6 47 4c bc
       0.008612552 0.0030944967 -0.0228487 -0.012468269
000220 3d 02 c4 bc af 9e d6 ba 6a 44 d5 3c 21 5c 1c bd
       -0.023926849 -0.0016374196 0.026033599 -0.0381738
000230 47 cb 4d 3c 78 de 75 bc be 6f b6 bc e2 9c 1c 3e
       0.012560672 -0.015006654 -0.02227008 0.15294221
000240 15 ac 71 bb 44 12 89 3b 05 e4 26 3d 95 bc 11 bd
       -0.003687625 0.0041830856 0.0407448 -0.035580236
000250 6e 19 4e 3d 91 ab 0a 3c 84 4d f8 3b 03 d8 4a 3b
       0.05031722 0.008463756 0.0075776 0.0030951507
000260 f3 e1 61 ba dc 69 c2 bc cf 8c 09 bb 41 86 9e 3b
       -0.0008616738 -0.023732118 -0.002098847 0.0048377817
000270 18 50 30 3e 80 64 5f 3c b0 18 b8 bb 7b 92 6f bb
       0.17218053 0.013634801 -0.0056181774 -0.0036555815
000280 14 ce 9a 3c 8b 3b 5d bc 61 88 6c bc 85 ea 26 bd
       0.018897094 -0.013502966 -0.014436812 -0.040751
000290 74 dd c7 3b 8f 0c a3 3b b3 e1 cc bc 18 a1 c8 3c
       0.0060993973 0.0049758623 -0.025009966 0.024490878
0002a0 14 a5 e0 39 0b 07 f3 bb 91 c9 c1 3c c8 af 6e bc
       0.00042847602 -0.007416611 0.023655685 -0.014568277
0002b0 2e 31 90 3c 0c c5 7d bb cf fc d3 3d 9b b8 1d bc
       0.017601576 -0.0038722185 0.10350954 -0.009626533
0002c0 d6 c5 52 3c 04 97 b5 bc 75 d8 4c ba 81 2a 33 3c
       0.012864551 -0.022166736 -0.0007814237 0.010935427
0002d0 37 42 6a bb 61 e4 77 bc 57 47 d9 3c c2 1c 04 bd
       -0.0035745034 -0.015130133 0.026523275 -0.032253988
0002e0 92 b0 f7 bb e1 0c 3a 3e 6f d1 21 3b 1e 31 1f bb
       -0.0075588906 0.18168975 0.0024691483 -0.002429075
0002f0 98 07 e7 b9 b8 d7 26 3a 82 11 b6 bc f8 4d 12 bc
       -0.0004406541 0.0006364542 -0.022225145 -0.008929722
000300 d7 42 df bc 2a fc 08 3b 41 59 4c 3c 0d fe 84 be
       -0.027253551 0.0020902255 0.012472452 -0.25975075
000310 23 b6 c0 bc db 8d 4f 3c b9 6a 21 3c 72 7c db bc
       -0.02352435 0.012668098 0.009852105 -0.026792739
000320 d0 c0 64 3c 9e 15 ac 3b 0e b8 6b bb 1c 6d 94 3c
       0.013961986 0.0052516004 -0.003596786 0.018118434
000330 e8 72 a6 3e 46 ee 18 3e 42 95 28 3b e7 fe 94 3d
       0.32509542 0.14934644 0.002572373 0.07275181
000340 de ba 8a bc a2 03 18 3e 11 f0 96 bb d6 2e dc bc
       -0.016934808 0.14845136 -0.004606255 -0.026877802
000350 ec 92 14 3d 8c 85 15 bd b7 9f 62 bc 76 b3 ed 3b
       0.036272928 -0.036504313 -0.013832024 0.0072540594
000360 aa d2 d5 bc 90 47 ff 3a 8c a2 dc bb 52 7a 99 3c
       -0.026101429 0.0019476283 -0.0067332443 0.018735085
000370 80 ce b0 be 49 cd d2 be f3 46 07 bc b7 dd ad bc
       -0.34532547 -0.41172245 -0.008256662 -0.021223886
000380 d9 8a 0c 3d 2b c3 2b bc 2d ba 1a bc 00 0b 8f 3b
       0.034312103 -0.010483543 -0.009443802 0.004365325
000390 34 c7 b7 3c 4a af 24 3c 1e a4 86 bc b1 53 ab 3c
       0.022433855 0.010051558 -0.016435679 0.02091393
0003a0 a3 92 da 3c 66 ae d9 3c 0a 68 79 3c 06 53 3d 3d
       0.02668125 0.026572417 0.015222559 0.046221755
0003b0 75 08 43 3c 24 1f 2e bc 0e e9 39 3d 90 44 b5 3b
       0.011903872 -0.010627542 0.045388274 0.005531855
0003c0 2b 5f 88 3b 5c 27 f3 ba 2a 07 07 3c ce c0 c6 bb
       0.0041617355 -0.0018551159 0.008241454 -0.0060654646
0003d0 8e c0 3f bb 9f 04 c2 3c c1 b7 8e 3e a2 09 ed 3b
       -0.0029259059 0.023683844 0.27874568 0.0072338143
0003e0 2c d1 c0 bc ec 37 94 bc f8 2e d1 3c c1 df a8 3c
       -0.02353724 -0.018093072 0.025535092 0.020614507
0003f0 00 f8 85 bb c2 14 bb 3c ae 4a 68 bd 7f d6 9d 3e
       -0.004088402 0.022837047 -0.056711845 0.3082771
