save/lsqmobilenetv2_cifar100_ratio0356bit26fratio0431rs0/actor.pkl (torch, 377607 bytes, 5 tensors)

fc1.weight f4 [300, 10]
0.27487156 -0.0061018546 -0.31802604 -0.2681242 0.05525671 0.11392755 0.03764011 -0.32974586
-0.24070542 0.30756003 0.26083708 -0.21573693 0.18702829 0.29255152 0.14724235 -0.1756472
0.2851708 0.040173665 0.114787 -0.31330097 -0.047206312 0.22105642 -0.05330346 -0.20236933
0.28131905 -0.32277668 -0.066317245 -0.033150475 0.26134118 0.3242466 0.18421593 -0.04831966
0.18502481 0.0430752 -0.14232807 -0.026435087 -0.0006758718 0.2989492 0.24793299 -0.27964365
0.053553015 0.34989506 -0.23011668 -0.23091887 -0.20568281 -0.15499209 -0.4359614 0.18240523
0.32470492 0.09316626 -0.0815814 0.034153514 0.112745374 0.09410875 -0.090132646 -0.022421358
0.17769325 -0.17671572 0.36616307 -0.20913258 -0.25665352 -0.22398281 -0.0917851 -0.16675805
0.22679394 0.23317482 0.29793695 0.19253339 0.102937736 0.13761955 -0.21268786 -0.10976002
-0.118144855 0.12020138 0.24835911 0.19309461 -0.011003128 0.06076533 -0.13055834 -0.34054652
0.10063195 0.30921304 -0.12933327 0.11216614 -0.13689154 0.16395365 0.29522777 -0.0051574167
0.13054647 -0.34438756 -0.149606 0.25846523 -0.08174557 0.13811547 0.043300826 -0.031036908
-0.12047663 0.14795735 0.22184998 0.2161138 0.17303368 0.0070699425 -0.23533762 -0.06253094
-0.19225812 0.30777118 0.20896032 0.17561692 -0.11813311 -0.180857 -0.20199776 0.07199257
0.2546381 0.07989949 -0.3028807 0.06933687 -0.15866378 -0.070934705 0.0069608204 0.079385825
0.2757926 -0.18791798 0.3149715 0.15355833 0.112887844 0.31100935 -0.2276357 -0.07306021
-0.117084794 -0.33619878 -0.23471391 0.278761 0.11003402 0.14757286 0.18365908 0.045976132
0.2382351 -0.05448416 0.18391609 0.18213041 0.17224306 -0.09868204 -0.04982609 -0.27579114
-0.2576537 0.2399308 -0.29266995 -0.099789694 0.09731363 0.014520806 0.10908411 -0.03385146
-0.02128904 0.17567588 -0.17696323 0.26696122 0.27128783 0.3075214 0.10639598 0.36226362
0.17375207 -0.26358747 -0.021467976 0.0012783015 -0.25570986 -0.18093187 -0.16798337 -0.036008533
0.19401097 0.11774133 -0.2860345 0.27487287 -0.30285892 -0.07657096 0.3094471 -0.21848713
0.120110355 -0.0056565274 -0.24045043 0.13919263 0.08992069 0.17605244 -0.078817576 -0.14024985
-0.0064197797 -0.011082621 0.0020763627 -0.20706509 0.10577559 -0.38196054 -0.24402048 0.15612334
0.16656111 0.052981973 -0.0587826 0.18051656 0.19902796 -0.26888785 0.2258348 -0.3554457
0.003118632 -0.1452188 -0.03888778 -0.056144834 0.08981614 -0.025462346 0.1938846 -0.045706898
0.091913275 0.3435054 -0.12949899 0.14239326 0.09802293 -0.23359425 0.038974144 0.12553775
-0.021501398 -0.17337069 0.3106871 0.24037804 -0.22056697 -0.33546016 0.043745264 -0.19222149
0.010066005 0.0334033 0.019305963 0.061128106 -0.101578504 0.26701578 0.3299059 0.005771485
0.10760698 0.25259662 -0.2744656 0.18648303 0.36396298 0.21665473 0.0943793 -0.20921488
0.0022025576 -0.02432942 -0.10491868 0.3136444 -0.068085074 0.09133696 0.11166263 0.09788031
-0.22024894 0.24619284 0.18414639 -0.12740764 0.14366291 -0.12217647 -0.28760526 0.053803787
00000000: f7bb 8c3e 11f2 c7bb 4fd4 a2be 9347 89be
00000010: dc54 623d d952 e93d 842c 1a3d 73d4 a8be
00000020: 7b7b 76be 8278 9d3e 708c 853e 24ea 5cbe
00000030: 5884 3f3e 50c9 953e b3c6 163e dcdc 33be
00000040: e801 923e 248d 243d 7215 eb3d fc68 a0be
00000050: 685b 41bd 9d5c 623e bb54 5abd e839 4fbe
00000060: 0d09 903e fc42 a5be 56d1 87bd cbc8 07bd
00000070: 83ce 853e a603 a63e 1aa3 3c3e d6ea 45bd
00000080: 2577 3d3e 9f6f 303d 73be 11be 658e d8bc
00000090: fd2c 31ba df0f 993e 25e2 7d3e 742d 8fbe
000000a0: 685a 5b3d 7225 b33e b5a3 6bbe ff75 6cbe
000000b0: 849e 52be 3fb6 1ebe 5536 dfbe 70c8 3a3e
000000c0: b93f a63e f4cd be3d 2614 a7bd 8ee4 0b3d
000000d0: 0ce7 e63d 17bc c03d 7797 b8bd ffac b7bc
000000e0: 38f5 353e f7f4 34be ba79 bb3e da26 56be
000000f0: 1768 83be c05b 65be d4f9 bbbd 9fc2 2abe
00000100: ac3c 683e 61c5 6e3e 318b 983e 7927 453e
00000110: 05d1 d23d 24ec 0c3e d9ca 59be ddc9 e0bd
00000120: eef5 f1bd 242c f63d da51 7e3e 98ba 453e
00000130: 7746 34bc 11e5 783d 16b1 05be 1d5c aebe
00000140: 2018 ce3d 2c51 9e3e f16f 04be 5cb7 e53d
00000150: 4c2d 0cbe 77e3 273e 1828 973e 8cff a8bb
00000160: f9ad 053e 9153 b0be 5132 19be 8e55 843e
00000170: 396a a7bd 246e 0d3e 355c 313d 1d41 febc
00000180: 74bc f6bd 2282 173e a42c 633e f04c 5d3e
00000190: be2f 313e faaa e73b 58fc 70be 3910 80bd
000001a0: 50df 44be 2f94 9d3e b2f9 553e ecd4 333e
000001b0: c6ef f1bd 9432 39be 80d8 4ebe d770 933d
000001c0: ed5f 823e 58a2 a33d 2e13 9bbe 7d00 8e3d
000001d0: c278 22be 3746 91bd 9817 e43b 0995 a23d
000001e0: b034 8d3e 926d 40be f243 a13e 653e 1d3e
000001f0: be31 e73d 9e3c 9f3e 5519 69be 97a0 95bd
00000200: 27ca efbd 3f22 acbe d858 70be c3b9 8e3e
00000210: 8459 e13d 571d 173e 2011 3c3e 7851 3c3d
00000220: e7f3 733e c82a 5fbd 8054 3c3e 6580 3a3e
00000230: 7c60 303e cf19 cabd 7116 4cbd 7f34 8dbe
00000240: 30eb 83be 6bb0 753e d6d8 95be 8a5e ccbd
00000250: 5e4c c73d ade8 6d3c 7d67 df3d d4a7 0abd
00000260: 5a66 aebc 61e4 333e d935 35be 24af 883e
00000270: 3de6 8a3e 7273 9d3e 23e6 d93d 9e7a b93e
00000280: 10ec 313e f0f4 86be 9cdd afbc ae8c a73a
00000290: 67ec 82be 3446 39be d503 2cbe af7d 13bd
000002a0: d0aa 463e 5e22 f13d 1d73 92be 23bc 8c3e
000002b0: 5310 9bbe 3cd1 9cbd da6f 9e3e 17bb 5fbe
000002c0: 6bfc f53d 645a b9bb a338 76be 8388 0e3e
000002d0: 5728 b83d 1747 343e 1c6b a1bd a89d 0fbe
000002e0: 045d d2bb e293 35bc 9613 083b df08 54be
000002f0: dfa0 d83d 5590 c3be 81e0 79be ccde 1f3e
00000300: ff8e 2a3e a003 593d 06c6 70bd 55d9 383e
00000310: fccd 4b3e abab 89be 3d41 673e fbfc b5be
00000320: f661 4c3b 3db4 14be cb48 1fbd 20f8 65bd
00000330: 86f1 b73d 6996 d0bc af89 463e 2837 3bbd
00000340: 073d bc3d f1df af3e 629b 04be 8acf 113e
00000350: 3fc0 c83d 5533 6fbe 5aa3 1f3d f88c 003e
00000360: b323 b0bc 1688 31be 6112 9f3e a925 763e
00000370: 4fdc 61be 6fc1 abbe 3c2e 333d b6d5 44be
00000380: e3eb 243c e6d1 083d 8a27 9e3c 7761 7a3d
00000390: 6408 d0bd 4bb6 883e 6de9 a83e ba1e bd3b
000003a0: 0c61 dc3d 5854 813e c186 8cbe 68f5 3e3e
000003b0: 5b59 ba3e bdda 5d3e ef49 c13d 6d3c 56be
000003c0: c958 103b 7e4e c7bc 9bdf d6bd 0096 a03e
000003d0: 3070 8bbd df0e bb3d 61af e43d 7975 c83d
000003e0: f088 61be fa19 7c3e df90 3c3e 2677 02be
000003f0: 5f1c 133e a837 fabd ff40 93be 5c61 5c3d

fc1.bias f4 [300]
-0.0040708575 0.26627585 0.16200985 0.023883598 -0.24566898 -0.1821544 0.16871211 0.2168573
0.2020149 -0.003945038 0.17604274 0.32963035 0.3146827 -0.17869186 -0.23101696 -0.20477493
0.23452774 -0.16536301 0.2836577 0.19911389 -0.06229344 0.06756385 -0.07266982 -0.14481229
-0.17630635 -0.10011327 -0.109611444 0.055021744 -0.06521909 -0.037419017 -0.12859249 -0.19919695
0.19067216 0.296889 0.058238726 0.049225703 0.017164469 -0.085665464 0.1968817 0.10280558
0.31566474 -0.26991364 0.09157715 -0.010964438 -0.108453475 -0.28802302 0.2265109 0.037718166
0.2599258 -0.28086695 0.2645053 -0.08239236 0.13373977 0.27361238 0.2055247 0.008417502
-0.1553206 0.0017346926 -0.1429111 0.24434753 0.014100737 -0.27859798 -0.0017675604 -0.030388372
-0.0971349 0.0058431183 -0.20736572 -0.13889147 -0.14569798 -0.2495983 -0.01435783 -0.27271277
0.21462883 -0.1612131 -0.2602526 0.29537547 -0.24684644 -0.21402055 -0.1297506 -0.029505512
-0.21565783 -0.098057315 -0.087964565 -0.16968322 -0.22642282 0.21910354 0.22838844 -0.2240507
-0.1020322 0.14797027 -0.31089506 -0.02755544 -0.20245513 0.08734155 -0.23733038 -0.13771212
-0.16325054 0.26894572 0.15224104 -0.043752268 0.33009 -0.26875982 -0.06420852 -0.100966886
-0.15225394 0.15939103 0.3345621 0.30777448 0.26333356 -0.033231784 0.04320637 0.18494539
0.20850292 -0.0006028483 0.21167718 0.3479151 -0.15414764 0.21903531 0.26866883 0.19907391
0.15940909 0.059697792 -0.10016138 -0.08202374 0.016176831 -0.19370063 -0.036886297 0.3145491
-0.2657441 0.26193568 -0.11167756 -0.21122625 0.14807722 -0.08611332 0.25191262 0.045546286
0.1727895 0.29041702 -0.019770762 -0.17414844 0.31100824 0.0602158 0.18316734 0.2216513
-0.07573714 -0.1875796 -0.198242 -0.15331888 0.03163071 0.07437659 0.20094207 -0.15342341
-0.19315352 0.12658446 0.03370123 0.21776421 -0.004646681 0.26154798 0.04029611 -0.24064021
-0.27270797 -0.22472492 0.10063066 0.18119065 -0.14950271 0.03400696 -0.18055579 -0.3027563
0.26628903 0.22716442 0.19440033 -0.1848212 -0.20492083 0.14349966 0.20520769 0.2974958
-0.2186228 0.1476965 -0.28590462 -0.008503265 0.11294141 0.27339134 -0.21184054 0.02641192
0.1346645 -0.17926428 0.06600245 -0.2292572 -0.2496525 -0.29396874 -0.1693487 -0.03133228
-0.12980439 -0.2455313 0.13436806 0.11850813 -0.311868 -0.2223128 -0.092555866 -0.20925857
0.3167661 0.10665022 0.13335529 0.21398115 0.29544413 0.26155218 0.09753407 -0.18182962
0.15610428 0.15453443 -0.01812395 0.17757133 0.24797344 0.12705934 0.021691512 0.08606808
-0.2436894 -0.20696539 0.024961194 -0.10763196 0.0053278543 0.02023647 0.3005262 -0.12220959
0.06307341 -0.16498283 0.20788163 0.03016508 0.046109598 0.13541977 0.10684932 -0.055016022
0.26068157 0.16247776 -0.032920346 -0.11016535 0.17749003 0.075390145 -0.24474825 -0.050028373
0.11834066 -0.06864786 -0.10946893 -0.25218275 0.17956221 0.20362508 -0.14035344 -0.1253778
-0.23619413 -0.29743654 0.06863422 -0.27157974 -0.3000332 0.13892262 0.26539403 0.02898597
00000000: d464 85bb 4f55 883e e9e5 253e 89a7 c33c
00000010: a690 7bbe af86 3abe dec2 2c3e d70f 5e3e
00000020: fedc 4e3e 6145 81bb 8c44 343e 4fc5 a83e
00000030: 171e a13e 00fb 36be b68f 6cbe 85b0 51be
00000040: 0a28 703e ec54 29be 953b 913e 83e4 4b3e
00000050: 6827 7fbd ea5e 8a3d ead3 94bd ac49 14be
00000060: a789 34be 3008 cdbd f77b e0bd 7b5e 613d
00000070: 9691 85bd af44 19bd c0ad 03be 49fa 4bbe
00000080: 903f 433e d601 983e bb8b 6e3d e4a0 493d
00000090: 809c 8c3c 6071 afbd 5b9b 493e bb8b d23d
000000a0: cf9e a13e 1f32 8abe cd8c bb3d 30a4 33bc
000000b0: db1c debd c177 93be 79f2 673e 5d7e 1a3d
000000c0: ff14 853e cbcd 8fbe 3d6d 873e 53bd a8bd
000000d0: 14f3 083e ec16 8c3e 1175 523e 90e9 093c
000000e0: 5d0c 1fbe a05e e33a 4a57 12be 3d36 7a3e
000000f0: c706 673c 65a4 8ebe 7cad e7ba 09f1 f8bc
00000100: aaee c6bd a177 bf3b ae57 54be 9139 0ebe
00000110: da31 15be b296 7fbe 1b3d 6bbc 02a1 8bbe
00000120: a9c7 5b3e 0c15 25be d43f 85be 743b 973e
00000130: 50c5 7cbe 3428 5bbe 57dd 04be 8bb5 f1bc
00000140: 68d5 5cbe 46d2 c8bd c426 b4bd 70c1 2dbe
00000150: 62db 67be ae5c 603e a9de 693e 8c6d 65be
00000160: 42f6 d0bd 8585 173e a32d 9fbe f2bb e1bc
00000170: 6650 4fbe 20e0 b23d bc06 73be 6804 0dbe
00000180: 262b 27be 41b3 893e 13e5 1b3e 9435 33bd
00000190: 8e01 a93e e39a 89be c27f 83bd bac7 cebd
000001a0: 75e8 1bbe 6737 233e b94b ab3e 9e94 9d3e
000001b0: a8d3 863e 0d1e 08bd 2af9 303d 5362 3d3e
000001c0: ca81 553e 7708 1eba e7c1 583e ee21 b23e
000001d0: e1d8 1dbe cb4a 603e f68e 893e 08da 4b3e
000001e0: 233c 233e ac85 743d 6921 cdbd 10fc a7bd
000001f0: 4685 843c 7559 46be 1616 17bd 940c a13e
00000200: 9c0f 88be 6f1c 863e 34b7 e4bd b24b 58be
00000210: 8ea1 173e 2e5c b0bd b1fa 803e be8e 3a3d
00000220: bbef 303e 8ab1 943e 4bf6 a1bc f853 32be
00000230: 793c 9f3e d8a4 763d 3890 3b3e 8ff8 623e
00000240: 131c 9bbd de14 40be f3ff 4abe a0ff 1cbe
00000250: 348f 013d c152 983d c2c3 4d3e 071b 1dbe
00000260: 09ca 45be 5b9f 013e 4d0a 0a3d 95fd 5e3e
00000270: 2f43 98bb 9ee9 853e 890d 253d 636a 76be
00000280: 61a0 8bbe 4a1e 66be 7317 ce3d 0b8a 393e
00000290: 3d17 19be e24a 0b3d 9ee3 38be e002 9bbe
000002a0: 0957 883e ca9d 683e e110 473e c541 3dbe
000002b0: c4d6 51be 93f1 123e f721 523e 5f51 983e
000002c0: a8de 5fbe c03d 173e 1762 92be 4751 0bbc
000002d0: d34d e73d f3f9 8b3e baec 58be d05d d83c
000002e0: 7ee5 093e 0e91 37be 4b2c 873d 66c2 6abe
000002f0: e8a4 7fbe 1283 96be bf69 2dbe 4756 00bd
00000300: 71eb 04be 8f6c 7bbe c897 093e 64b4 f23d
00000310: 2aad 9fbe f7a5 63be ee8d bdbd e147 56be
00000320: 2b2f a23e 6e6b da3d 4a8e 083e e01d 5b3e
00000330: 7444 973e 2bea 853e f1bf c73d 8b31 3abe
00000340: cdd9 1f3e 463e 1e3e ae78 94bc 42d5 353e
00000350: c0ec 7d3e d81b 023e 66b2 b13c 7644 b03d
00000360: b789 79be bcee 53be 6b7b cc3c 256e dcbd
00000370: 4895 ae3b f4c6 a53c 92de 993e 0649 fabd
00000380: a22c 813d 42f1 28be ecde 543e c21c f73c
00000390: 6bdd 3c3d 7bab 0a3e d1d3 da3d 7b58 61bd
000003a0: 0e78 853e 9260 263e 7cd7 06bd 5f9e e1bd
000003b0: f2bf 353e 2666 9a3d 499f 7abe 8dea 4cbd
000003c0: 975c f23d 4097 8cbd 3f31 e0bd 191e 81be
000003d0: 28df 373e 1883 503e d0b8 0fbe 0a63 00be
000003e0: e0dc 71be 9a49 98be 1990 8c3d 800c 8bbe
000003f0: f49d 99be bb41 0e3e bae1 873e fc73 ed3c

fc2.weight f4 [300, 300]
-0.09891312 0.061469704 0.01865295 -0.037753895 -0.01784245 0.055286434 0.002924636 0.045042675
0.009630199 -0.011449602 0.07449246 0.060452424 0.067636535 -0.010924146 -0.016839538 0.030665327
-0.016241018 -0.105919115 0.035855215 0.010367025 -0.016439915 -0.009737633 0.07416022 0.057747558
-0.0131756235 -0.01714514 0.008725577 0.07107038 0.008374476 0.055477332 -0.014094048 -0.011383341
0.0030577807 0.06056842 -0.017079024 -0.015505099 0.0374872 -0.015174023 0.006164408 -0.054460987
0.025645042 -0.007535824 -0.008184686 0.066802025 0.04584314 0.0026903825 0.018101584 -0.04313693
-0.010689781 -0.004526427 0.0015589809 0.039507028 0.061961032 0.020180456 -0.036209174 0.021364333
-0.03335632 -0.020058231 0.011054841 0.05929743 -0.033094604 -0.0011899037 0.03339774 0.0051635765
-0.10609219 0.037422504 -0.038647078 0.13242108 0.0036712668 0.033232387 0.035766516 0.01516617
0.034990948 0.10302557 -0.04180529 -0.034825336 -0.06788096 0.040592745 -0.023559831 0.0332233
0.011097884 -0.02072977 -0.04710039 0.030437658 0.004919122 -0.036286727 0.0016412801 -0.022044923
0.015784612 -0.045596637 -0.048926182 -0.03432627 -0.075585395 0.009368292 -0.020121984 0.06732888
0.019553667 0.06586013 -0.045201797 0.014815587 0.013758439 -0.027905367 0.014967998 -0.06635464
-0.01039144 0.01748386 -0.02955968 0.078396596 0.1148927 -0.022579353 -0.026637092 0.023866624
0.0043408168 0.041960724 0.005106284 -0.007953339 0.015493511 -0.014910363 -0.030035065 0.07802776
0.048510924 -0.022513729 0.01217894 0.043914624 0.024092132 0.0407603 0.035059955 0.062054016
-0.052657478 -0.024990845 -8.404916e-05 -0.010149224 -0.01524433 -0.089819476 0.061833236 0.015315876
-0.008345822 0.040778443 0.010718597 0.0337083 -0.01701775 -0.0036441765 0.017080236 0.05140442
-0.014952457 -0.083495386 -0.000768328 -0.037066605 0.013250163 0.03244695 0.02294663 0.04737953
-0.062141903 -0.06516124 0.019467887 0.050239474 0.0419917 0.018858043 0.08508816 0.0035022828
0.102023356 0.0049040015 -0.030910999 0.016025076 -0.040914908 -0.00061473425 -0.04300941 0.023701727
0.024651779 -0.010609651 0.076833054 0.0147508 0.037980955 0.053628877 0.016911441 0.050137777
0.019095294 -0.009314695 -0.024507908 -0.0031409005 0.06597535 0.06245445 0.008015084 -0.0057322495
0.028649515 -0.041648466 0.0021051518 0.043270428 0.037355516 -0.05891067 0.1077156 -0.04976656
0.053509526 0.019015878 0.067677416 0.09245403 0.01911165 -0.021238493 0.017164 -0.045447603
0.039366372 -0.05020391 0.08195343 0.014976635 -0.020420117 -0.015271064 -0.005364443 -0.0069202813
0.02454392 0.033462092 0.029459585 0.05756176 0.034430772 -0.012426472 0.088372365 -0.020226989
0.008795549 0.010304818 0.011775236 -0.0032615548 -0.040112026 -0.010307247 0.030992573 0.04357937
0.016187463 0.056005877 0.061715245 0.020611066 0.022057993 0.022483403 -0.047860835 -0.014245673
0.040259697 0.058536105 -0.1122237 0.042946666 0.12656973 -0.058330506 0.020575369 0.06141006
0.062283866 -0.01865562 -0.022825504 -0.009702325 0.01567941 -0.01793988 -0.049257636 0.03267182
0.021861333 0.010393867 -0.0012295132 -0.048314802 0.015709588 -0.041937526 -0.01574558 -0.03470355
00000000: f692 cabd a8c7 7b3d 12ce 983c d4a3 1abd
00000010: 542a 92bc 0774 623d 40ab 3f3b ab7e 383d
00000020: fbc7 1d3c 1d97 3bbc 818f 983d f69c 773d
00000030: 0685 8a3d 30fb 32bc 12f3 89bc da35 fb3c
00000040: e20b 85bc 1fec d8bd ebdc 123d 74da 293c
00000050: 00ad 86bc 988a 1fbc 50e1 973d b488 6c3d
00000060: 92de 57bc f773 8cbc b9f5 0e3c 598d 913d
00000070: 1935 093c 333c 633d b9ea 66bc 3181 3abc
00000080: 0c65 483b 9716 783d 4fe9 8bbc 1909 7ebc
00000090: 2e8c 193d 779c 78bc cdfe c93b 7c12 5fbd
000000a0: 8d15 d23c 13ef f6bb 1019 06bc 80cf 883d
000000b0: 04c6 3b3d 2151 303b c649 943c 59b0 30bd
000000c0: 3124 2fbc 6c52 94bb b856 cc3a 1fd2 213d
000000d0: daca 7d3d 7c51 a53c 1250 14bd 4104 af3c
000000e0: a3a0 08bd 2951 a4bc 5d1f 353c dde1 723d
000000f0: 358e 07bd 8bf6 9bba 12cc 083d 3833 a93b
00000100: dd46 d9bd 5748 193d 664c 1ebd 6499 073e
00000110: a399 703b af1e 083d e97f 123d 877b 783c
00000120: ab52 0f3d 12ff d23d 063c 2bbd 03a5 0ebd
00000130: 2c05 8bbd 9444 263d 8c00 c1bc 2815 083d
00000140: e6d3 353c 7bd1 a9bc 57ec 40bd 6558 f93c
00000150: 9630 a13b 64a1 14bd 3920 d73a 8e97 b4bc
00000160: bb4e 813c 8ac3 3abd d266 48bd b499 0cbd
00000170: 84cc 9abd 777d 193c dcd6 a4bc b9e3 893d
00000180: 032f a03c ade1 863d 8525 39bd 13bd 723c
00000190: 136b 613c cc99 e4bc 553c 753c f1e4 87bd
000001a0: dc40 2abc 503a 8f3c 2427 f2bc 658e a03d
000001b0: dd4c eb3d 56f8 b8bc 0836 dabc f083 c33c
000001c0: 693d 8e3b 02df 2b3d 9d52 a73b b94e 02bc
000001d0: 7fd8 7d3c 984a 74bc 190c f6bc 05cd 9f3d
000001e0: 64b3 463d b66e b8bc 2d8a 473c d2df 333d
000001f0: dd5c c53c 46f4 263d 079b 0f3d 5a2c 7e3d
00000200: 5eaf 57bd 9ab9 ccbc 8d43 b0b8 ee48 26bc
00000210: 5bc3 79bc 46f3 b7bd d944 7d3d 71ef 7a3c
00000220: eabc 08bc 4c07 273d 0e9d 2f3c b711 0a3d
00000230: cf68 8bbc 23d3 6ebb daeb 8b3c 718d 523d
00000240: 26fb 74bc a1ff aabd 9f69 49ba 27d3 17bd
00000250: 3617 593c 18e7 043d 92fa bb3c 0a11 423d
00000260: 8288 7ebd 4273 85bd 1e7b 9f3c e8c7 4d3d
00000270: 7dff 2b3d 2f7c 9a3c b442 ae3d 8e86 653b
00000280: 9ff1 d03d bfb1 a03b 1039 fdbc 0547 833c
00000290: 6496 27bd 1e26 21ba a32a 30bd 202a c23c
000002a0: 87f2 c93c 1ad4 2dbc a65a 9d3d 57ad 713c
000002b0: eb91 1b3d f4a9 5b3d dd89 8a3c 455d 4d3d
000002c0: bc6d 9c3c aa9c 18bc cfc4 c8bc 91d7 4dbb
000002d0: 161e 873d 3dd0 7f3d b351 033c 98d5 bbbb
000002e0: 63b2 ea3c 9597 2abd 96f6 093b 553c 313d
000002f0: 1902 193d 514c 71bd ff99 dc3d 05d8 4bbd
00000300: ce2c 5b3d 30c7 9b3c 759a 8a3d 8a58 bd3d
00000310: 0990 9c3c 59fc adbc 849b 8c3c 4427 3abd
00000320: a23e 213d 9da2 4dbd 33d7 a73d 8f60 753c
00000330: 1748 a7bc 7c33 7abc 36c8 afbb 87c3 e2bb
00000340: 5510 c93c 8c0f 093d 3a55 f13c e1c5 6b3d
00000350: 4807 0d3d 6798 4bbc 92fc b43d 12b3 a5bc
00000360: 351b 103c 8ad5 283c ebec 403c cfbf 55bb
00000370: 824c 24bd badf 28bc 23e4 fd3c 4880 323d
00000380: 929b 843c 6b66 653d 20c9 7c3d 8ad8 a83c
00000390: f7b2 b43c 1d2f b83c b909 44bd af66 69bc
000003a0: 5ae7 243d 8ec3 6f3d 8ad5 e5bd d8e8 2f3d
000003b0: 7f9b 013e f8eb 6ebd ad8d a83c 1d89 7b3d
000003c0: 5e1d 7f3d acd3 98bc 8dfc babc 80f6 1ebc
000003d0: 1b72 803c a8f6 92bc 60c2 49bd e3d2 053d
000003e0: 8a16 b33c 0a4b 2a3c 9e27 a1ba bee5 45bd
000003f0: 65b1 803c afc6 2bbd e0fc 80bc 4f25 0ebd

fc2.bias f4 [300]
-0.0131664425 -0.030542158 -0.0043208078 0.018380253 -0.03719915 0.047617298 -0.025323287 -0.050639153
-0.057439875 0.03273723 -0.03226332 0.060979165 -0.057586323 0.06633536 0.04638289 0.018851595
0.014333077 -0.017567543 0.011660234 -0.0014683042 -0.018958684 0.019408423 0.0034233879 0.04557003
-0.014472142 -0.008785304 -0.033690054 -0.03639979 -0.0065096538 0.02165925 0.009625956 -0.017577073
-0.034551866 -0.038088214 -0.015680486 -0.048689507 -0.038561027 0.050810814 -0.0046056174 0.039246216
-0.033658676 0.02708885 0.05675397 0.025350902 -0.023344548 -0.015652869 0.023397418 -0.0583389
0.026752735 0.046424095 -0.022045989 0.06322327 -0.030076183 -0.03581143 -0.05193445 -0.019946897
-0.01564182 0.020169603 0.010301692 0.016412446 -0.043764405 0.0071586506 -0.031548254 0.0535113
-0.023730963 -0.0029469011 0.070845835 -0.022722445 0.04186822 -0.030665146 0.05175694 0.05189015
-0.009685742 0.031646233 0.05004747 0.017718695 -0.014154049 -0.001352782 0.051325493 0.032911032
0.04940457 -0.0570637 -0.011303528 -0.0242876 0.027668903 0.022878543 -0.038825754 0.038008865
0.008562026 0.04910158 -0.048849776 -0.055993024 0.036198474 0.03644118 0.0056421985 0.043643463
0.03858875 0.034332864 0.016652271 -0.04763013 -0.046871785 0.08428423 0.068393484 0.05296257
0.022276964 -0.03036652 0.035619527 0.017243454 0.029543143 0.0498652 -0.020201104 0.004886727
0.013496057 -0.020685557 0.019766085 -0.009778107 0.026273325 0.004870222 0.0560239 0.014456793
0.02177951 0.0009778788 0.058412116 0.009959342 -0.026513886 0.058418065 0.04886152 0.009345819
0.036385655 -0.04697228 -0.008291263 0.019144677 -0.059837703 0.05127929 0.061714206 -0.02475301
-0.004467835 0.05527368 0.013592777 -0.0358868 0.09063503 0.048762936 -0.04242864 0.0045524556
-0.008182495 -0.040505253 0.010581678 -0.020088451 0.0016927433 0.0154096605 0.021186719 0.036640503
0.05287729 -0.044953436 0.03700484 0.017948784 0.041478503 0.0012307976 0.033392858 0.06730743
0.0011041979 0.060035672 0.014562527 -0.02831084 0.054990556 -0.008372072 0.0499497 0.009053975
-0.022715047 0.031412683 -0.04116687 0.0034107463 -0.03670426 0.030822827 0.024097895 0.030499056
0.022948887 -0.0011574575 -0.033647463 0.048077535 0.041135073 0.04164435 0.038817734 0.015753638
0.0013468219 0.018824484 0.05185053 -0.04853747 0.04811027 -0.009689524 -0.00410315 0.047624584
0.0686062 -0.022023926 -0.017444184 0.014977797 -0.024396626 0.00077748013 -0.058614455 -0.010720352
0.042098694 -0.00014742509 -0.002251359 0.009106503 0.03497573 0.0031904737 -0.03400103 0.066629656
-0.011004133 0.07866849 -0.04457142 0.03562228 0.06196115 0.008655638 0.018091997 0.013291656
0.023491891 -0.023288878 -0.052437417 -0.044140443 0.050432164 0.048138782 0.022022424 0.011903313
-0.01289618 -0.04445205 -0.037468728 -0.024458177 0.021347193 0.045997284 0.0943159 0.03270856
0.010873495 0.051800475 0.032975923 0.05771325 0.03906455 0.008502938 0.06454554 -0.02825435
-0.00686482 -0.03942633 0.05610243 0.0067086513 0.05035698 -0.01456723 -0.027097423 -0.031834688
0.08286949 0.03460119 -0.041918572 -0.0035145977 0.03119357 -0.033861093 0.058962267 -0.004696047
00000000: 10b8 57bc 8c33 fabc 9095 8dbb 2f92 963c
00000010: 235e 18bd 5b0a 433d c872 cfbc 006b 4fbd
00000020: 1346 6bbd 7917 063d 8b26 04bd 4ac5 793d
00000030: a3df 6bbd d5da 873d fcfb 3d3d a96e 9a3c
00000040: 48d5 6a3c cfe9 8fbc 910a 3f3c 1d74 c0ba
00000050: 3e4f 9bbc 6afe 9e3c eb5a 603b a4a7 3a3d
00000060: 901c 6dbc 3cf0 0fbc 95fe 09bd f217 15bd
00000070: ef4e d5bb bd6e b13c 30b6 1d3c cbfd 8fbc
00000080: 4286 0dbd 6302 1cbd 5d74 80bc a66e 47bd
00000090: 2bf2 1dbd 001f 503d b8ea 96bb a4c0 203d
000000a0: aedd 09bd 70e9 dd3c da76 683d b2ac cf3c
000000b0: 113d bfbc 723a 80bc f1ab bf3c c5f4 6ebd
000000c0: 8d28 db3c 3127 3e3d ca99 b4bc 347b 813d
000000d0: 5462 f6bc 02af 12bd 38b9 54bd ad67 a3bc
000000e0: 4623 80bc b93a a53c 6ec8 283c 6573 863c
000000f0: 4e42 33bd 1d93 ea3b be38 01bd aa2e 5b3d
00000100: 7067 c2bc cc20 41bb 9f17 913d 6c24 babc
00000110: 037e 2b3d 7935 fbbc 16ff 533d c48a 543d
00000120: f2b0 1ebc 7b9f 013d 93fe 4c3d cc26 913c
00000130: 62e6 67bc d54f b1ba ae3a 523d b8cd 063d
00000140: 725c 4a3d a0bb 69bd 6f32 39bc caf6 c6bc
00000150: e5a9 e23c c86b bb3c c107 1fbd 2faf 1b3d
00000160: bd47 0c3c bd1e 493d b416 48bd f158 65bd
00000170: da44 143d 5943 153d 31e2 b83b 7dc3 323d
00000180: 3d0f 1e3d 9ea0 0c3d 586a 883c d017 43bd
00000190: a1fc 3fbd 369d ac3d e211 8c3d 48ef 583d
000001a0: 2e7e b63c 35c3 f8bc c8e5 113d 2542 8d3c
000001b0: 7604 f23c 743f 4c3d c97c a5bc d620 a03b
000001c0: 911e 5d3c c274 a9bc 7cec a13c 5a34 20bc
000001d0: 283b d73c 6296 9f3b 5179 653d 2fdc 6c3c
000001e0: f16a b23c 2b2c 803a 8b41 6f3d 822c 233c
000001f0: a633 d9bc c847 6f3d 0423 483d 351f 193c
00000200: 2009 153d 0166 40bd 14d8 07bc 4cd5 9c3c
00000210: 6118 75bd 3c0a 523d 09c8 7c3d d3c6 cabc
00000220: eb66 92bb a766 623d 3db4 5e3c 0afe 12bd
00000230: dc9e b93d a5bb 473d a7c9 2dbd c42c 953b
00000240: df0f 06bc d6e8 25bd c65e 2d3c 8990 a4bc
00000250: 0adf dd3a cd78 7c3c c58f ad3c 5a14 163d
00000260: db95 583d 1821 38bd 6392 173d 5409 933c
00000270: 5de5 293d b752 a13a f3c6 083d 7ad8 893d
00000280: bcba 903a f7e7 753d aa97 6e3c 22ec e7bc
00000290: c73d 613d 042b 09bc 0e98 4c3d 2057 143c
000002a0: e814 babc 96aa 003d 989e 28bd d486 5f3b
000002b0: 3557 16bd 2780 fc3c f368 c53c 28d9 f93c
000002c0: 4eff bb3c d4b5 97ba ecd1 09bd f3ec 443d
000002d0: 407d 283d 4493 2a3d 58ff 1e3d c60d 813c
000002e0: d887 b03a ce35 9a3c 3961 543d 3acf 46bd
000002f0: 460f 453d cfc0 1ebc b873 86bb ff11 433d
00000300: 6881 8c3d 856b b4bc 1be7 8ebc 6f65 753c
00000310: 6fdb c7bc cfcf 4b3a b615 70bd 6aa4 2fbc
00000320: ae6f 2c3d 1f96 1ab9 898b 13bb 7133 153c
00000330: b642 0f3d 4417 513b aa44 0bbd 2175 883d
00000340: ae4a 34bc f21c a13d 8590 36bd abe8 113d
00000350: faca 7d3d 61d0 0d3c ab35 943c 3fc5 593c
00000360: 1172 c03c 51c8 bebc 9ec8 56bd 9ccc 34bd
00000370: f591 4e3d 2c2d 453d 5f68 b43c 1d06 433c
00000380: 804a 53bc 5a13 36bd cf78 19bd 845c c8bc
00000390: 4fe0 ae3c a667 3c3d b228 c13d 69f9 053d
000003a0: be26 323c bc2c 543d c311 073d bb64 6c3d
000003b0: 2602 203d e84f 0b3c 7430 843d ab75 e7bc
000003c0: 49f2 e0bb 817d 21bd a9cb 653d 3fd4 db3b
000003d0: 1f43 4e3d 64ab 6ebc 6afb ddbc 1765 02bd
000003e0: 7bb7 a93d fab9 0d3d cfb2 2bbd 2a55 66bb
000003f0: a889 ff3c eeb1 0abd 6b82 713d 4ce1 99bb

fc3.weight f4 [1, 300]
-0.05784563 0.070903406 -0.05969848 0.02482907 0.02310141 -0.011283401 0.035083428 0.09556755
0.03009574 0.08649657 0.08930575 -0.091520205 -0.04690899 -0.05044213 -0.098959446 0.11482347
0.037487168 -0.020076979 -0.07352502 -0.08470924 -0.03300538 0.06363783 -0.05314574 -0.04872991
0.06172187 -0.041979324 0.013950914 0.072791636 -0.06794069 -0.06500162 0.076356664 -0.052084073
0.05599758 0.057613414 0.06619047 0.01540037 0.04270562 -0.0076545877 0.012042283 -0.073284745
0.09129171 0.04568675 -0.0745911 -0.030349348 -0.005870672 -0.08137714 -0.000664757 -0.011074843
0.024625618 0.078584485 0.049442716 -0.12016395 0.053544488 0.07033966 0.06144262 -0.04044931
-0.061062455 -0.077228576 0.054049667 0.04862315 0.028245522 0.045949746 0.09350141 -0.028753346
-0.07430893 0.08471675 -0.06857474 -0.054176945 -0.0720255 -0.049397785 -0.028969374 0.08767711
-0.060679495 -0.1059669 -0.06679809 -0.0048670582 0.067994185 -0.044083055 0.03318295 -0.068730615
0.05161913 0.04618445 -0.016635455 -0.056350607 0.06234066 0.07683482 0.05270962 -0.033292647
-0.08120701 0.07629067 -0.04036659 0.00428019 0.016618175 0.06623788 0.03888694 -0.14647408
0.058402147 0.04776062 -0.05343365 0.07825559 0.07954346 -0.050444666 -0.06300586 -0.09424873
-0.03965393 0.015437831 0.035863552 -0.09870786 -0.014426719 0.051389445 -0.01990787 -0.089756876
0.056547876 -0.08743923 0.048146334 -0.12730925 -0.01854532 0.09726743 -0.057876274 -0.0745662
-0.07225235 -0.031449147 -0.08203081 -0.11087956 0.047154818 0.027195726 0.047551032 0.07555365
-0.04034689 -0.044193808 0.05196453 0.07789617 -0.020728905 -0.07275524 -0.048045184 -0.008441506
-0.09535008 -0.071947806 0.07409445 0.05630169 -0.10662488 -0.105258316 -0.022386812 -0.093290694
0.05970487 0.0833987 0.07235108 -0.064803064 -0.047168743 0.06871095 -0.009093281 -0.05866475
-0.110498294 -0.022946808 0.04790175 0.026423072 -0.06940787 0.051769044 -0.055723876 -0.07437936
-0.107550286 0.06900552 -0.10063034 -0.0034395957 0.041441783 0.07675372 0.06627722 -0.099183455
-0.12189307 -0.103438556 0.012439124 -0.016191874 0.08243224 -0.08171055 0.029533843 -0.049310558
-0.03162606 -0.028985212 -0.03175859 0.07974674 0.025620101 0.02881119 -0.007723138 -0.050352488
0.012653752 -0.103775516 0.024521124 0.052307308 -0.052851718 0.017092368 0.047849093 -0.103691265
-0.032189123 0.06223015 -0.078869365 0.11220962 0.08166905 0.080429904 0.050097097 -0.048332766
-0.051546548 0.057306033 0.019830054 -0.08856666 -0.07070703 0.037932776 -0.039464787 -0.08048659
0.06560216 -0.06993908 -0.051310927 -0.061024643 -0.05985578 -0.11964673 -0.0143899955 -0.045836832
0.05911201 0.042901535 0.0045842673 0.06065891 -0.09089645 0.025752023 -0.036108214 0.03603459
-0.07829291 0.050113965 0.07201148 0.04563177 0.07712848 -0.047776904 -0.07821606 0.090708174
0.06556385 0.10679088 -0.04085 -0.046105515 -0.060045835 0.031573202 -0.059812628 0.04683643
0.035423342 -0.047770955 0.0592511 0.060754932 -0.06982217 0.03697258 -0.104062445 -0.04534005
-0.08922593 0.06577737 0.048206177 0.068371624 -0.049588226 0.05583229 0.048083056 0.043879356
00000000: 8aef 6cbd ce35 913d 6586 74bd 5566 cb3c
00000010: 2b3f bd3c 04de 38bc a4b3 0f3d ebb8 c33d
00000020: 578b f63c 1d25 b13d efe5 b63d f26e bbbd
00000030: a423 40bd 689c 4ebd 40ab cabd 9128 eb3d
00000040: 258c 193d 7a78 a4bc 4994 96bd 0a7c adbd
00000050: a630 07bd 8d54 823d 59af 59bd 0499 47bd
00000060: 12d0 7c3d 83f2 2bbd 6092 643c c813 953d
00000070: 7d24 8bbd 921f 85bd e260 9c3d 1c56 55bd
00000080: b85d 653d 0bfc 6b3d de8e 873d d551 7c3c
00000090: 17ec 2e3d 56d3 fabb ff4c 453c 5016 96bd
000000a0: 26f7 ba3d 0822 3b3d 38c3 98bd 329f f8bc
000000b0: c45e c0bb 0fa9 a6bd 1643 2eba 4273 35bc
000000c0: aabb c93c e7f0 a03d 7284 4a3d 8418 f6bd
000000d0: 7751 5b3d 3d0e 903d 42ab 7b3d 2dae 25bd
000000e0: a01c 7abd 042a 9ebd 2f63 5d3d 1129 473d
000000f0: 2763 e73c cd35 3c3d ab7d bf3d 238c ebbc
00000100: 482f 98bd fa7f ad3d ea70 8cbd a5e8 5dbd
00000110: 1b82 93bd 5555 4abd 2e51 edbc 0f90 b33d
00000120: 108b 78bd 2d05 d9bd 70cd 88bd d87b 9fbb
00000130: 8940 8b3d 6f90 34bd d8ea 073d a3c2 8cbd
00000140: 956e 533d e82b 3d3d 1447 88bc e5cf 66bd
00000150: eb58 7f3d 935b 9d3d 0be6 573d df5d 08bd
00000160: dc4f a6bd 483e 9c3d 7057 25bd d640 8c3b
00000170: d722 883c baa7 873d e947 1f3d 4dfd 15be
00000180: 1737 6f3d a4a0 433d 3edd 5abd 7744 a03d
00000190: aee7 a23d 119f 4ebd 3709 81bd 7a05 c1bd
000001a0: 296c 22bd f5ee 7c3c a9e5 123d 5927 cabd
000001b0: 0c5e 6cbc bd7d 523d d415 a3bc 74d2 b7bd
000001c0: bf9e 673d 5713 b3bd 1735 453d 5b5d 02be
000001d0: 5bec 97bc 2534 c73d ac0f 6dbd 2ab6 98bd
000001e0: 0af9 93bd d2d0 00bd c5ff a7bd d314 e3bd
000001f0: 6925 413d 92c9 de3c dfc4 423d dfbb 9a3d
00000200: c842 25bd 9104 35bd c2d8 543d 0788 9f3d
00000210: aacf a9bc b300 95bd 07cb 44bd 3e4e 0abc
00000220: e746 c3bd 5f59 93bd d5be 973d 9a9c 663d
00000230: 255e dabd ac91 d7bd 8c64 b7bc 310f bfbd
00000240: 188d 743d f0cc aa3d ce2c 943d 78b7 84bd
00000250: 0334 41bd 54b8 8c3d fcfb 14bc 734a 70bd
00000260: ee4c e2bd f2fa bbbc a034 443d 3375 d83c
00000270: b725 8ebd c70b 543d b83e 64bd 3554 98bd
00000280: 5343 dcbd c452 8d3d 4817 cebd d76a 61bb
00000290: dcbe 293d 0e31 9d3d 5abc 873d b220 cbbd
000002a0: 13a3 f9bd 98d7 d3bd 78cd 4b3c d2a4 84bc
000002b0: 3cd2 a83d dc57 a7bd f5f0 f13c def9 49bd
000002c0: 548a 01bd 6572 edbc 4c15 02bd 4252 a33d
000002d0: 3fe1 d13c 7205 ec3c 6112 fdbb 693e 4ebd
000002e0: af51 4f3c 4288 d4bd 86e0 c83c 3040 563d
000002f0: 0b7b 58bd 4b05 8c3c 69fd 433d 165c d4bd
00000300: bed8 03bd 0be5 7e3d 4386 a1bd 28ce e53d
00000310: 1a42 a73d 6fb8 a43d 9d32 4d3d 94f8 45bd
00000320: 7922 53bd bbb9 6a3d a372 a23c 7062 b5bd
00000330: d9ce 90bd 665f 1b3d d4a5 21bd 27d6 a4bd
00000340: 6d5a 863d 383c 8fbd 682b 52bd faf4 79bd
00000350: 562b 75bd 5809 f5bd 04c4 6bbc 67bf 3bbd
00000360: 6f1f 723d 85b9 2f3d 9f37 963b 7a75 783d
00000370: eb27 babd e8f5 d23c 35e6 13bd 0299 133d
00000380: 0858 a0bd 4d44 4d3d c17a 933d 61e8 3a3d
00000390: 89f5 9d3d b7b1 43bd be2f a0bd 35c5 b93d
000003a0: 5746 863d 2db5 da3d 5452 27bd 23d9 3cbd
000003b0: 9ff2 75bd e752 013d 16fe 74bd 8ed7 3f3d
000003c0: 1118 113d 7aab 43bd 48b1 723d 2ada 783d
000003d0: edfe 8ebd 8f70 173d b11e d5bd 7db6 39bd
000003e0: 16bc b6bd 49b6 863d d773 453d 6c06 8c3d
000003f0: 061d 4bbd 66b0 643d bdf2 443d d7ba 333d
