save/lsqmobilenetv2_cifar100_ratio0356bit26fratio0431rs0/actor.pkl (torch, 377607 bytes, 5 tensors)

fc1.weight f4 [300, 10]
0	0x3e4e6583	0.20155911
1	0xbde1b8c0	-0.110215664
2	0xbed794ed	-0.4210581
3	0xbeb44fa4	-0.3521701
4	0xbc97db16	-0.018537086
5	0x3d32f353	0.043689083
6	0x3c4a09ed	0.012331468
7	0xbee2b17a	-0.4427603
8	0xbe77747c	-0.24165529
9	0x3e6965e6	0.22792777
10	0x3e858b93	0.2608305
11	0xbe3d6fb5	-0.18499644
12	0x3e4c51b4	0.19953042
13	0x3e6875f9	0.22701253
14	0x3e083f60	0.13305426
15	0xbd301e13	-0.04299743
16	0x3e7cd8f9	0.24692143
17	0x3c051ea3	0.00812498
18	0x3d50dfbc	0.05099462
19	0xbeb96d9d	-0.3621644
20	0xbe02944b	-0.12751882
21	0x3e5463f0	0.20741248
22	0xbe15d4e4	-0.14631993
23	0xbea198be	-0.31561846
24	0x3e48d1e6	0.1961132
25	0xbe9d7716	-0.30754918
26	0xbe0dca01	-0.1384659
27	0xbdd57867	-0.104233555
28	0x3e53820a	0.20655075
29	0x3e62a79b	0.22134249
30	0x3e155e0e	0.1458666
31	0xbd0431be	-0.032274
32	0x3e503edc	0.20336479
33	0x3d908e05	0.07058338
34	0xbe390399	-0.18067779
35	0xbe10baa0	-0.14133692
36	0xbe95f75c	-0.29290283
37	0x3ec12301	0.37722018
38	0x3e64f9d7	0.22360931
39	0xbe7efedd	-0.2490191
40	0x3d8b02b8	0.06787628
41	0x3ecc7393	0.39931926
42	0xbe24678b	-0.16055124
43	0xbe8db85c	-0.27679718
44	0xbe43f35d	-0.19135804
45	0xbcea4993	-0.028599536
46	0xbe2ec4be	-0.17067239
47	0x3e53656a	0.20644155
48	0x3ea54ab7	0.32283565
49	0x3d913026	0.07089262
50	0xbe7f8154	-0.24951679
51	0x3d8bd5a5	0.06827859
52	0x3e020ec6	0.12700948
53	0x3d93ba67	0.07213288
54	0xbe09ce6e	-0.13457653
55	0xbadb8c7d	-0.0016750243
56	0x3ddec0ba	0.108766034
57	0xbe370129	-0.17871536
58	0x3eb5cfa7	0.3550999
59	0xbe8f0684	-0.2793466
60	0xbebdb12c	-0.37049234
61	0xbe5f63c2	-0.21815398
62	0xbe08f0ff	-0.13373183
63	0xbe6ef946	-0.23337278
64	0x3e1adfa3	0.15124373
65	0x3e75976c	0.23983544
66	0x3e9d4c7f	0.30722424
67	0x3e22dfd2	0.15905693
68	0x3cb234d5	0.021753708
69	0x3df1c168	0.118044674
70	0xbdb3c174	-0.08777133
71	0xbe0022d2	-0.12513283
72	0xbea05e50	-0.31321955
73	0x3e0b9451	0.13630797
74	0x3eae29ff	0.34016415
75	0x3e97dd20	0.29660892
76	0x3a7993be	0.00095206115
77	0xbd3458b2	-0.0440299
78	0xbe3c7ad4	-0.1840623
79	0xbeb8f706	-0.36125964
80	0x3df2cb2e	0.1185516
81	0x3ea2dcc7	0.31809065
82	0xbe3c8c88	-0.18412983
83	0x3de6a330	0.11261594
84	0xbddff33a	-0.10935064
85	0x3e4bf562	0.19917825
86	0x3eb36ea6	0.35045356
87	0xbd0995f2	-0.033590265
88	0x3ddd9e81	0.10821248
89	0xbeab9876	-0.33514756
90	0xbe6c5c18	-0.23082006
91	0x3e73aef7	0.23797213
92	0xbdad7fa0	-0.08471608
93	0x3daa5b48	0.08318192
94	0xbcd76ac6	-0.02629603
95	0x3d552802	0.052040108
96	0xbdc53ca0	-0.09630704
97	0x3e04833f	0.12940691
98	0x3e38dfe3	0.18054156
99	0x3e56e1f7	0.20984636
100	0x3e0c9539	0.13728799
101	0xbda2253f	-0.079172604
102	0xbe938fff	-0.28820798
103	0xbe180dfd	-0.14849086
104	0xbe6979d5	-0.22800381
105	0x3e82e264	0.25563347
106	0x3e6f9a17	0.23398624
107	0x3d956c31	0.072960265
108	0xbe62d63d	-0.22152038
109	0xbe66ab78	-0.22526348
110	0xbe68d133	-0.22736053
111	0xbb74b4ae	-0.0037339139
112	0x3e5a3ca9	0.21312203
113	0x3a0849ec	0.00051990035
114	0xbea8fe50	-0.33006525
115	0xbcafc1b9	-0.021454679
116	0xbe9b4ecb	-0.30333552
117	0xbe223d56	-0.1584371
118	0xbd9fbd03	-0.07799723
119	0x3dae35c2	0.08506347
120	0x3eaf0448	0.34182954
121	0xbe3d6dd2	-0.18498924
122	0x3eab1f22	0.3342219
123	0x3e0123dc	0.12611336
124	0x3e373798	0.17892301
125	0x3eb38b8e	0.3506741
126	0xbe7c9aa5	-0.24668367
127	0xbdf0f3a2	-0.11765219
128	0xbe312fbb	-0.17303364
129	0xbede2b8f	-0.43392608
130	0xbe8a99ea	-0.27070552
131	0x3e4b7a51	0.19870879
132	0x3d6e9b2e	0.05825346
133	0x3dcbea24	0.09956768
134	0x3e25cd6e	0.16191646
135	0x3be49e2a	0.0069768624
136	0x3ebae491	0.36502507
137	0xbe026971	-0.12735535
138	0x3e0ff4b8	0.14058197
139	0x3e44cee2	0.19219545
140	0x3e30607c	0.17224306
141	0xbdca19cf	-0.09868204
142	0xbd4c1671	-0.04982609
143	0xbe8d347f	-0.27579114
144	0xbe83eb30	-0.2576537
145	0x3e75b06b	0.2399308
146	0xbe95d8d6	-0.29266995
147	0xbdcc5e8a	-0.099789694
148	0x3dc74c5e	0.09731363
149	0x3c6de8ad	0.014520806
150	0x3cbce6bb	0.02305924
151	0xbdb3bdc6	-0.08776431
152	0xbc208672	-0.009797679
153	0x3e2a2d52	0.16618851
154	0xbe7c0788	-0.24612248
155	0x3ea780b2	0.32715374
156	0x3eab2f3e	0.3343448
157	0x3e998570	0.29984617
158	0x3daae556	0.083445236
159	0x3ebcafe6	0.3685295
160	0x3e1e578e	0.15463087
161	0xbe8692ee	-0.26283973
162	0xbc2cd0b9	-0.01054781
163	0xbd4d5ff7	-0.050140347
164	0xbe901931	-0.2814422
165	0xbe2af826	-0.16696224
166	0xbe4f183b	-0.20224087
167	0xbd9a5dc5	-0.07537416
168	0x3e45a26b	0.19300239
169	0x3ded81c5	0.11597017
170	0xbee3cc1f	-0.4449167
171	0x3eb7e36f	0.35915706
172	0xbe9e55e0	-0.30924892
173	0x3c084dd0	0.008319333
174	0x3e91aca8	0.2845204
175	0x3c25e009	0.010124215
176	0x3e6c1a41	0.2305689
177	0x3d6598b0	0.056053817
178	0xbe33da72	-0.17563799
179	0x3e81a42b	0.25320563
180	0xbdb19d68	-0.08672601
181	0x3e2489a0	0.16068125
182	0xbe704668	-0.23464358
183	0xbea2f524	-0.31827652
184	0xbe3b75ba	-0.18306628
185	0x3d42e6ed	0.04758351
186	0xbdadee92	-0.08492769
187	0xbea0b8ae	-0.313909
188	0xbbc74139	-0.006080773
189	0xbeccb81e	-0.3998422
190	0xbeab2cde	-0.33432668
191	0x3d46c806	0.0485306
192	0x3e3178ff	0.17331313
193	0xbd10a85b	-0.035316806
194	0xbdc97840	-0.09837389
195	0x3e5cc093	0.21557836
196	0x3e1a0dd1	0.15044333
197	0xbebd0dfa	-0.36924726
198	0x3e180a2a	0.14847627
199	0xbed33e11	-0.4125829
200	0xbd4fbea3	-0.050718915
201	0xbe1d73c0	-0.15376186
202	0xbd4e516e	-0.050370626
203	0xbda38b1a	-0.07985516
204	0x3d4f656d	0.050633837
205	0x3d4c49f1	0.049875204
206	0x3e51b4a9	0.20479073
207	0xbd5a2dd1	-0.05326635
208	0x3dba26d8	0.0908944
209	0x3eaeb3c8	0.34121537
210	0xbe051a94	-0.1299842
211	0x3dfa138b	0.12210759
212	0x3de89718	0.11356944
213	0xbe879230	-0.2647872
214	0x3d5ac2f9	0.053408597
215	0x3e4e4e95	0.20147164
216	0xbb6ca9b5	-0.0036111895
217	0xbe43a54b	-0.19106023
218	0x3e9cac1a	0.30600053
219	0x3e73bc24	0.23802239
220	0xbe61dc4f	-0.22056697
221	0xbec25d7e	-0.37961954
222	0x3d48590d	0.04891305
223	0xbe23e010	-0.16003442
224	0xbda59af3	-0.08086195
225	0xbd22ad18	-0.039715856
226	0x3cefccd1	0.029272469
227	0x3db8791d	0.090074755
228	0xbd3ab274	-0.045580342
229	0x3e96cf42	0.29455
230	0x3ec37c08	0.38180566
231	0xbc2f1a55	-0.01068743
232	0x3e1e4660	0.15456533
233	0x3e92dffb	0.2868651
234	0xbe74403a	-0.23852625
235	0x3e2ca2ed	0.16859026
236	0x3ebbd2ec	0.36684358
237	0x3e6e6469	0.23280491
238	0x3d867b7c	0.065665215
239	0xbe3604a0	-0.17775202
240	0xbd707f61	-0.058715228
241	0xbd038442	-0.032108553
242	0xbe399b0e	-0.18125555
243	0x3e8daf10	0.27672625
244	0xbdd9ff8a	-0.10644443
245	0x3dacb45d	0.08432839
246	0x3e031b61	0.12803413
247	0x3d03820a	0.032106437
248	0xbea5d51e	-0.32389158
249	0x3e582da3	0.21111159
250	0x3e4e0034	0.20117265
251	0xbde140e9	-0.10998709
252	0x3e49f533	0.19722442
253	0xbe095267	-0.1341034
254	0xbe8a89d0	-0.27058268
255	0x3dc2d15f	0.095125906

fc1.bias f4 [300]
0	0xbdab3bd0	-0.08361018
1	0x3e5071e8	0.20355952
2	0x3d05c0c0	0.032654524
3	0x3d2314a0	0.03981459
4	0xbe79573e	-0.24349687
5	0xbe6218cc	-0.22079772
6	0x3e03a069	0.1285416
7	0x3e61eb7f	0.22062491
8	0x3e684347	0.22681914
9	0xbd48de6f	-0.049040254
10	0x3d97f883	0.07420447
11	0x3e833fc4	0.25634587
12	0x3e7ee5f9	0.24892415
13	0xbe6316dd	-0.2217669
14	0xbe6c8fb6	-0.23101696
15	0xbe4a34ff	-0.19746779
16	0x3e458ad1	0.19291236
17	0xbd268e35	-0.040662963
18	0x3e3fc085	0.18725784
19	0x3dbd02d7	0.09229057
20	0xbd6dbdb7	-0.058042254
21	0x3d663f13	0.056212496
22	0xbd38de6b	-0.04513399
23	0xbe0bbd76	-0.13646492
24	0xbe581874	-0.21103078
25	0xbdb41963	-0.08793905
26	0xbde07bf7	-0.109611444
27	0x3d8e7367	0.06955605
28	0xbe010f87	-0.1260358
29	0xbe172afa	-0.14762488
30	0xbdc6ef7d	-0.097136475
31	0xbe4bfa49	-0.19919695
32	0x3e2c81b9	0.1684636
33	0x3e9004e7	0.2812874
34	0x3d7a2b0a	0.0610762
35	0x3bfbace1	0.007680521
36	0x3ce7216c	0.028214179
37	0xbdaf7160	-0.085665464
38	0x3e462184	0.19348723
39	0x3dc3c16e	0.09558378
40	0x3e5a2ded	0.21306582
41	0xbe96b130	-0.29432058
42	0xbd0493bd	-0.032367457
43	0x3d058fa7	0.0326077
44	0xbdde1cdb	-0.108453475
45	0xbe9377c1	-0.28802302
46	0x3e58094d	0.21097298
47	0x3d1fa51a	0.038975812
48	0x3e520b66	0.2051216
49	0xbe8fcdcb	-0.28086695
50	0x3e0d3458	0.13789499
51	0xbdeb32ee	-0.114843234
52	0x3db69e0f	0.08916866
53	0x3e5d3fe2	0.216064
54	0x3daee235	0.08539239
55	0x3d11ed77	0.035626855
56	0xbe2f19d5	-0.17099698
57	0xbd14c290	-0.03631836
58	0xbe172cba	-0.14763156
59	0x3e4d7e23	0.20067649
60	0xbb8b3ab8	-0.004248943
61	0xbe8ea465	-0.27859798
62	0xbc80ac27	-0.015707089
63	0xbd0d7a91	-0.034540717
64	0xbdf4ef43	-0.11959698
65	0xbd1f008b	-0.038818877
66	0xbe7125f3	-0.23549633
67	0xbe312eea	-0.17303053
68	0xbdd4289a	-0.10359307
69	0xbe7f96b2	-0.2495983
70	0x3c0c8721	0.008577139
71	0xbe822d57	-0.25425217
72	0x3dc8b3a1	0.097998865
73	0xbe6b5ec2	-0.22985366
74	0xbe7900bb	-0.24316685
75	0x3e861559	0.26188162
76	0xbeaf7d12	-0.3427511
77	0xbe008152	-0.12549332
78	0x3c982677	0.018573029
79	0xbd44034d	-0.04785471
80	0xbe30dbe5	-0.17271383
81	0xbdc8d246	-0.098057315
82	0xbe2c9aae	-0.1685588
83	0xbe34fdae	-0.17674896
84	0xbe67da53	-0.22641878
85	0x3defa56c	0.117014736
86	0x3dc69573	0.09696474
87	0xbe656d8c	-0.2240507
88	0xbdedb4f0	-0.11606777
89	0x3d82af21	0.063810594
90	0xbe591f18	-0.21203268
91	0xbcb62db9	-0.0222386
92	0xbdab9e1d	-0.08379767
93	0xbc273856	-0.010206303
94	0xbe72be71	-0.2370546
95	0xbdbd2d80	-0.09237194
96	0xbe48508b	-0.19561975
97	0x3e987da7	0.29783365
98	0x3e055e7a	0.13024321
99	0x3abbd74d	0.0014331132
100	0x3e88fc04	0.26754773
101	0xbe899ae3	-0.26875982
102	0xbd3834e1	-0.044972304
103	0xbdea7ce7	-0.114496045
104	0xbe0ecdd9	-0.13945712
105	0x3dd2f2e0	0.10300231
106	0x3e59c85f	0.21267842
107	0x3e842707	0.25811026
108	0x3e6f95c9	0.23396982
109	0xbd8aed0b	-0.067834936
110	0x3cc23650	0.023707539
111	0x3dfa4897	0.12220877
112	0x3e2bbe3c	0.16771787
113	0xbcf2bb01	-0.029630186
114	0x3e23b344	0.15986353
115	0x3e8b2c1b	0.27182087
116	0xbe1dd8e1	-0.15414764
117	0x3d8e5413	0.0694963
118	0x3e5212a9	0.20514931
119	0x3e18f6d2	0.14937904
120	0x3daa54a6	0.08316927
121	0x3d914195	0.07092587
122	0xbe0343ce	-0.12818834
123	0xbd95e5bb	-0.07319208
124	0x3d381aa8	0.044947296
125	0xbe38d359	-0.18049373
126	0xbcbb71b9	-0.022881376
127	0x3ec4c791	0.38433507
128	0xbe880f9c	-0.2657441
129	0x3e873d0a	0.26413757
130	0xbe034db4	-0.1282261
131	0xbe703eb4	-0.2346142
132	0x3e21d114	0.15802413
133	0xbd96a43f	-0.07355546
134	0x3e7202ad	0.23633833
135	0xbd303b07	-0.043025043
136	0x3d70cada	0.058787204
137	0x3e95d550	0.29264307
138	0xbcd806e2	-0.02637047
139	0xbddcdc92	-0.10784258
140	0x3e8081ff	0.2509918
141	0xbd3c8e6b	-0.046034258
142	0x3e103c2d	0.14085455
143	0x3e312b7f	0.17301749
144	0xbdcb643d	-0.09931228
145	0xbe502032	-0.20324782
146	0xbe4eb55b	-0.20186369
147	0xbdfd356a	-0.123637035
148	0x3b757bc0	0.0037457794
149	0x3dd3fa9a	0.10350533
150	0x3e873be3	0.26412877
151	0xbdc5fc22	-0.09667231
152	0xbe9183ae	-0.28420776
153	0x3d89b433	0.067238234
154	0x3d7175b2	0.058950134
155	0x3e12f139	0.14349832
156	0xbb98432f	-0.004646681
157	0x3e67393d	0.22580428
158	0xbd047530	-0.03233832
159	0xbe88d367	-0.26723787
160	0xbe805068	-0.25061345
161	0xbe8fe1d4	-0.2810198
162	0x3dca4b9a	0.09877701
163	0x3e32f6e0	0.17476988
164	0xbdbdc17e	-0.09265421
165	0x3d896d79	0.067103334
166	0xbe8bead3	-0.27327594
167	0xbe845962	-0.25849444
168	0x3e700803	0.23440556
169	0x3e53f712	0.20699719
170	0x3e3181cd	0.17334671
171	0xbe3989f9	-0.18119039
172	0xbe4a3ab5	-0.19748957
173	0x3e026fd3	0.1273797
174	0x3e3ef68d	0.18648739
175	0x3e96c27d	0.29445258
176	0xbe3c6fd2	-0.18402031
177	0x3e14f239	0.14545526
178	0xbe8bda3a	-0.2731493
179	0xbc22e299	-0.00994172
180	0x3d9c6317	0.076360874
181	0x3e70c620	0.23513079
182	0xbe3f01e3	-0.18653063
183	0x3d1db827	0.0385057
184	0x3de117fd	0.109909035
185	0xbe02996a	-0.12753835
186	0x3cd9ffe6	0.02661128
187	0xbe8754f3	-0.26432
188	0xbe511438	-0.20417869
189	0xbeb83565	-0.35978237
190	0xbe05385b	-0.13009779
191	0xbd85029f	-0.064946406
192	0xbe04eb71	-0.12980439
193	0xbdf814eb	-0.12113365
194	0x3d9ab491	0.075539716
195	0x3e187323	0.14887671
196	0xbe9fad2a	-0.311868
197	0xbe4eec45	-0.20207317
198	0xbe16dd31	-0.14732815
199	0xbe63960d	-0.22225209
200	0x3e43f12b	0.19134967
201	0x3dbf7b02	0.09349634
202	0x3dee9055	0.11648623
203	0x3e1b44f1	0.15163018
204	0x3e4b8623	0.19875388
205	0x3e751bc0	0.23936367
206	0x3d765d36	0.060147487
207	0xbe3a318b	-0.18182962
208	0x3dc653bb	0.09683939
209	0x3e0ffa67	0.14060365
210	0xbc9478ae	-0.01812395
211	0x3dbf2088	0.09332377
212	0x3e3ba9ac	0.18326443
213	0xbaf70d5d	-0.0018848587
214	0xbd407276	-0.04698416
215	0x3bc86d1c	0.0061165225
216	0xbe361b64	-0.17783886
217	0xbe53eebc	-0.20696539
218	0x3dae3ee1	0.08508087
219	0xbe209ceb	-0.1568486
220	0xbdbf0547	-0.093271784
221	0x3ca5c6f4	0.02023647
222	0x3e3e8750	0.18606305
223	0xbd7ac5f6	-0.061223947
224	0x3db740a9	0.0894788
225	0xbe229483	-0.15876965
226	0x3e593138	0.21210182
227	0x3cb967f4	0.022632577
228	0x3cfbbeae	0.030730572
229	0x3e0b255e	0.13588473
230	0x3da07b19	0.07835979
231	0xbd4ce7cc	-0.050025746
232	0x3e1cacc0	0.15300274
233	0x3de47025	0.11154202
234	0xbdf08e02	-0.11745836
235	0xbe16d02c	-0.14727849
236	0x3e385ef2	0.18004969
237	0x3d5cc240	0.05389619
238	0xbe65a56b	-0.22426383
239	0x3d30b334	0.04313965
240	0x3dd11005	0.102081336
241	0xbde3a81c	-0.11116049
242	0xbe3c8355	-0.18409474
243	0xbe8297ae	-0.25506347
244	0x3e37df28	0.17956221
245	0x3e6b6073	0.22986011
246	0xbe0fb8d0	-0.14035344
247	0xbe24a82d	-0.16079779
248	0xbe62bb8f	-0.2214186
249	0xbe5438a6	-0.20724735
250	0x3db5e40c	0.08881387
251	0xbe8b0c80	-0.27157974
252	0xbe999df4	-0.3000332
253	0x3e0a505a	0.13507214
254	0x3e75899d	0.23978277
255	0x3bc8853a	0.0061193975

fc2.weight f4 [300, 300]
0	0xbe147b4e	-0.14500162
1	0x3da7d576	0.08195011
2	0x3d5e6d48	0.054303437
3	0xbdbf6f0d	-0.09347353
4	0xbdd269f4	-0.10274115
5	0x3e426c02	0.18986514
6	0xbd7116b3	-0.05885954
7	0xbe17627e	-0.14783666
8	0xbdb94b35	-0.09047548
9	0xbd125643	-0.035726797
10	0x3d541b08	0.05178359
11	0x3d2b0a12	0.04175765
12	0x3dd3e92c	0.103472084
13	0x3c5da1f8	0.013527386
14	0xbc89f312	-0.016839538
15	0x3ca1a52b	0.019732079
16	0xbbd4232e	-0.0064739203
17	0xbf0c1e8c	-0.5473411
18	0x3e00f20b	0.12592332
19	0x3ddeeb30	0.10884702
20	0x3c886861	0.016651334
21	0x3d49111b	0.04908858
22	0x3ceb70e0	0.028740346
23	0x3d643c09	0.055721316
24	0xbde6033f	-0.11231088
25	0x3c215e6f	0.009849175
26	0x3c0ef5b9	0.008725577
27	0x3dbceb5d	0.092245795
28	0x3c87f220	0.016594946
29	0x3e6b0190	0.22949815
30	0xbd22bbc7	-0.03972986
31	0xbc3a8131	-0.011383341
32	0x3d529723	0.051413666
33	0x3da8b2c5	0.082372226
34	0xbdb1d2c0	-0.086827755
35	0xbc9ceb87	-0.019155277
36	0xbdb3ba24	-0.08775738
37	0xbc789c77	-0.015174023
38	0x3e59390e	0.21213171
39	0x3c6e0f02	0.014529945
40	0x3d1e4725	0.038642067
41	0x3e139b2b	0.1441466
42	0xbb967907	-0.0045920643
43	0x3d9ed956	0.07756297
44	0x3d3bc604	0.04584314
45	0x3b305121	0.0026903825
46	0x3d8ab487	0.06772714
47	0xbd0302d0	-0.031985104
48	0xbe55b773	-0.20870762
49	0xbb94526c	-0.004526427
50	0x3da88e84	0.08230308
51	0x3df515bb	0.119670354
52	0x3d91810d	0.071046926
53	0x3dc59ed8	0.09649438
54	0xbd42e3aa	-0.0475804
55	0xbe2cb4bf	-0.16865824
56	0xbd2d234b	-0.042269986
57	0x3d0e37a7	0.034721043
58	0x3d105c46	0.03524425
59	0x3e06e163	0.13171916
60	0xbe0a5796	-0.13509974
61	0xba9bf68b	-0.0011899037
62	0xbd2d7a3c	-0.0423529
63	0x3d60f978	0.054925412
64	0xbd53debc	-0.051726088
65	0xbcc31956	-0.023815792
66	0x3d84c5ea	0.064830616
67	0x3e5f7e16	0.21825442
68	0x3cc6a1b1	0.024247022
69	0x3d081eaf	0.033232387
70	0xbd43c800	-0.047798157
71	0x3d83425c	0.064091414
72	0x3d2d7063	0.04234351
73	0x3d498f13	0.04920871
74	0xbd21725e	-0.03941571
75	0xbe3f3533	-0.18672638
76	0xbe0df363	-0.13862376
77	0xbe29b339	-0.16572274
78	0xbdb18625	-0.08668164
79	0xbd9d9f84	-0.07696441
80	0x3d4f10c2	0.05055309
81	0xbca9d17b	-0.02072977
82	0xbda1ef92	-0.079070225
83	0x3e09b1dc	0.13446754
84	0x3e12742d	0.1430213
85	0xbd27e238	-0.040987223
86	0x3cedfd68	0.029051498
87	0xbcb4978e	-0.022044923
88	0xbe03dd64	-0.12877423
89	0xbd9a66f1	-0.07539166
90	0xbd785122	-0.06062425
91	0xbd45ac3b	-0.048259955
92	0xbe0499a6	-0.12949237
93	0x3c97de98	0.018538758
94	0x3d8068dd	0.06270001
95	0x3c627a2b	0.013823072
96	0x3debdbe3	0.115165494
97	0x3d97c0e5	0.074098386
98	0x3924de26	0.00015723016
99	0xbd9ebcc4	-0.07750848
100	0xbdd59302	-0.1042843
101	0xbce499cc	-0.027905367
102	0x3b90eb03	0.004422547
103	0x3c9a8f81	0.018867256
104	0xbdfbf023	-0.12301662
105	0x3d260c18	0.040538877
106	0xbd999b1b	-0.07500287
107	0x3d80df59	0.062926
108	0x3e348571	0.17629029
109	0x3e2c7975	0.16843207
110	0xbc0cae8e	-0.008586539
111	0xbcb8bacf	-0.022550015
112	0x3dc0d89b	0.09416314
113	0x3bef0f2a	0.007295509
114	0xbd86eec5	-0.065885104
115	0x3d3ad96b	0.045617502
116	0x3c7dd87f	0.015493511
117	0xbd043c5b	-0.032284122
118	0xbd1875e6	-0.03722181
119	0x3cb89cb2	0.022535656
120	0x3d4c7078	0.049911946
121	0xbd79f57a	-0.06102512
122	0x3d91ac1e	0.07112907
123	0x3d42720d	0.04747205
124	0x3de2175f	0.11039614
125	0x3d93eb2f	0.07222592
126	0xbde69665	-0.11259154
127	0x3dd8e6e0	0.10590911
128	0xbd57af5e	-0.052657478
129	0x3da86d4f	0.08223974
130	0x3d58b8e4	0.0529107
131	0xbc614118	-0.01374843
132	0x3b2007c1	0.0024418684
133	0xbdefb2d6	-0.11704032
134	0xbd539717	-0.051657762
135	0x3a2598c3	0.0006317014
136	0x3c17fb02	0.0092761535
137	0x3d1a059c	0.037603006
138	0x3da8e385	0.08246521
139	0x3e0d112b	0.1377608
140	0x3acb21d4	0.0015497752
141	0x3d08b8f5	0.033379514
142	0x3a1723ee	0.0005765547
143	0x3c84d98a	0.016217012
144	0x3d856bdf	0.065147154
145	0xbd62af89	-0.055343185
146	0x3e7de6c0	0.24795055
147	0x3c463ccc	0.012099456
148	0xbd0345f0	-0.03204912
149	0xbce8e139	-0.028427707
150	0x3db48162	0.0881374
151	0x3d763a00	0.060113907
152	0xbdb8247c	-0.08991334
153	0xbd9e5e09	-0.077327795
154	0xbda3646d	-0.07978139
155	0x3ce300a7	0.027710272
156	0x3d2bff7d	0.0419917
157	0x3d09d0cd	0.033646394
158	0x3e0b50e4	0.13605076
159	0x3c11dbae	0.008902473
160	0x3e7091f9	0.23493184
161	0x3d784452	0.06061203
162	0xbe1fbbf6	-0.15599045
163	0x3cbc2151	0.022965105
164	0xbe79b832	-0.24386671
165	0x3d4e1960	0.05031717
166	0x3da80a7c	0.08205125
167	0xbd67e131	-0.056611244
168	0xbdb65d2c	-0.0890449
169	0xbdc5bc00	-0.09654999
170	0x3d5bfdfb	0.05370901
171	0xbead00fd	-0.33789816
172	0x3cc419d5	0.023938099
173	0xbd5b39c8	-0.0535219
174	0xbd52927d	-0.051409233
175	0xbd98f79c	-0.07469103
176	0xbcf22c02	-0.029562
177	0xbb41123c	-0.0029460331
178	0x3d3dea0f	0.046365794
179	0xbcdd3c56	-0.02700631
180	0x3e594f09	0.21221556
181	0x3d2746f8	0.040839165
182	0xbd410aad	-0.04712932
183	0x3d54cef0	0.051955163
184	0xbab25de9	-0.001360831
185	0xbcf3c845	-0.029758582
186	0xbd07f5b5	-0.03319331
187	0x3dfad437	0.12247508
188	0x3e013ce8	0.1262089
189	0xbd3338aa	-0.04375521
190	0x3e127fd1	0.1430657
191	0xbf0425ed	-0.5162037
192	0x3d5b2cce	0.053509526
193	0xbe49d749	-0.19711031
194	0x3dc08e6a	0.09402163
195	0x3d96d86c	0.07365498
196	0x3c9c9009	0.01911165
197	0x3c6cdd82	0.014457108
198	0x3b754602	0.003742576
199	0xbd7ddc85	-0.061977882
200	0xbd2c28a0	-0.04203093
201	0xbe108355	-0.14112599
202	0x3dd96c1e	0.10616325
203	0x3d2e38b9	0.042534564
204	0xbbb4388d	-0.0054999054
205	0xbd50e101	-0.05099583
206	0xbc926b65	-0.017873475
207	0xbbe2c387	-0.0069202813
208	0x3d662701	0.05618954
209	0x3cc7421c	0.024323516
210	0x3cf1553a	0.029459585
211	0x3d239128	0.039933354
212	0xbd9da505	-0.076974906
213	0x3b410176	0.0029450334
214	0x3e0117df	0.12606762
215	0xbd8eff6c	-0.069823116
216	0x3d646472	0.055759855
217	0x3c28d58a	0.010304818
218	0x3dc8da75	0.09807292
219	0x3d54e0c9	0.051972184
220	0xbd9685f9	-0.07349772
221	0xbc28dfba	-0.010307247
222	0x3cf6de14	0.030135192
223	0xbd8c9ca0	-0.06865811
224	0x3c41e351	0.011833982
225	0x3e046d77	0.12932383
226	0x3cb02cc6	0.021505725
227	0xbd05b9c3	-0.03264786
228	0x3d464f29	0.048415337
229	0xbbfb808f	-0.0076752375
230	0xbd59bdd7	-0.05315956
231	0xbd83c38e	-0.064337835
232	0x3d19cda8	0.037549645
233	0x3dcf55a0	0.101237535
234	0xbd931c30	-0.07183111
235	0x3e2bf5ee	0.16793033
236	0x3e34385c	0.17599624
237	0xbcd59aea	-0.026074845
238	0x3d8bc1f8	0.06824106
239	0xbdcf577a	-0.10124107
240	0x3dc607db	0.09669467
241	0xbd33b01e	-0.04386913
242	0x3da2cdea	0.07949431
243	0x3ca1af34	0.019736864
244	0x3c80721b	0.01567941
245	0xbd16b0cf	-0.03678971
246	0xbd49c260	-0.049257636
247	0x3d213965	0.039361376
248	0x3d820ed6	0.06350486
249	0xbde3be6b	-0.11120304
250	0xbc8ab596	-0.01693229
251	0xbd45e5be	-0.048314802
252	0x3c80b165	0.015709588
253	0x3cfcda48	0.030865803
254	0xbd37e5d0	-0.0448969
255	0xbbd6254e	-0.006535209

fc2.bias f4 [300]
0	0xbc484449	-0.012223312
1	0xbce15154	-0.0275046
2	0xbcd21bac	-0.02564796
3	0x3c917503	0.01775599
4	0xbcd376d2	-0.025813494
5	0x3ceb1176	0.02869485
6	0xbd0423ad	-0.032260586
7	0xbd33297a	-0.043740727
8	0xbd7a2f23	-0.06108011
9	0x3b78ed3f	0.0037983207
10	0xbcfc2192	-0.030777726
11	0x3d1b72d9	0.037951324
12	0xbd78ddd6	-0.060758434
13	0x3d11ea2b	0.03562371
14	0x3ce87fcc	0.02838125
15	0x3cba3d8e	0.02273443
16	0x3c915c84	0.01774431
17	0xbca9f9a9	-0.02074893
18	0xbc3594be	-0.011082826
19	0xbc21a802	-0.009866716
20	0xbcb7d6de	-0.022441324
21	0x3c6f44a6	0.014603769
22	0x39973695	0.0002884163
23	0x3d2dc142	0.042420633
24	0xbc7acffe	-0.015308378
25	0xbc0ff03c	-0.008785304
26	0xbdb458d6	-0.088060066
27	0xbcf1d06b	-0.029518327
28	0xbcf69bd6	-0.030103605
29	0xbb0fcf8e	-0.002194378
30	0x3c3ff5d6	0.011716327
31	0xbc8f1859	-0.017467665
32	0xbd0d8642	-0.034551866
33	0xbd0987bc	-0.033576712
34	0xbbdb8941	-0.0066997116
35	0xbd61d307	-0.055132892
36	0xbd15a662	-0.03653563
37	0x3d501f00	0.050810814
38	0x3cfaafbd	0.030601377
39	0x3ce6f483	0.028192764
40	0xbd1200fe	-0.035645477
41	0x3c978e6d	0.018500531
42	0x3cf5dd5d	0.03001278
43	0x3cb6c961	0.022312822
44	0xbcbf3d11	-0.023344548
45	0xbcdf5385	-0.027261505
46	0x3cea6320	0.02861172
47	0xbd354443	-0.044254553
48	0x3d18a2fe	0.037264816
49	0x3d5a2df5	0.053266484
50	0xbc9c852e	-0.019106474
51	0x3d545611	0.05183989
52	0xbcefbe72	-0.029265616
53	0xbcf0e4e0	-0.029406011
54	0xbd6dfdce	-0.058103375
55	0xbcf7b630	-0.030238241
56	0xbcf38abd	-0.029729242
57	0xbc3e79dd	-0.011625734
58	0x3ba33500	0.0049806833
59	0x3caf0e98	0.021369264
60	0xbd31425b	-0.043276172
61	0xbc0b1edc	-0.008491244
62	0xbd20c40b	-0.03924946
63	0x3ce27e19	0.027648019
64	0xbd405e3b	-0.046964865
65	0xbbf8645c	-0.007580323
66	0x3d7286e8	0.059210688
67	0xbcd92661	-0.026507558
68	0x3c213508	0.009839304
69	0xbd6bb784	-0.05754806
70	0x3d4272d0	0.047472775
71	0x3d67288d	0.056435157
72	0xbc8dccd3	-0.017309582
73	0xbb825438	-0.003977325
74	0x3d2cf5e7	0.0422267
75	0x3c379b77	0.011206499
76	0xbbd45a2a	-0.006480475
77	0xbc9a168e	-0.018809583
78	0xbb203f73	-0.0024451881
79	0x3d035238	0.03206083
80	0x3d348881	0.044075493
81	0xbcf82775	-0.030292252
82	0xbd2e8fd2	-0.042617626
83	0xbcc6f6ca	-0.0242876
84	0x3c9c2c74	0.019064166
85	0x3d12a2f8	0.03579995
86	0xbd0f0cea	-0.034924425
87	0x3d1baf2f	0.038008865
88	0xbc2432b8	-0.010021858
89	0x3d452904	0.04813482
90	0xbd4816b4	-0.048849776
91	0xbd718525	-0.058964867
92	0x3ce2cb1b	0.027684739
93	0x3d45e348	0.048312455
94	0x3c5cc1d6	0.013473948
95	0x3cf54d50	0.029944092
96	0x3bc59493	0.0060296743
97	0x3d37f462	0.044910796
98	0x3ae107d6	0.0017168473
99	0xbd2d283d	-0.042274702
100	0xbd3811b2	-0.04493875
101	0x3d44f142	0.048081644
102	0x3d219da8	0.039456993
103	0x3d5dc6b8	0.05414459
104	0xbc34125b	-0.010990704
105	0xbc8d4c82	-0.017248396
106	0x3d526a6e	0.05137103
107	0xbd23b086	-0.039963268
108	0x3d1ca704	0.038245216
109	0x3d70615f	0.05868661
110	0xbc8b1fdf	-0.01698297
111	0xbc2d8763	-0.010591361
112	0x3c293c5d	0.010329333
113	0xbd1bfe25	-0.038084168
114	0x3cbe4b5c	0.023229294
115	0xbd7146fd	-0.05890559
116	0x3c9bcfe6	0.019020032
117	0x3c606d0a	0.013697872
118	0x3cd35e16	0.0258017
119	0x3c083663	0.008313748
120	0xbbd02fde	-0.0063533625
121	0x3a8d2ce3	0.0010770824
122	0x3d0f1cef	0.034939703
123	0x3aebd2f9	0.0017991952
124	0xbd3dee62	-0.046369918
125	0x3d83e950	0.06440985
126	0x3d81bcd8	0.06334847
127	0xbcc89be3	-0.024488395
128	0xba5577ae	-0.0008143139
129	0xbd4ccb67	-0.049998667
130	0xbc35f8c4	-0.011106674
131	0x3ce46705	0.027881155
132	0xbd751861	-0.059837703
133	0x3caada7b	0.020856133
134	0x3d2abe73	0.041685533
135	0xbccac6d3	-0.02475301
136	0xbc7fce02	-0.015613081
137	0x3d51998c	0.051171824
138	0x3bc99b72	0.0061525637
139	0xbd0ea89d	-0.03482877
140	0x3d9318a7	0.071824364
141	0x3cede10a	0.029037971
142	0xbd3d0d04	-0.04615499
143	0xbca9eb28	-0.020742014
144	0x3bd1e7bc	0.0064057987
145	0xbd42273e	-0.047400706
146	0x3c61702d	0.013759655
147	0xbd3b9e87	-0.04580548
148	0xbcc0baa8	-0.023526505
149	0x3c2016b4	0.009771038
150	0x3caa7f4d	0.020812655
151	0x3b9f43b1	0.0048603644
152	0x3d23f2af	0.040026363
153	0xbd45139f	-0.048114415
154	0x3d3a4536	0.04547616
155	0x3b965ab8	0.0045884512
156	0x3ce81437	0.028329952
157	0x3cc5e2d6	0.024156015
158	0x3cb27985	0.02178646
159	0x3d48697c	0.048928723
160	0x3c6ba401	0.014382363
161	0x3d8c5471	0.068520434
162	0xbb7d72ee	-0.003867324
163	0xbd3c539f	-0.045978185
164	0x3d4b64ac	0.049656555
165	0xbb5b2bce	-0.0033442858
166	0x3d741a47	0.059595373
167	0x3b861ebe	0.00409302
168	0xbd97bcc1	-0.07409049
169	0x3ccb9001	0.02484894
170	0xbd7224d6	-0.05911716
171	0x3b4086a5	0.002937713
172	0xbcf8f150	-0.030388504
173	0x3ce9133c	0.028451554
174	0x3cc56c3b	0.02409946
175	0x3c517a97	0.012785575
176	0x3c574543	0.013139072
177	0x3c394515	0.011307974
178	0xbd09d1ec	-0.033647463
179	0x3d693f01	0.05694485
180	0x3c1d3b06	0.009596592
181	0x3cf7d168	0.03025122
182	0x3d1eff58	0.038817734
183	0x3c0defb1	0.008663104
184	0xbbd1f9a0	-0.0064079314
185	0xbb8cc524	-0.004295962
186	0x3d8a7db4	0.06762257
187	0xbd2a3fe4	-0.041564837
188	0x3c43be45	0.011947219
189	0x3a82ed88	0.0009989003
190	0xbb8673b8	-0.00410315
191	0x3d27222e	0.04080408
192	0x3d0d60e6	0.034516238
193	0xbc860989	-0.016361969
194	0xbca98534	-0.020693399
195	0x3cc35f66	0.0238492
196	0xbcb6a764	-0.022296615
197	0x3b581ff7	0.0032978037
198	0xbc65f997	-0.014036558
199	0xbc2fa46a	-0.010720352
200	0xb7cd1cb5	-2.4451272e-05
201	0xbd7a18f0	-0.06105894
202	0x3b8c561c	0.004282726
203	0xbc975c6d	-0.01847669
204	0x3ce8e9d2	0.028431807
205	0x3baf835c	0.0053562354
206	0xbd57e7bf	-0.052711245
207	0x3d96d372	0.07364549
208	0xbcbbe532	-0.022936437
209	0x3d7d4b9f	0.061839696
210	0xbd369085	-0.04457142
211	0xb888da4e	-6.525648e-05
212	0x3d07bfb0	0.03314179
213	0xbced5dc7	-0.02897538
214	0x3c9435ab	0.018091997
215	0xbbd3e5eb	-0.0064666173
216	0x3d09bb50	0.0336259
217	0xbc890bec	-0.016729318
218	0xbd2135c3	-0.03935791
219	0xbd423258	-0.047411293
220	0x3d0d49c8	0.03449419
221	0x3d3a77c8	0.04552439
222	0x3c9a83f8	0.018861756
223	0x3c95c042	0.018280152
224	0xbd13835d	-0.03601395
225	0xbd3143b6	-0.043277465
226	0xbd839fcf	-0.064269654
227	0xbc7695d6	-0.015050372
228	0x3ce427da	0.027851034
229	0x3d2d68a0	0.042336106
230	0x3d88ff13	0.066892765
231	0x3d10b4ba	0.035328604
232	0x3c99b7e5	0.018764446
233	0x3d64f631	0.05589885
234	0x3d1e5719	0.03865728
235	0x3c93d2a8	0.018044785
236	0xbb616c75	-0.003439692
237	0x3c0b4fe8	0.008502938
238	0x3d129b7a	0.035792805
239	0xbc893d32	-0.016752813
240	0xbb2c6a92	-0.0026308638
241	0xbd248dbb	-0.040174227
242	0x3d6d5ef0	0.057951868
243	0x3cf944c1	0.030428292
244	0x3d186170	0.0372023
245	0x3c5c5a41	0.013449253
246	0xbcfe7ab1	-0.031064363
247	0xbd74995a	-0.05971656
248	0x3d851ac8	0.06499249
249	0x3d3dd37c	0.046344265
250	0xbd3ac7bb	-0.045600634
251	0x3b3f21e5	0.002916449
252	0x3c8fa4d6	0.017534655
253	0xbd253fba	-0.040343978
254	0x3d7006ad	0.058600117
255	0xbabda130	-0.0014467593

fc3.weight f4 [1, 300]
0	0xbe10ed2f	-0.14152978
1	0x3dd18366	0.102301404
2	0xbe70861c	-0.23488659
3	0x3d626d6b	0.05528013
4	0x3f116fc3	0.5681116
5	0xbdd3b45b	-0.103371345
6	0x3ef217fa	0.47283918
7	0x3e142190	0.14465928
8	0x3cbda990	0.023152143
9	0x3ea4c4b9	0.32181337
10	0x3daad60a	0.08341606
11	0xbd69621d	-0.056978334
12	0xbd3fe99e	-0.046853654
13	0xbe81d8ce	-0.2536072
14	0xbd690509	-0.056889568
15	0x3e13c8ef	0.14432119
16	0x3d9a057f	0.075205795
17	0xbc8cf1eb	-0.0172052
18	0xbcb2ed2e	-0.021841612
19	0xbd14dd89	-0.036344085
20	0xbd071abe	-0.032984488
21	0x3d853d8b	0.06505879
22	0xbd5777a0	-0.052604318
23	0xbd464e70	-0.048414648
24	0x3c85c8a9	0.016331034
25	0xbd2bf283	-0.041979324
26	0x3e48069a	0.19533768
27	0x3dc04c85	0.09389595
28	0xbdcf02e7	-0.101079755
29	0xbc758749	-0.014985868
30	0x3df6a358	0.12042874
31	0xbdcb07db	-0.09913608
32	0x3d655db8	0.05599758
33	0x3da7c41b	0.08191701
34	0x3d23ae30	0.03996104
35	0x3ac7b679	0.0015236876
36	0x3dac0c9f	0.08400845
37	0xbbfad356	-0.0076545877
38	0x3e2f533a	0.17121592
39	0xbd04d9fe	-0.032434456
40	0x3d9ba462	0.07599713
41	0x3c9a91af	0.018868295
42	0xbe279ea5	-0.16369112
43	0xbcf89ac5	-0.030347237
44	0xbbc05ec4	-0.005870672
45	0xbcffcb76	-0.031224947
46	0xbbe2ffa8	-0.0069274493
47	0xbe7b58b8	-0.24545562
48	0x3ed389a6	0.41315955
49	0x3df3b0de	0.11898969
50	0x3db7d1af	0.08975541
51	0xbdb24fe7	-0.087066464
52	0x3efdf1fa	0.49598676
53	0x3dbd0965	0.092303075
54	0x3e4a19e9	0.19736446
55	0xbd9357e1	-0.07194496
56	0xbccbe04c	-0.024887227
57	0xbe83d208	-0.2574618
58	0x3d56b3b7	0.052417483
59	0x3dbb2258	0.0913741
60	0x3f5b9b20	0.85783577
61	0x3d7bdf1b	0.061492067
62	0x3d510591	0.0510307
63	0xbdc90363	-0.09815099
64	0xbdd93118	-0.10605067
65	0x3ec1ad9f	0.37827775
66	0xbe79a650	-0.2437985
67	0xbd5477df	-0.05187213
68	0xbe5189cc	-0.20462722
69	0xbd32c122	-0.043641217
70	0xbce89f75	-0.028396348
71	0x3e06beec	0.13158768
72	0xbcaca0c4	-0.021072753
73	0xbe4f001e	-0.20214888
74	0xbd0e4e38	-0.034742564
75	0x3b10e9bc	0.0022111973
76	0x3dd8c12e	0.10583721
77	0xbda9ddd4	-0.082942635
78	0x3e832833	0.25616607
79	0xbe7a4c06	-0.24443063
80	0x3d9996ad	0.07499442
81	0x3eb2dd83	0.34934625
82	0xbe27f658	-0.16402566
83	0xbd66cfe5	-0.056350607
84	0x3e940aac	0.28914392
85	0x3e04c485	0.12965591
86	0x3dc17f41	0.094481
87	0xbd085ddf	-0.033292647
88	0xbd22bc9b	-0.03973065
89	0x3d9de80d	0.07710276
90	0xbd255770	-0.04036659
91	0x3b38e3e8	0.0028212015
92	0x3f3de3a9	0.74175507
93	0x3dc69d90	0.096980214
94	0x3ef379f7	0.4755399
95	0xbdee2943	-0.11628964
96	0x3e4a2568	0.19740832
97	0x3f13d3ee	0.57745254
98	0xbc74f268	-0.014950372
99	0x3dec6b25	0.11543874
100	0x3de8749a	0.11350365
101	0xba8b1f71	-0.0010614229
102	0xbe259f25	-0.1617399
103	0xbe861b17	-0.26192543
104	0xbe02c69b	-0.12771074
105	0x3d8961f7	0.067081384
106	0x3f377c34	0.71673894
107	0xbe9e9097	-0.30969688
108	0xbd9c10d5	-0.07620398
109	0x3def35ea	0.11680205
110	0x3db1a06c	0.08673176
111	0xbe5eff5a	-0.21777096
112	0x3d64e42f	0.055881675
113	0xbe2717fb	-0.16317742
114	0x3dbfeb24	0.093710214
115	0xbea23da6	-0.3168766
116	0xbc7cdd67	-0.015433646
117	0x3e05ddd7	0.13072906
118	0xbe5b5497	-0.21418987
119	0xbe846089	-0.258549
120	0xbcfcef47	-0.030875815
121	0x3d7c39ff	0.061578747
122	0xbc901567	-0.01758833
123	0xbd988657	-0.07447498
124	0x3ed72c0d	0.42025796
125	0x3d7290b0	0.059220016
126	0x3e241353	0.16022997
127	0x3db970aa	0.09054692
128	0x3f3ae3fd	0.7300413
129	0xbd328756	-0.043586098
130	0x3e03a9d2	0.1285775
131	0x3e006953	0.12540178
132	0xbca9cfaa	-0.020728905
133	0xbdd0b6ae	-0.101910934
134	0xbe3695ee	-0.17830631
135	0xbc0a4e3e	-0.008441506
136	0xbd804d7d	-0.0626478
137	0xbe69610c	-0.22790927
138	0x3f23d1f1	0.6399222
139	0x3ee885fe	0.45414728
140	0xbd94e15a	-0.07269545
141	0xbd893c1e	-0.067009196
142	0xbca4e9f3	-0.020131087
143	0xbdfa46c4	-0.12220529
144	0x3f5c7e7f	0.8613052
145	0x3dbef5e0	0.09324241
146	0x3d99bdfc	0.0750694
147	0xbdcf1e28	-0.10113174
148	0xbe54cf16	-0.20782122
149	0x3e79d50d	0.24397679
150	0xbc0b33b9	-0.008496218
151	0x39eb64ea	0.0004489788
152	0xbd833c6e	-0.064080104
153	0xbca70e71	-0.020392628
154	0x3d977358	0.07395047
155	0x3eb7ccd7	0.35898468
156	0xbd04e62c	-0.03244607
157	0x3dbb96af	0.091596
158	0xbea9e8e4	-0.33185494
159	0xbce8eb5f	-0.028432546
160	0xbe9b3662	-0.30314928
161	0x3ddfa6d8	0.10920495
162	0xbe2c9814	-0.16854888
163	0xbd54683e	-0.051857226
164	0x3cbb8ffb	0.022895804
165	0x3de21032	0.11038245
166	0x3dbcccd1	0.09218753
167	0xbe7b46ff	-0.24538802
168	0xbef5bf09	-0.4799731
169	0xbd83da15	-0.0643808
170	0x3f3984da	0.7246834
171	0xbc8c9aa7	-0.017163588
172	0x3df29327	0.11844473
173	0xbd2fb6b4	-0.04289885
174	0x3d0a0cdf	0.03370368
175	0xbc2824e8	-0.010262705
176	0x3e1d391a	0.15353814
177	0xbd21c70b	-0.039496463
178	0xbd02154c	-0.03175859
179	0x3e00e480	0.12587166
180	0x3e6a5c71	0.22886826
181	0x3f0987c3	0.5372278
182	0xbbfd1261	-0.007723138
183	0xbd31f6c0	-0.04344821
184	0x3f3e3951	0.7430621
185	0xbe6aec12	-0.22941616
186	0xbdc6ce5f	-0.09707331
187	0x3db2290d	0.08699236
188	0xbe53d31e	-0.20686004
189	0x3db0419e	0.086062655
190	0x3d43fd69	0.047849093
191	0xbd6d48ba	-0.057930686
192	0xbe0f39f7	-0.13986956
193	0x3da893a3	0.082312845
194	0xbd29cee9	-0.04145709
195	0x3df1b66d	0.11802373
196	0x3df6f569	0.12058527
197	0x3d7dc551	0.061955754
198	0x3eb0e94d	0.34552994
199	0xbd45f894	-0.048332766
200	0xbf021dd4	-0.50826764
201	0x3e4b4615	0.19850953
202	0x3d41b6b4	0.04729338
203	0xbd4b00ad	-0.04956119
204	0xbe44855a	-0.19191495
205	0x3ed17a82	0.4091378
206	0xbe39ec9d	-0.18156667
207	0xbe45c27d	-0.19312473
208	0x3f07e489	0.5308309
209	0xbcac983d	-0.021068687
210	0xbd522b68	-0.051310927
211	0xba02c540	-0.0004988499
212	0xbd8c001b	-0.068359576
213	0xbe0dad02	-0.13835528
214	0xbc6bc404	-0.0143899955
215	0xbdc4afdb	-0.09603854
216	0x3de39ec8	0.111142695
217	0x3d9e55a1	0.07731176
218	0x3dcee453	0.10102143
219	0x3d7158bb	0.05892251
220	0xbd06b612	-0.03288848
221	0x3d6d996f	0.058007654
222	0xbd0e1439	-0.034687255
223	0x3e4f5b09	0.20249571
224	0xbe655a16	-0.22397646
225	0x3f644415	0.89166385
226	0x3e4ee859	0.20205821
227	0x3dc4418d	0.09582815
228	0x3de0dd5e	0.109797224
229	0xbd4169a3	-0.047219884
230	0xbd3581ce	-0.044313245
231	0x3df5b2b3	0.11996975
232	0x3d526cf5	0.05137344
233	0x3db896bb	0.090131246
234	0x3e104073	0.14087085
235	0x3e4046e6	0.18777046
236	0xbe02c21f	-0.12769364
237	0x3d0152e7	0.031573202
238	0xbb4dd127	-0.0031405182
239	0x3f2a4f4f	0.66527265
240	0x3d83a113	0.06427207
241	0xbd43aac2	-0.04777027
242	0x3db096b9	0.08622498
243	0x3f413623	0.7547323
244	0xbe6308ed	-0.22171374
245	0x3e45a65f	0.19301747
246	0xbd83e8bc	-0.06440875
247	0xbda7d044	-0.081940204
248	0xbd262374	-0.040561154
249	0x3decc3a0	0.1156075
250	0x3d980fa6	0.0742486
251	0x3d79b8ad	0.060967136
252	0xbd258c48	-0.040416986
253	0x3d479e1b	0.048734765
254	0x3d0c05e7	0.034185316
255	0x3d9fffc8	0.07812458
