save/lsqmobilenetv2_cifar100_ratio0356bit26fratio0431rs0/critic.pkl (torch, 380421 bytes, 7 tensors)

fc11.weight f4 [300, 10]
-0.17784111 0.051640168 -0.56266475 -0.01285393 -0.3946945 -0.415861 -0.45188698 -0.10926124
-0.53024393 -0.30452526 -0.1945571 -0.2677431 0.28730384 0.059134115 0.20857166 0.061266232
0.08192721 0.092973985 -0.15443802 -0.27472118 0.20042641 -0.03181161 -0.098459564 0.13246283
0.26377392 -0.07301154 -0.31117627 -0.075746045 -0.17181605 -0.3380205 0.15930557 -0.013226244
-0.23400025 -0.0012394869 0.19994012 0.1713707 0.051299185 0.12319669 -0.08760401 0.11828323
0.043813895 0.18982966 -0.42340478 0.07715724 0.19805619 -1.2353725 0.18307859 -0.2482201
-0.15571363 0.07697517 -0.36181122 0.58866596 0.14438148 -0.85531974 -0.54613066 0.5737851
-0.51896274 0.102959834 -0.006784116 0.5982812 0.28533277 0.24756905 -0.28120232 -0.05405889
0.09557446 0.043063648 -0.022140974 0.08238022 0.2888928 0.05398549 0.06311597 0.41549104
-1.050988 -0.044294283 -0.34774712 -0.71582276 0.24123828 0.041412525 0.3194802 0.08825859
-0.2647114 -0.14198713 0.025595553 -0.27365577 -0.19239387 -0.30354127 0.009628491 -0.20751655
-0.067317516 -0.19345611 -0.13659619 0.11353632 -0.014302699 -0.41045114 -0.090133935 0.23041944
0.15311956 -0.08952501 0.30946088 -0.066277586 -0.06758509 0.1769075 0.27142894 -0.043782573
-0.042924806 -0.22730453 0.2047526 -0.020699807 -0.27368 0.08293053 0.16006604 0.48314515
-0.24002522 -0.053894456 -0.1799487 0.18052864 -0.30584094 -0.13238953 -0.0058953506 0.20714682
0.1638243 0.23836462 -0.12445963 0.14452615 -0.17156258 0.1896091 0.31579491 -0.29707295
-0.27021503 0.07041152 -0.09795233 0.25396013 -0.648532 -0.19883172 -0.33404255 -0.42384937
-0.34083465 -0.27938545 -0.027795989 -0.20646402 0.078211896 -0.1891326 -0.23091617 0.03468821
-0.32996207 -0.74783593 -0.04922701 0.6297453 0.14840175 0.414725 -0.17281763 -0.18744695
-0.24827826 0.04967072 -0.11225906 -0.5768206 -0.33909303 -0.5054324 0.03587456 -0.014162455
0.23334806 0.30632886 0.30706072 0.024254698 -0.26814556 -0.030897489 -0.0047813356 -0.30993164
0.18012868 -0.21178554 0.06771398 0.1532412 -0.19094734 -0.011015885 -0.1904634 0.21410188
-0.2972647 0.2617059 -0.5701371 -0.19180241 0.16512524 -0.50207967 0.084196895 -0.35607857
-0.14920355 -0.81429106 -0.14326368 -0.26016137 0.009996853 0.005049029 -0.02216574 0.020818276
0.09908761 0.51133657 -0.043246876 0.33512715 -0.020044796 0.8485634 0.31683055 0.15776184
0.088555746 -0.49775374 -0.8212618 0.18567038 -0.18969274 -0.87611806 -0.28224412 0.41106486
-0.4213145 0.098950714 -0.1645213 -0.033128724 -1.6862907 0.09744517 -0.1828884 -0.7272773
0.018389672 -0.57826096 -0.57187855 -0.39944404 0.19970092 -0.15368 -0.23899639 -0.023055661
-0.29280382 -0.119721115 0.1878858 -0.036577076 0.28111482 -0.06647762 0.061584096 -0.13085648
0.19767319 0.2974875 0.17061189 0.12253266 -0.10001 -0.016555931 0.031342015 -0.046654765
-0.15985069 0.024750289 -0.14659248 0.17436624 0.15487376 -0.88674414 0.07676167 -0.5857051
-0.22784896 -0.10000135 0.11495433 -0.08799975 -0.18212962 -0.070071906 0.16616324 -0.060378954
00000000: fb1b 36be a484 533d cc0a 10bf 4a99 52bc
00000010: 6615 cabe bceb d4be bb5d e7be 5bc4 dfbd
00000020: 11be 07bf bcea 9bbe fa39 47be a015 89be
00000030: 7d19 933e 9d36 723d cf93 553e 4df2 7a3d
00000040: 74c9 a73d 2569 be3d 0025 1ebe 41a8 8cbe
00000050: 953c 4d3e e44c 02bd 2ba5 c9bd 56a4 073e
00000060: 600d 873e 1387 95bd 7f52 9fbe be20 9bbd
00000070: 8cf0 2fbe 0611 adbe 0021 233e e3b2 58bc
00000080: c39d 6fbe 4776 a2ba 1abd 4c3e cd7b 2f3e
00000090: 181f 523d 8c4e fc3d bb69 b3bd 7a3e f23d
000000a0: 3376 333d b562 423e 83c8 d8be 9d04 9e3d
000000b0: 3ecf 4a3e b020 9ebf f478 3b3e 692d 7ebe
000000c0: 6573 1fbe 28a5 9d3d 523f b9be d0b2 163f
000000d0: bdd8 133e 3cf6 5abf 38cf 0bbf 95e3 123f
000000e0: beda 04bf 9bdc d23d 4a4d debb f528 193f
000000f0: 2317 923e be82 7d3e c0f9 8fbe db6c 5dbd
00000100: 8bbc c33d 8263 303d fd60 b5bc f6b6 a83d
00000110: c2e9 933e e41f 5d3d f242 813d 3ebb d43e
00000120: c686 86bf ec6d 35bd e90b b2be 2940 37bf
00000130: 2b07 773e 2ea0 293d e992 a33e ebc0 b43d
00000140: 4188 87be 1365 11be c4ad d13c 9c1c 8cbe
00000150: e602 45be c369 9bbe d1c0 1d3c 387f 54be
00000160: c4dd 89bd 5c19 46be dfdf 0bbe bb85 e83d
00000170: de55 6abc a726 d2be 2498 b8bd 13f3 6b3e
00000180: 60cb 1c3e e358 b7bd a871 9e3e 8bbc 87bd
00000190: 0d6a 8abd 3d27 353e bcf8 8a3e 5b55 33bd
000001a0: ecd1 2fbd 85c2 68be aaaa 513e a492 a9bc
000001b0: c91f 8cbe 7bd7 a93d 5ae8 233e cd5e f73e
000001c0: 2cc9 75be 6fc0 5cbd 7944 38be 80dc 383e
000001d0: 2f97 9cbe 1f91 07be c92d c1bb 4c1e 543e
000001e0: 8fc1 273e db15 743e b1e4 febd aafe 133e
000001f0: 1aae 2fbe e328 423e dfaf a13e f219 98be
00000200: a059 8abe ea33 903d 3b9b c8bd 1007 823e
00000210: 3106 26bf 8b9a 4bbe a007 abbe c902 d9be
00000220: e181 aebe 9c0b 8fbe 6ab4 e3bc 4e6b 53be
00000230: 8f2d a03d faab 41be 4a75 6cbe 3915 0e3d
00000240: caf0 a8be 2d72 3fbf 43a2 49bd fd36 213f
00000250: a1f6 173e d656 d43e 1bf7 30be 18f2 3fbe
00000260: a83c 7ebe 8673 4b3d 14e8 e5bd 84aa 13bf
00000270: 9a9d adbe 0564 01bf 34f1 123d a409 68bc
00000280: cbf2 6e3e 23d7 9c3e 1037 9d3e cab1 c63c
00000290: 604a 89be bb1c fdbc c0ac 9cbb 5caf 9ebe
000002a0: a773 383e 4fde 58be a1ad 8a3d 43eb 1c3e
000002b0: b387 43be f87b 34bc d608 43be 863d 5b3e
000002c0: 1433 98be 51fe 853e 81f4 11bf da67 44be
000002d0: 9716 293e 4b88 00bf 6c6f ac3d ee4f b6be
000002e0: d1c8 18be 6175 50bf b7b3 12be df33 85be
000002f0: d7c9 233c 5372 a53b ed94 b5bc 178b aa3c
00000300: 72ee ca3d f4e6 023f a323 31bd c995 ab3e
00000310: fc34 a4bc 733b 593f 9d37 a23e 528c 213e
00000320: b75c b53d 94d9 febe 373e 52bf 6020 3e3e
00000330: d03e 42be 4649 60bf 4d82 90be 1877 d23e
00000340: 89b6 d7be aca6 ca3d 4678 28be fcb1 07bd
00000350: 60d8 d7bf 5591 c73d 1947 3bbe d82e 3abf
00000360: f0a5 963c e908 14bf a266 12bf ee83 ccbe
00000370: 667e 4c3e 4a5e 1dbe 78bb 74be 3adf bcbc
00000380: 62ea 95be 5830 f5bd 2365 403e d8d1 15bd
00000390: 48ee 8f3e 6b25 88bd 9b3f 7c3d 3eff 05be
000003a0: d76a 4a3e 4850 983e e2b4 2e3e 67f2 fa3d
000003b0: 0bd2 ccbd 4ea0 87bc 7c60 003d 1119 3fbd
000003c0: e6af 23be 1ec1 ca3c 571c 16be 108d 323e
000003d0: 3a97 1e3e aa01 63bf 3935 9d3d c5f0 15bf
000003e0: 3d51 69be 82cd ccbd 2d6d eb3d 3739 b4bd
000003f0: 3080 3abe dc81 8fbd b226 2a3e ec4f 77bd

fc11.bias f4 [300]
0.0645611 0.04901224 0.09848733 -0.047496997 0.13658926 0.51714873 0.20302014 0.35785517
0.02456261 0.15910977 0.016768243 -0.12598875 -0.20778847 -0.19234397 -0.34765533 0.017178707
0.29545215 0.0924965 0.1091418 0.1755492 -0.14906271 -0.111709915 0.06315698 -0.11553103
0.13712078 -0.05023936 -0.20531133 0.20236471 0.048445042 0.033958808 -0.10390759 -0.3328708
0.15403397 0.059143756 0.17200215 0.15003695 0.23200631 0.04035987 -0.24303432 0.20826332
-0.47610113 0.200104 0.15531223 0.107496746 -0.07687727 -0.4138382 -0.28807178 0.12701139
-0.016045488 0.04636065 -0.16589168 -0.07260134 0.2532149 -0.26323214 0.18831186 0.2546856
-0.2472952 -0.13586894 -0.3669496 0.19016671 -0.18424486 -0.12350413 -0.3160708 -0.121421225
-0.23755741 0.10104601 0.023999533 0.06853054 -0.056178533 0.08071909 -0.21542922 0.23457938
0.09196942 -0.20907508 0.30864868 0.17129047 0.16703252 -0.11184846 -0.01840932 -0.09951393
-0.22438368 0.15149584 0.09359374 0.06659474 0.008347525 -0.15824914 0.07364659 0.20076807
0.096737765 0.23299468 -0.3558191 -0.30024534 -0.31125847 0.15146631 0.099020794 -0.3600079
0.14400677 -0.11693503 -0.38589597 -0.035936523 -0.019013489 0.38074833 -0.117666036 -0.40505186
-0.29605418 -0.18815207 -0.20872034 -0.12075829 -0.15813728 -0.38815236 0.061625767 9.762856e-08
-0.1576098 0.16439323 -0.42421246 -0.21197791 0.17457335 -0.21148042 -0.5279146 0.118050426
0.16205963 -0.23544928 -0.28213978 -0.22874747 -0.10533761 0.24373597 -0.27430743 0.08121012
-0.2987632 -0.2907312 -0.25136423 0.02970462 -0.10470105 0.072699025 0.1002269 -0.01021191
-0.26959723 0.016797043 -0.19072834 -0.21316434 -0.070244476 -0.05583301 0.05305122 -0.13242653
-0.2550733 -0.25826973 -0.048543543 0.09165345 0.33577842 0.042583685 -0.1064809 0.29884923
-0.1629575 0.31843197 -0.25944456 -0.003351773 -0.10248511 0.00076335634 -0.27176678 0.2866637
-0.1594499 0.17292431 -0.3259589 -0.06852024 0.19795664 -0.49841896 0.12778212 -0.2758182
-0.24923286 -0.29225716 0.10767785 0.23477441 0.028417364 -0.3278991 0.13506298 0.24585748
-0.27256596 -0.31802958 -0.3071845 0.17373724 -0.24393989 0.16933215 -0.33521944 -0.15125176
-0.094265185 -0.3589313 0.22071594 0.04276811 -0.062371705 -0.2642663 0.18887718 0.04392695
-0.27658826 -0.08165996 -0.13741587 -0.09535436 -0.028464373 -0.11040838 -0.12382926 -0.1961127
-0.23254353 0.046253458 -0.112056546 0.21022594 0.20417024 0.18407102 -0.14500672 0.51237535
0.14262003 -0.034106504 -0.03272484 -0.16402331 -0.284696 -0.0009691219 -0.11506232 -0.21722846
-0.26799786 0.0018144184 -0.06604291 -0.2963806 -0.12197911 -0.368671 0.32968694 -0.19868807
0.26550862 -0.0040985616 0.049356416 0.08402529 -0.33728904 0.035455883 0.12573881 0.23053215
0.09362174 -0.42697513 -0.19643936 -0.1494959 0.110649884 0.09646791 -0.089839324 0.087207675
-0.05347607 -0.3368932 -0.19503039 0.043586537 -0.23924734 -0.031114388 -0.2839385 -0.23674415
0.07748326 -0.1062775 0.27683797 -0.080901094 -0.36381057 -0.07898272 0.035024814 -0.18793033
00000000: 9c38 843d 0fc1 483d bab3 c93d 368c 42bd
00000010: 0ede 0b3e dc63 043f 83e4 4f3e cb38 b73e
00000020: 8737 c93c aced 223e 8e5d 893c 3203 01be
00000030: 80c6 54be d1f5 44be e1ff b1be 5cba 8c3c
00000040: 8145 973e ce6e bd3d bc85 df3d 2bc3 333e
00000050: e5a3 18be 2bc8 e4bd 7258 813d 889b ecbd
00000060: 6469 0c3e cac7 4dbd 223d 52be b238 4f3e
00000070: 4f6e 463d 6418 0b3d 81cd d4bd 0b6e aabe
00000080: 15bb 1d3e b940 723d 5521 303e 49a3 193e
00000090: 1093 6d3e 6450 253d fddd 78be fb42 553e
000000a0: 87c3 f3be 10e8 4c3e 2b0a 1f3e 4127 dc3d
000000b0: d571 9dbd 9ae2 d3be 257e 93be 460f 023e
000000c0: d471 83bc aae4 3d3d 82df 29be 03b0 94bd
000000d0: 62a5 813e 5dc6 86be d3d4 403e 2766 823e
000000e0: f43a 7dbe 3a21 0bbe d1e0 bbbe 10bb 423e
000000f0: afaa 3cbe bcef fcbd 08d4 a1be b1ab f8bd
00000100: 4042 73be 36f1 ce3d ab9a c43c bd59 8c3d
00000110: 761b 66bd 0d50 a53d 7a99 5cbe 9435 703e
00000120: 775a bc3d c717 56be 3307 9e3e c566 2f3e
00000130: 930a 2b3e ce10 e5bd 24cf 96bc f6cd cbbd
00000140: d6c4 65be ba21 1b3e 13ae bf3d d362 883d
00000150: 0fc4 083c 100c 22be 06d4 963d 2596 4d3e
00000160: 731e c63d 2896 6e3e ec2d b6be c2b9 99be
00000170: 455d 9fbe fc19 1b3e 6acb ca3d f552 b8be
00000180: 8376 133e a27b efbd 2894 c5be 2d32 13bd
00000190: 2dc2 9bbc 72f1 c23e e4fa f0bd f562 cfbe
000001a0: 6a94 97be f0aa 40be c9ba 55be 1f50 f7bd
000001b0: bdee 21be e8bb c6be 4d6b 7c3d dea7 d133
000001c0: 7764 21be b356 283e 6032 d9be bd10 59be
000001d0: 5bc3 323e 538e 58be 6925 07bf 6cc4 f13d
000001e0: f6f2 253e 9e19 71be a074 90be c73c 6abe
000001f0: 3fbb d7bd ec95 793e 0672 8cbe 7e51 a63d
00000200: 7df7 98be b8da 94be d0b2 80be 1a57 f33c
00000210: 816d d6bd 3ae3 943d c343 cd3d db4f 27bc
00000220: a608 8abe f499 893c 4a4e 43be c147 5abe
00000230: 56dc 8fbd 27b1 64bd 3c4c 593d d29a 07be
00000240: f898 82be ee3b 84be 98d5 46bd ceb4 bb3d
00000250: 26eb ab3e 3b6c 2e3d a812 dabd c402 993e
00000260: 55de 26be 8409 a33e ebd5 84be 6ba9 5bbb
00000270: b7e3 d1bd fa1b 483a 0425 8bbe 96c5 923e
00000280: d646 23be 1213 313e 16e4 a6be 5754 8cbd
00000290: 25b5 4a3e c530 ffbe 51d9 023e 0b38 8dbe
000002a0: e636 7fbe bba2 95be 3486 dc3d b468 703e
000002b0: 88cb e83c 64e2 a7be f34d 0a3e 10c2 7b3e
000002c0: c48d 8bbe c6d4 a2be 4947 9dbe 2de8 313e
000002d0: 61cb 79be 6865 2d3e e2a1 abbe bee1 1abe
000002e0: 1b0e c1bd d8c5 b7be 5c03 623e 9d2d 2f3d
000002f0: 7979 7fbd ea4d 87be 0569 413e bfec 333d
00000300: fa9c 8dbe 563d a7bd bfb6 0cbe 2649 c3bd
00000310: 1e2e e9bc ca1d e2bd 329a fdbd c5d1 48be
00000320: e41f 6ebe 4474 3d3d e77d e5bd 7845 573e
00000330: 0112 513e 1d7d 3c3e a47c 14be 082b 033f
00000340: fc0a 123e 43b3 0bbd 7b0a 06bd baf5 27be
00000350: adc3 91be ab0c 7eba cba5 ebbd 2371 5ebe
00000360: 0437 89be c7d1 ed3a 8141 87bd 33bf 97be
00000370: 2fd0 f9bd 72c2 bcbe bacc a83e e374 4bbe
00000380: bff0 873e 3a4d 86bb f429 4a3d 7415 ac3d
00000390: 26b1 acbe 303a 113d adc1 003e 9f10 6c3e
000003a0: c1bc bf3d 7c9c dabe 6627 49be 7415 19be
000003b0: 689c e23d f890 c53d aefd b7bd f099 b23d
000003c0: b909 5bbd 447d acbe 0cb6 47be cc87 323d
000003d0: 41fd 74be 9ae3 febc 6360 91be 0f6d 72be
000003e0: 8baf 9e3d 05a8 d9bd b5bd 8d3e 79af a5bd
000003f0: 6145 babe b1c1 a1bd 2e76 0f3d cf70 40be

fc12.weight f4 [300, 1]
-0.34560686 -0.2412858 -1.0997708 0.15826344 -0.96967 -0.59918165 -0.86729515 -0.018727262
-0.56797445 0.30229273 0.32029688 0.61712885 0.12967515 0.6072993 -1.0215942 -0.16097789
-0.11904132 0.70555675 0.19746295 0.25193632 -0.44398972 0.04223714 -0.14174843 -0.24665153
-0.16970699 -0.6654086 -0.8443931 -0.7688511 -0.8111418 -0.72847617 0.41038725 0.40681762
-0.36174464 -0.032657288 -0.22920929 0.5228113 1.0227945 0.2293433 -0.08663226 -1.0465716
0.7698217 -0.9755472 -0.13278008 0.6830346 -0.1839773 -0.23648217 0.7024497 -0.70087034
0.592806 0.25409934 0.48740163 0.51286215 -0.68006384 0.065067574 -0.11615292 -0.37831864
0.19472048 0.46453658 0.65138364 0.33802018 -0.8856863 0.12099691 0.84318614 -0.807001
0.078458875 0.06708171 0.49545485 -0.4620955 0.12552023 -0.36154675 -1.2333874 -0.60169417
0.35137418 -0.47739515 0.035475753 -0.5243328 -0.52356607 -0.33663428 -0.83790123 -0.014147915
-0.08862183 -0.820642 -0.4518135 0.4584286 0.47523007 -0.58085024 -0.69828176 0.51466924
-0.88352376 -0.7401637 0.14547001 0.42404115 0.78211397 0.79232574 -1.0870643 1.0131292
0.90144217 -0.39494982 0.7169044 0.6905944 0.18684196 -1.4022251 -0.44572607 0.9755636
-0.30439365 0.3316098 -0.44842148 -0.51759213 0.8196379 -0.20128791 -0.47730935 -1.1777682
-0.17395577 -0.15764494 0.26697397 0.54371834 -0.7933335 0.7581493 0.766136 -0.46919426
0.11195805 0.19936211 -0.848596 0.096285224 0.64390385 0.42166108 0.8158904 -0.9719853
0.5768976 -0.33599606 0.66644216 -0.09221989 -0.17063081 0.453418 -0.88776475 -0.3722493
-0.8962586 -0.72899306 -0.43615422 0.6187588 0.33736226 -0.24512717 0.2317233 -0.99665344
0.3699242 0.71574384 0.41665322 0.28882807 0.80526805 0.67844445 -0.7519478 -0.32469392
0.55453724 -0.76028717 0.116826415 -0.84226495 0.49034896 0.095519975 -0.5656874 -0.18044198
-0.6740283 0.10170692 -0.6883616 0.7094512 -0.7390245 0.4945684 -0.95874083 -0.03109599
0.5572132 0.4472448 0.8258323 -0.10185622 0.65753967 -0.5704175 -1.0078377 0.2277723
0.2529297 -0.06563096 0.69038963 0.5644816 0.24418235 -0.20704386 0.6928262 -0.05758822
-0.40865666 -0.01706499 -0.3536023 0.21679783 -0.13100736 -1.158025 0.70258427 -0.035508037
-0.15620148 -1.0748347 0.4890504 0.2072363 0.44366133 0.13387716 0.19638105 -0.46422157
-0.014817613 -0.8557433 -1.504395 0.10356581 0.58130383 0.4035606 0.2192946 -0.34241694
-0.034409925 0.3783527 0.66327786 0.62936056 -0.33657205 -0.88919485 -0.5019513 0.8270191
0.9705328 -0.8290687 0.6235614 -0.85271955 -0.5785539 0.59308827 -0.9601051 -0.38546443
-0.57628334 -0.38978264 0.12922204 0.5922463 0.10273811 -0.7432704 -0.07779328 -0.89860964
-1.3181758 0.5906794 0.5554642 -0.124722056 -0.78478426 -0.94252026 -0.13462487 -0.16887496
0.7614417 -1.0607444 -0.4244016 0.7240427 0.27764192 0.38158336 0.003981471 0.45839962
0.10358079 0.75048566 -0.95556873 -0.5090197 0.35746437 0.30198336 -0.42634392 0.8418047
00000000: 62f3 b0be a013 77be 4ac5 8cbf d00f 223e
00000010: 4b3c 78bf f863 19bf 0e07 5ebf ea69 99bc
00000020: c666 11bf 1dc6 9a3e f4fd a33e 28fc 1d3f
00000030: 90c9 043e f877 1b3f 99c3 82bf 63d7 24be
00000040: f0cb f3bd 5e9f 343f ba33 4a3e ccfd 803e
00000050: 9f52 e3be da00 2d3d 8026 11be 3892 7cbe
00000060: abc7 2dbe 3858 2abf 252a 58bf 6dd3 44bf
00000070: fda6 4fbf 6a7d 3abf 471e d23e 664a d03e
00000080: 9836 b9be a6c3 05bd d7b5 6abe f6d6 053f
00000090: eeea 823f f8d8 6a3e 416c b1bd 0ff6 85bf
000000a0: 0913 453f 76bd 79bf 80f7 07be 5bdb 2e3f
000000b0: 8c64 3cbe 6228 72be bed3 333f 3d6c 33bf
000000c0: 22c2 173f 4f19 823e b58c f93e ef4a 033f
000000d0: aa18 2ebf 2642 853d 95e1 edbd fbb2 c1be
000000e0: ce64 473e bdd7 ed3e 14c1 263f fb10 ad3e
000000f0: 56bc 62bf 3acd f73d 0cdb 573f 9e97 4ebf
00000100: 0caf a03d 2362 893d 42ac fd3e c897 ecbe
00000110: 6088 003e a81c b9be a3df 9dbf a108 1abf
00000120: 51e7 b33e 236d f4be 064f 113d ad3a 06bf
00000130: 6d08 06bf 545b acbe b280 56bf a8cc 67bc
00000140: 5d7f b5bd 9815 52bf 1954 e7be 27b7 ea3e
00000150: 5b51 f33e 9ab2 14bf 98c2 32bf 5dc1 033f
00000160: 9d2e 62bf 5e7b 3dbf 17f6 143e ec1b d93e
00000170: 9f38 483f dcd5 4a3f ec24 8bbf 38ae 813f
00000180: eac4 663f dd36 cabe 0c87 373f cbca 303f
00000190: 8053 3f3e 1d7c b3bf 3536 e4be 89be 793f
000001a0: 7cd9 9bbe c2c8 a93e 8097 e5be eb80 04bf
000001b0: cad3 513f 6b1e 4ebe e461 f4be 1cc1 96bf
000001c0: 7621 32be ad6d 21be d0b0 883e 2031 0b3f
000001d0: e717 4bbf 1316 423f 7d21 443f 3b3a f0be
000001e0: 434a e53d 9525 4c3e 963d 59bf 3031 c53d
000001f0: e2d6 243f f6e3 d73e 31de 503f 07d4 78bf
00000200: 90af 133f ad07 acbe f49b 2a3f c8dd bcbd
00000210: d8b9 2ebe 6726 e83e 8d44 63bf 7697 bebe
00000220: 3471 65bf 4a9f 3abf 9b4f dfbe fa66 1e3f
00000230: bfba ac3e 9e02 7bbe df48 6d3e ae24 7fbf
00000240: b466 bd3e fd3a 373f 9253 d53e 46e1 933e
00000250: 0c26 4e3f 89ae 2d3f a77f 40bf 483e a6be
00000260: 27f6 0d3f 2ea2 42bf b042 ef3d ad9e 57bf
00000270: 050f fb3e fa9f c33d e4d0 10bf c8c5 38be
00000280: 1e8d 2cbf b84b d03d 7738 30bf 989e 353f
00000290: b630 3dbf 1238 fd3e 0a70 75bf 05bd febc
000002a0: 86a5 0e3f 45fd e43e bf69 533f fe99 d0bd
000002b0: 8554 283f e206 12bf d300 81bf 243d 693e
000002c0: 0080 813e 8669 86bd 60bd 303f de81 103f
000002d0: f00a 7a3e 4e03 54be 0f5d 313f a0e1 6bbd
000002e0: 723b d1be e1cb 8bbc 5c0b b5be 4000 5e3e
000002f0: cb26 06be 2a3a 94bf 90dc 333f e070 11bd
00000300: 48f3 1fbe 2f94 89bf d064 fa3e c135 543e
00000310: 9427 e33e 1817 093e 1d18 493e 73ae edbe
00000320: 93c5 72bc fe11 5bbf 0490 c0bf 501a d43d
00000330: 54d0 143f 7f9f ce3e c38e 603e 4651 afbe
00000340: 6cf1 0cbd 72b7 c13e 94cc 293f c61d 213f
00000350: 2c53 acbe 46a2 63bf e17f 00bf 86b7 533f
00000360: d674 783f d93d 54bf b8a1 1f3f d44b 5abf
00000370: 1c1c 14bf a2d4 173f 73c9 75bf 985b c5be
00000380: 4e87 13bf 9791 c7be c852 043e 749d 173f
00000390: 5c68 d23d f846 3ebf 1552 9fbd 480b 66bf
000003a0: fcb9 a8bf c436 173f e732 0e3f 476e ffbd
000003b0: 9fe7 48bf 0249 71bf 1adb 09be 8fed 2cbe
000003c0: d8ed 423f 79c6 87bf 2b4b d9be dd5a 393f
000003d0: 1527 8e3e e55e c33e 0077 823b 5bb3 ea3e
000003e0: 2a22 d43d d41f 403f 27a0 74bf 1d4f 02bf
000003f0: 9205 b73e 909d 9a3e c049 dabe 8380 573f

fc12.bias f4 [300]
0.5666355 -0.9852754 -0.06827266 -0.8529376 0.8342198 -0.1127272 -0.9330541 -0.35620683
-0.8663609 -1.0238197 -0.8689728 -1.0368577 -0.8004992 0.119217575 0.3743668 -0.010272273
-0.93531334 -0.888607 0.8669656 -0.8298666 0.6068646 0.32124326 -0.9357908 -0.5117916
0.73979783 -0.46266878 0.93441546 0.9526709 -0.33979866 -0.95682096 -0.040030625 0.3023301
-0.78078246 0.16011555 -0.7847521 -0.851033 -0.68714446 0.13947904 0.24890627 0.53046954
0.43778896 -0.47144476 -0.939965 0.17897718 -0.17723854 0.6905658 0.47943985 -0.041794553
0.13343345 0.44701752 -0.669387 -0.22722016 0.6293053 0.06743441 -0.59012246 -0.43036026
-0.3566059 0.50003827 0.03363113 -0.7059651 -0.59681726 -0.15868987 -0.47045505 -0.8106898
0.35315534 -0.15331697 -1.0093142 -0.9827032 -0.9486135 0.80007607 0.2041063 -0.54872125
-0.5326524 0.63686746 -0.0015566123 0.22227184 0.63633513 0.12482241 -0.7947664 0.7054094
0.29871634 0.56412643 -0.0974818 0.66358334 -0.26507708 -0.33338213 -0.39516866 -0.32149157
0.33996215 0.24796426 0.8899234 -0.6653565 -0.2661107 0.82743555 -0.32409 -0.23571523
-0.5996828 0.00018926301 -0.44806013 -0.2024554 -0.11856024 0.30225903 0.83403224 -0.28700626
0.5855842 0.006522164 -0.69458747 -0.04097691 0.33652675 0.39154243 0.7934037 0.36840835
-0.00434619 0.5236077 0.39907458 -0.4368354 -0.68450207 0.07786913 0.34022054 0.76443905
0.16418447 -0.7285355 -0.021294355 -0.4753641 -0.09364638 -0.8752598 0.22881174 -0.30642986
-0.6969218 0.46086568 -0.77506286 0.59995365 -0.530125 0.11920791 0.41822088 0.3676358
-0.7088342 -0.95482755 0.84393984 0.47605178 0.17864627 0.6337046 0.10835275 -0.43703836
-0.088380724 -0.5229347 0.3932066 -0.2718696 -0.59983665 -0.47498572 -0.28002027 -0.7422987
0.5376862 -0.25981823 -0.7859098 0.3980044 0.78596324 0.2337672 -0.82560897 -0.80488753
-0.75963855 0.036356658 0.52833277 -0.27667084 0.27311036 0.572671 -0.6532116 -0.24755402
-0.8464279 0.5064464 -0.46926552 -0.014809654 -0.86432195 0.8323278 0.119204655 0.55453706
-0.91255605 0.6380836 -0.27914697 -1.0268342 -0.8753158 0.5074351 -0.32176438 -0.6954043
-0.21658081 0.5544964 -0.30433652 0.900029 0.25777936 0.829571 -0.57834595 -0.7676326
-0.7072036 0.21683383 -0.6519001 0.42978415 0.02342534 0.66147 0.6380803 0.8210844
0.38068345 -0.6743906 0.58836234 -0.53777075 -1.0418887 0.15347855 0.3064367 -0.3830111
0.7677888 -0.9593155 -0.8378728 0.75683254 -0.08095813 -0.6959034 0.6908138 0.061444215
-0.5048744 -0.34096125 -0.614594 -0.5341426 -0.616611 -0.52660257 0.4673096 -0.7610587
0.8532218 -0.41121408 0.43625572 0.8255747 -0.38156348 -0.8655038 -0.28457892 -0.33371168
0.6286656 -0.14397772 0.18403201 0.04894888 0.7320556 0.23453546 0.25855726 -0.90285265
-0.40660805 -0.23104866 0.7224193 -0.9001625 -0.45410484 -0.38457224 -0.1552186 -0.8177081
-0.024514724 0.73199487 0.1537493 0.22053555 -0.12841702 -0.91739845 -0.7868111 -0.9448131
00000000: 060f 113f 023b 7cbf 89d2 8bbd 1e5a 5abf
00000010: 6e8f 553f 85dd e6bd a2dc 6ebf be60 b6be
00000020: d4c9 5dbf 860c 83bf 0075 5ebf c1b7 84bf
00000030: 84ed 4cbf 5828 f43d 01ad bf3e 094d 28bc
00000040: b270 6fbf c07b 63bf 75f1 5d3f 2372 54bf
00000050: 7a5b 1b3f ff79 a43e fc8f 6fbf c604 03bf
00000060: 6463 3d3f ece2 ecbe da35 6f3f 3de2 733f
00000070: 17fa adbe 38f2 74bf 27f7 23bd 03cb 9a3e
00000080: 5ce1 47bf 55f5 233e 83e5 48bf 4cdd 59bf
00000090: b3e8 2fbf 98d3 0e3e 49e1 7e3e dacc 073f
000000a0: e025 e03e 3561 f1be 8ca1 70bf cb45 373e
000000b0: 057e 35be ecc8 303f 2479 f53e c430 2bbd
000000c0: c7a2 083e 7bdf e43e f25c 2bbf 67ac 68be
000000d0: 271a 213f 0d1b 8a3d 4412 17bf 2e58 dcbe
000000e0: 0c95 b6be 8202 003f ccc0 093d 21ba 34bf
000000f0: 04c9 18bf 997f 22be 7cdf f0be 5e89 4fbf
00000100: c7d0 b43e 20ff 1cbe 3531 81bf 7092 7bbf
00000110: 56d8 72bf c9d1 4c3f 3e01 513e ff78 0cbf
00000120: e85b 08bf bf09 233f 3e07 ccba 3b9b 633e
00000130: dce6 223f e4a2 ff3d d075 4bbf b695 343f
00000140: 59f1 983e 976a 103f 8aa4 c7bd 99e0 293f
00000150: 2fb8 87be 10b1 aabe 8c53 cabe 8b9a a4be
00000160: 850f ae3e 58ea 7d3e 05d2 633f ce54 2abf
00000170: a93f 88be d1d2 533f 20ef a5be 555f 71be
00000180: d084 19bf e774 4639 2368 e5be 7850 4fbe
00000190: b6cf f2bd b2c1 9a3e 2383 553f 7cf2 92be
000001a0: d9e8 153f e1b7 d53b 7cd0 31bf 68d7 27bd
000001b0: 3c4d ac3e 4078 c83e 811c 4b3f 05a0 bc3e
000001c0: 7c6a 8ebb 270b 063f 8153 cc3e e4a8 dfbe
000001d0: 873b 2fbf da79 9f3d 6331 ae3e 47b2 433f
000001e0: f91f 283e 4d81 3abf 8071 aebc ec62 f3be
000001f0: acc9 bfbd 0711 60bf a04d 6a3e 60e4 9cbe
00000200: 7869 32bf 96f6 eb3e 856a 46bf 9096 193f
00000210: 46b6 07bf 4723 f43d 0c21 d63e c23a bc3e
00000220: 2876 35bf 946f 74bf 710c 583f 0fbd f33e
00000230: 0cef 363e 773a 223f 0ce8 dd3d 7ec3 dfbe
00000240: f400 b5bd 0cdf 05bf 6052 c93e 7e32 8bbe
00000250: e58e 19bf 5431 f3be d15e 8fbe 4a07 3ebf
00000260: cea5 093f e506 85be 6231 49bf 3cc7 cb3e
00000270: e334 493f ab60 6f3e 1c5b 53bf 1c0d 4ebf
00000280: ac77 42bf b8ea 143d d140 073f cda7 8dbe
00000290: 1fd5 8b3e 919a 123f e038 27bf cd7e 7dbe
000002a0: 80af 58bf 79a6 013f 9243 f0be 31a4 72bc
000002b0: 3444 5dbf 6f13 553f 9221 f43d 24f6 0d3f
000002c0: 469d 69bf 7259 233f 5aec 8ebe 4e6f 83bf
000002d0: b214 60bf 44e7 013f 4dbe a4be 0406 32bf
000002e0: 5cc7 5dbe 7af3 0d3f ffd1 9bbe 4d68 663f
000002f0: a8fb 833e c45e 543f 7b0e 14bf 9283 44bf
00000300: 4c0b 35bf b009 5e3e ede2 26bf ab0c dc3e
00000310: 80e6 bf3c 1956 293f 3b59 233f 9632 523f
00000320: f1e8 c23e dda4 2cbf ea9e 163f 58ab 09bf
00000330: 9c5c 85bf 7b29 1d3e 45e5 9c3e 081a c4be
00000340: cf8d 443f b395 75bf d57e 56bf c7bf 413f
00000350: 60cd a5bd ba26 32bf 2cd9 303f eeac 7b3d
00000360: 733f 01bf 7992 aebe 0856 1dbf 92bd 08bf
00000370: 38da 1dbf 6dcf 06bf 3443 ef3e bed4 42bf
00000380: be6c 5a3f a78a d2be e95c df3e dd58 533f
00000390: 4a5c c3be a891 5dbf 54b4 91be 42dc aabe
000003a0: 3bf0 203f e56e 13be e372 3c3e 9f7e 483d
000003b0: ff67 3b3f 102a 703e 9e61 843e 5a21 67bf
000003c0: ee2e d0be 0598 6cbe 79f0 383f 0d71 66bf
000003d0: 6e80 e8be a7e6 c4be a0f1 1ebe 5155 51bf
000003e0: 1ad3 c8bc 0464 3b3f 7570 1d3e 12d4 613e
000003f0: c07f 03be a0da 6abf 746c 49bf 45df 71bf

fc2.weight f4 [300, 300]
-0.051692244 0.04607981 -0.04459433 -0.029246183 0.0030697973 -0.055793125 -0.0037870689 -0.065108754
-0.012625366 0.011827548 0.039416343 0.053766876 0.050258096 -0.060423613 -0.07834422 0.027495798
0.042964704 -0.04811871 -0.057159413 -0.03671226 -0.05297944 -0.08504449 0.0106218895 0.04571755
0.0073629175 0.013368296 -0.038585696 -0.018443808 0.026458992 0.035312045 0.0013708373 0.036954492
-0.051661745 -0.08594584 -0.00045317473 0.026326131 0.04665469 -0.021253811 -0.05357492 -0.022804232
-0.04382551 -0.036283806 0.020529728 -0.080587715 -0.053722396 -0.056841362 -0.026867291 -0.037589364
0.034278054 -0.094307244 -0.05617652 0.0032498431 0.010870335 0.014729878 -0.00061541627 -0.018280504
-0.0128313955 0.031006794 -0.0127894115 -0.016985696 0.045331616 0.0021363788 0.041779745 -0.042859755
-0.053345818 -0.05481589 -0.016698316 -0.022198685 0.027820071 -0.07913215 -0.011897757 0.015477083
-0.0572195 -0.024566887 0.0032069695 -0.010601856 -0.08793062 -0.04053763 0.018087586 -0.04302932
0.008245882 0.0023372527 -0.038238067 -0.017359218 -0.010901866 -0.056577537 -0.02689311 0.015719917
0.017892804 -0.0048900316 -0.08186317 -0.0062345797 0.0063864295 -0.06868826 -0.029680716 0.027972719
0.017212257 -0.0044945264 0.012705297 -0.046545167 -0.042248014 -0.0055433377 -0.016866319 -0.023973923
0.008143109 0.03188275 -0.055190306 0.020251233 0.0203795 -0.04160587 -0.0848042 -0.0018023576
0.012617613 -0.028172951 0.007866554 0.0386519 -0.019463118 0.03055318 -0.011466812 -0.02970004
0.031667598 -0.043739337 0.016909417 0.03477362 0.021697065 -0.041218843 -0.05448676 0.011000981
-0.040469896 -0.043948397 0.006908106 -0.0411477 -0.025592932 -0.04500477 0.015186696 -0.0306134
0.053073302 -0.027446397 -0.03493921 -0.030896803 -0.04108532 -0.05125668 -0.02231947 0.03506182
-0.05902296 0.017478032 -0.028177395 0.037314814 -0.03264333 -0.044586517 -0.052434724 -0.017059753
-0.07171087 0.040093113 0.024664821 -0.017233744 -0.0039626407 -0.029909562 -0.03635663 -0.02034485
0.003528746 -0.048741348 -0.046087023 -0.05140645 -0.03635166 0.036760062 0.031921357 0.005999417
0.013660082 0.025588674 0.01201072 0.012966474 -0.036740664 -0.072817355 0.045988917 -0.052385658
0.026602045 -0.033846162 0.0036936107 -0.054951902 0.05110862 -0.00045859115 0.0013144572 0.014197286
0.030992374 -0.062319122 -0.03016226 -0.06595163 0.016097175 -0.013907938 -0.012702884 -0.04847867
0.039337464 -0.007827501 -0.027464932 0.010433215 -0.03899992 -0.04608315 -0.09317106 0.018532673
-0.042073954 -0.046231363 -0.06139839 -0.042677 -0.038676478 -0.08912709 -0.023442091 0.004243135
-0.033858415 -0.031145403 -0.00012773328 -0.017961588 0.03153104 0.012556375 -0.023734858 -0.07284014
-0.037311476 -0.01853829 -0.04118823 0.045012925 -0.01802428 -7.9748126e-05 -0.06708219 -0.030742794
-0.030611185 0.0012465471 0.0123884585 -0.04875921 -0.055370167 -0.041284997 -0.044689644 0.030915417
-0.06293191 -0.04674457 0.003432774 0.0016756196 -0.061832283 0.014410241 -0.043569557 -0.08958996
0.031858135 0.056261368 -0.05962486 0.028572753 -0.016168483 -0.05557282 0.05480274 0.039094605
-0.036549486 -0.08031494 0.036666125 -0.031737667 0.027346551 -0.018207591 0.045716867 0.015279877
00000000: 3fbb 53bd 2fbe 3c3d 8ba8 36bd b195 efbc
00000010: a72e 493b 5587 64bd 7930 78bb bd57 85bd
00000020: a0da 4ebc 55c8 413c 0873 213d a83a 5c3d
00000030: 6fdb 4d3d c07e 77bd ef72 a0bd de3e e13c
00000040: c2fb 2f3d 2018 45bd fd1f 6abd 985f 16bd
00000050: f800 59bd ce2b aebd 6f07 2e3c 5342 3b3d
00000060: a144 f13b b306 5b3c 090c 1ebd 7817 97bc
00000070: 87c0 d83c 5da3 103d abad b33a 985d 173d
00000080: 449b 53bd 5f04 b0bd 1598 edb9 e6a9 d73c
00000090: fd18 3f3d 791c aebc 6071 5bbd f1cf babc
000000a0: 6182 33bd 549e 14bd f62d a83c 2c0b a5bd
000000b0: 040c 5cbd 7dd2 68bd cb18 dcbc 4ef7 19bd
000000c0: 2567 0c3d 2824 c1bd 5a19 66bd 52fb 543b
000000d0: 7d19 323c 9655 713c e353 21ba ffc0 95bc
000000e0: c63a 52bc f601 fe3c ae8a 51bc 9625 8bbc
000000f0: a5ad 393d 7d02 0c3b 3d21 2b3d b68d 2fbd
00000100: 2581 5abd a086 60bd e8ca 88bc 04da b5bc
00000110: ebe6 e33c 0910 a2bd cfee 42bc 9793 7d3c
00000120: ff5e 6abd 7f40 c9bc 052c 523b 68b3 2dbc
00000130: f814 b4bd c90a 26bd 6b2c 943c 833f 30bd
00000140: bc19 073c 982c 193b 859f 1cbd eb34 8ebc
00000150: bd9d 32bc d9bd 67bd f04e dcbc 0ec7 803c
00000160: ee93 923c 8f3c a0bb e1a7 a7bd 724b ccbb
00000170: 4145 d13b 6eac 8cbd f924 f3bc 0b27 e53c
00000180: b800 8d3c d246 93bb e129 503c 25a6 3ebd
00000190: 410c 2dbd e3a4 b5bb 3c2b 8abc f664 c4bc
000001a0: ad6a 053c 7d97 023d 3b0f 62bd eae5 a53c
000001b0: e9f2 a63c eb6a 2abd d3ad adbd 163d ecba
000001c0: 1bba 4e3c f6ca e6bc b8e2 003c 7451 1e3d
000001d0: 1e71 9fbc aa4a fa3c 4cdf 3bbc 804d f3bc
000001e0: e2b5 013d 0528 33bd 9e85 8a3c c96e 0e3d
000001f0: 0bbe b13c 17d5 28bd 822d 5fbd 753d 343c
00000200: c3c3 25bd 3c03 34bd 655d e23b 7e8a 28bd
00000210: 45a8 d1bc ec56 38bd 9fd1 783c f4c8 fabc
00000220: 6463 593d 44d7 e0bc 6b1c 0fbd 4b1b fdbc
00000230: 1549 28bd 86f2 51bd 52d7 b6bc fc9c 0f3d
00000240: 0fc2 71bd 172e 8f3c 48d4 e6bc 6bd7 183d
00000250: 03b5 05bd 5aa0 36bd cbc5 56bd e5c0 8bbc
00000260: 26dd 92bd ad38 243d e10d ca3c c82d 8dbc
00000270: 0ad9 81bb e604 f5bc b1ea 14bd 3eaa a6bc
00000280: 8942 673b 02a5 47bd bfc5 3cbd 928f 52bd
00000290: 7ae5 14bd b891 163d f8bf 023d c296 c43b
000002a0: 89ce 5f3c 579f d13c 9cc8 443c 5571 543c
000002b0: 617d 16bd 4421 95bd e05e 3c3d 5892 56bd
000002c0: 88ec d93c 46a2 0abd 8110 723b 3f15 61bd
000002d0: 4657 513d 106f f0b9 dd49 ac3a bc9b 683c
000002e0: b8e3 fd3c 5642 7fbd d816 f7bc a611 87bd
000002f0: 39de 833c 1fde 63bc c21f 50bc 9291 46bd
00000300: 5220 213d eb3e 00bc 23fe e0bc 13f0 2a3c
00000310: 61be 1fbd afc1 3cbd 78d0 bebd d5d1 973c
00000320: bd55 2cbd 195d 3dbd e17c 7bbd 14ce 2ebd
00000330: 3a6b 1ebd 4488 b6bd a109 c0bc ff09 8b3b
00000340: 1faf 0abd a524 ffbc 24f0 05b9 2e24 93bc
00000350: b126 013d 41b9 4d3c 9b6f c2bc 362d 95bd
00000360: ebd3 18bd 9ddd 97bc fdb4 28bd 795f 383d
00000370: a8a7 93bc 733e a7b8 6362 89bd 50d8 fbbc
00000380: 4fc4 fabc 2e63 a33a f6f8 4a3c bdb7 47bd
00000390: d4cb 62bd 751a 29bd 7d0c 37bd 5442 fd3c
000003a0: 72e2 80bd 3c77 3fbd 64f8 603b 77a0 db3a
000003b0: d943 7dbd ee18 6c3c fe75 32bd f17a b7bd
000003c0: ad7d 023d 5272 663d 3239 74bd 6811 ea3c
000003d0: c473 84bc 53a0 63bd d778 603d aa21 203d
000003e0: eab4 15bd 297c a4bd 382f 163d 5bff 01bd
000003f0: e005 e03c 1628 95bc 9c41 3b3d 7358 7a3c

fc2.bias f4 [300]
0.013949424 0.08282887 0.031740226 -0.07511228 -0.0114505915 -0.044842076 -0.047709767 -0.056249734
-0.06478788 -0.058892325 -0.011675754 -0.13297382 -0.029675897 0.39309815 -0.060710147 -0.011871835
-0.08883741 -0.058639087 0.012383514 -0.100504495 0.011900099 -0.067624755 -0.111457914 -0.07013846
-0.050908204 -0.00016893534 -0.022421109 0.020643888 -0.065665 -0.07816495 -0.038946297 -0.03816705
-0.066900775 0.0067069214 -0.04287698 -0.02386894 -0.056225747 -0.027574677 0.0013900616 0.011144811
-0.04036923 -0.024031507 -0.074262716 0.1445707 -0.017155422 -0.10192359 -0.08428 -0.008790011
-0.038745765 -0.06583817 0.013884239 -0.11073708 0.014262553 0.0063834894 -0.054932892 0.017176235
-0.09217782 0.09360831 0.14171511 -0.029930513 -0.0060862657 -0.019835303 0.022822876 -0.026089797
-0.04547153 -0.083306335 -0.05590836 -0.07030767 -0.07382667 0.020660179 -0.06303907 0.041904382
-0.012521302 0.0131480945 -0.06092086 -0.001710567 -0.117984526 -0.016662177 -0.032488875 -0.046706554
-0.05133213 -0.052241694 0.006308729 0.015181463 -0.0108257 -0.04422525 -0.09618825 0.03431077
-0.041795533 0.03235866 0.004393913 0.24031095 -0.023070132 0.10390383 0.015543417 -0.009136715
0.0041916952 -0.076924294 -0.019679172 -0.026558856 -0.14738572 0.01447121 -0.007992395 -0.008529028
-0.019697953 0.023519827 0.002030467 -0.097570844 -0.006695366 0.027738426 -0.004491648 -0.05170092
-0.07042373 0.009039188 0.011086319 0.021288104 0.032903384 -0.030925278 -0.07344347 -0.08035161
-0.06894406 -0.056889478 0.0013597258 0.024584157 0.007210143 -0.07742705 0.034500092 0.0009966381
-0.049268022 -0.01827126 -0.036344282 -0.040604077 -0.072884694 0.032115165 -0.06803858 -0.053114936
-0.012080516 -0.017220736 0.0035471078 0.018791469 0.037375085 -0.010208052 0.027831485 0.042636465
0.0017794117 -0.07625952 -0.06689739 -0.051258873 -0.0009810328 -0.014413105 -0.006932802 -0.05360683
-0.045565493 -0.041868843 -0.09392405 -0.04988257 -0.009503834 -0.009026648 -0.052600063 0.0010887831
-0.03310301 -0.056826305 -0.007336428 -0.026096793 -0.054076403 -0.031934503 -0.1958826 0.006700141
-0.0061330968 0.018876214 -0.0011262593 -0.018949976 -0.08126343 -0.006566187 0.1841007 -0.04439169
-0.009835916 0.0125358105 -0.038849194 -0.019464474 -0.04631226 -0.035954915 -0.042874813 0.0100986855
0.02280091 -0.016303513 -0.040699344 -0.1000338 -0.098916 -0.020296404 -0.028766297 -0.011182892
0.020473804 -0.10735819 -0.044084202 -0.06601146 -0.044549733 -0.04193531 -0.008846158 -0.056617036
-0.056824524 -0.039445423 -0.027629089 -0.043254983 -0.09859583 0.037523743 -0.04800887 0.027181558
0.0054347105 0.037416995 -0.07243108 -0.23275691 -0.013774496 -0.07124154 -0.06383674 7.898028e-05
-0.053457715 -0.034210693 -0.04807003 -0.057165086 -0.023762444 -0.08022657 -0.035459235 -0.021285063
0.016431909 -0.15702228 -0.068256594 -0.08929282 -0.037456002 -0.031793922 -0.059644867 0.03057117
-0.039158873 0.020893887 0.039154015 -0.091657944 -0.059452347 -0.06083778 0.32980034 -0.06692864
-0.017073492 0.35822093 -0.006963339 0.0020710668 -0.079516046 -0.019845733 -0.042013884 -0.019188458
0.019546472 0.043231755 -0.017971877 -0.058947373 0.008185738 -0.055531602 -0.020949239 -0.12565757
00000000: 208c 643c 2fa2 a93d 0a02 023d 78d4 99bd
00000010: 439b 3bbc 53ac 37bd 516b 43bd 1f66 66bd
00000020: 82af 84bd 1439 71bd a94b 3fbc 4a2a 08be
00000030: de1a f3bc 2944 c93e 34ab 78bd 1682 42bc
00000040: 63f0 b5bd 8a2f 70bd 39e4 4a3c 4dd5 cdbd
00000050: a2f8 423c d97e 8abd 0c44 e4bd c1a4 8fbd
00000060: 1f85 50bd 3c24 31b9 79ac b7bc 5f1d a93c
00000070: 5f7b 86bd f214 a0bd 2786 1fbd 0d55 1cbd
00000080: 4603 89bd bcc5 db3b c69f 2fbd cc88 c3bc
00000090: f84c 66bd 4ae4 e1bc ba32 b63a ba98 363c
000000a0: 355a 25bd b9dd c4bc 0d17 98bd 570a 143e
000000b0: 8789 8cbc 51bd d0bd fe9a acbd fa03 10bc
000000c0: e1b3 1ebd 2ad6 86bd b87a 633c 1fca e2bd
000000d0: 7cad 693c 972c d13b 5001 61bd 2db5 8c3c
000000e0: bac7 bcbd b7b5 bf3d c41d 113e d630 f5bc
000000f0: 4c6f c7bb a57d a2bc 0af7 ba3c 45ba d5bc
00000100: 5b40 3abd 839c aabd 2a00 65bd 78fd 8fbd
00000110: 7032 97bd 893f a93c a11a 81bd eea3 2b3d
00000120: 2626 4dbc 1b6b 573c 2788 79bd 1b35 e0ba
00000130: dfa1 f1bd 1e7f 88bc 0e13 05bd 5f4f 3fbd
00000140: a441 52bd 63fb 55bd 74b9 ce3b acbb 783c
00000150: 475e 31bc 8925 35bd 58fe c4bd 7389 0c3d
00000160: cb31 2bbd 848a 043d d0fa 8f3b 1314 763e
00000170: 93fd bcbc 88cb d43d d1a9 7e3c 29b2 15bc
00000180: 7d5a 893b 7c8a 9dbd 3736 a1bc f591 d9bc
00000190: 48ec 16be a718 6d3c 89f2 02bc 56bd 0bbc
000001a0: 9a5d a1bc a7ac c03c 9511 053b 39d3 c7bd
000001b0: cd64 dbbb b23b e33c ad2e 93bb 58c4 53bd
000001c0: 513a 90bd 1a19 143c 64a3 353c 6464 ae3c
000001d0: b3c5 063d 0257 fdbc 8869 96bd 638f a4bd
000001e0: 8b32 8dbd f104 69bd d438 b23a b764 c93c
000001f0: 1043 ec3b 1392 9ebd f84f 0d3d a0a1 823a
00000200: 44cd 49bd 9cad 95bc bedd 14bd 7650 26bd
00000210: 9244 95bd 318b 033d d057 8bbd 0c8f 59bd
00000220: 5bed 45bc 8012 8dbc 9876 683b 91f0 993c
00000230: 9e16 193d ac3f 27bc dbfe e33c 93a3 2e3d
00000240: 263b e93a f42d 9cbd 8001 89bd d3f4 51bd
00000250: 0096 80ba f224 6cbc 8f2c e3bb d692 5bbd
00000260: e2a2 3abd aa7e 2bbd 415b c0bd aa51 4cbd
00000270: f8b5 1bbc 81e4 13bc 2a73 57bd 80b5 8e3a
00000280: 0697 07bd b3c2 68bd 6b66 f0bb f1c8 d5bc
00000290: 387f 5dbd c1cd 02bd 7395 48be db8c db3b
000002a0: 25f8 c8bb 4aa2 9a3c fe9e 93ba fb3c 9bbc
000002b0: 716d a6bd 2b29 d7bb e584 3c3e 10d4 35bd
000002c0: d226 21bc 0063 4d3c 5520 1fbd f673 9fbc
000002d0: edb1 3dbd 7645 13bd 809d 2fbd f574 253c
000002e0: f9c8 ba3c f28e 85bc 5bb4 26bd 85de ccbd
000002f0: 7994 cabd a544 a6bc 4ca7 ebbc 7338 37bc
00000300: aeb8 a73c 9cde dbbd a391 34bd 0431 87bd
00000310: c879 36bd 5cc4 2bbd 7aef 10bc 44e7 67bd
00000320: d5c0 68bd 8691 21bd 6656 e2bc 232c 31bd
00000330: 9cec c9bd 7fb2 193d f3a4 44bd dcab de3c
00000340: a815 b23b 9042 193d bf56 94bd d457 6ebe
00000350: 6cae 61bc 16e7 91bd d6bc 82bd 37a2 a538
00000360: 7af6 5abd 8320 0cbd 14e5 44bd f025 6abd
00000370: 75a9 c2bc d44d a4bd b43d 11bd 035e aebc
00000380: 369c 863c 73ca 20be 1dca 8bbd 27df b6bd
00000390: 776b 19bd 583a 02bd 2d4e 74bd 6470 fa3c
000003a0: 0e65 20bd a829 ab3c f65f 203d 29b7 bbbd
000003b0: 4e84 73bd 0931 79bd 97db a83e e211 89bd
000003c0: b5dd 8bbc bc68 b73e b92c e4bb bcba 073b
000003d0: 4fd9 a2bd 8593 a2bc c016 2cbd 1d31 9dbc
000003e0: ec1f a03c c813 313d c239 93bc cd72 71bd
000003f0: 791d 063c 1b75 63bd bd9d abbc 61ac 00be

fc3.weight f4 [1, 300]
0.00032185978 -0.320462 0.001603071 -0.016668404 -0.026934553 0.036788207 -0.008580428 0.0050060847
0.0012313817 0.028287916 -0.018960385 -0.040787574 0.0049653645 0.35904023 -0.010959481 0.036479015
0.03726834 0.015174819 -0.026528371 0.0027608594 0.0046549533 0.017957434 0.015267622 -0.0110690715
-0.024453077 -0.020561343 -0.20474112 -0.005882834 -0.013324942 0.020894254 0.06740985 0.008008106
-0.015042361 -0.0025509156 0.030374302 -0.01683079 -0.022971714 -0.007711726 -0.025982885 -0.0016743944
0.108167715 -0.024707995 0.0033359563 0.2374223 0.005486384 -0.047530677 0.02677265 0.029178452
-0.013274414 0.0007310047 0.019018892 0.03232013 -0.004911494 0.037446193 -0.005351406 -0.019905873
-0.023344569 0.1873864 -0.4423072 0.032521248 0.0050882916 -0.01312396 0.030511878 -0.0194909
-0.0069573843 0.009974399 2.3222354e-05 -0.013408291 -0.011459076 0.0012970662 -0.005302329 0.044144593
0.039003175 -0.027714748 0.0009959284 -0.029086111 0.0080755465 0.026368367 0.03494196 0.044505168
-0.023455286 0.015692929 0.0042730356 -2.5392737e-05 0.0132873375 -0.11983034 0.019344855 -0.010499017
0.00059522234 0.035693362 -0.026156418 0.17594971 0.029981235 -0.43056977 0.00026741766 -0.0013757753
0.00037684414 -0.0019029164 0.012804666 0.037364535 0.021278188 -0.0064169792 0.00059790775 0.042297352
0.015707674 -0.00677764 -0.5052014 -0.016064709 0.024942135 -0.00092297175 0.021411857 0.03318408
-0.026936688 0.0061919857 -0.0077125602 -0.019540964 -0.0047434345 0.02358144 0.0049564834 -0.016025541
-0.0066882903 0.052098054 0.0031907598 -0.030894088 0.0009340303 0.015697015 0.0018807645 0.029160941
-0.011941022 -0.0027998283 0.00013224907 -0.047489896 0.0134261595 0.0024793963 0.0014310488 0.0160026
0.004129119 0.04233877 0.0015545716 -0.02801081 0.0034144088 -0.036548927 -0.017217506 0.10353164
-0.017464872 0.013391594 -0.020245343 -0.029054238 0.05027409 -0.0026503515 -0.015642421 0.008463324
-0.03232634 -0.022638878 -0.0036783945 0.0031322064 0.016913425 -0.0024098456 -0.019797247 0.01559543
0.08268835 -0.02993929 -0.03767369 -0.017508257 -0.012094155 0.035329733 -0.194118 -0.02030238
0.0002410256 -0.028535837 -0.011531928 -0.025400065 0.00019759638 0.005335541 0.23476082 0.010303862
0.009127707 -0.007263153 -0.03284908 0.007709925 0.01625711 -0.019172296 -0.015564981 0.010012646
0.00064161705 0.01035452 -0.0042347736 0.03614541 0.030506782 0.0008520413 -0.021799987 -0.015272919
-0.0009898054 0.018398589 0.039514504 -0.017614886 -0.0100785745 -0.002337823 0.037674423 -0.021921432
-0.041562784 -0.057520915 0.021062477 0.027890952 -0.007661023 -0.022966832 0.053266916 0.0016342556
-0.013512243 0.09913947 -0.0002240451 -0.6725727 -0.02075568 -0.012500596 0.0035132568 -0.00084450963
-0.025834795 -0.023236815 0.034944635 -0.014019491 0.0063479748 0.0071250377 0.033768762 -0.0068359887
-0.005887591 -0.008919181 -0.001472266 0.014098785 0.0048062936 -0.04137496 -0.0029427663 -0.028645614
0.026763657 0.01334223 -0.0008487385 0.015174007 0.013032878 -0.007298384 0.2367298 0.035725776
0.003559207 0.23180717 -0.02891509 -0.020252746 0.024374893 0.08180904 0.0045798244 0.004817392
-0.00447439 0.0021796448 0.02753199 -0.0061421734 0.020849822 -0.0017866024 -0.023000281 -0.03650579
00000000: 4abf a839 9813 a4be 231e d23a 2d8c 88bc
00000010: daa5 dcbc 3baf 163d ec94 0cbc 150a a43b
00000020: 5066 a13a 0fbc e73c cf52 9bbc df10 27bd
00000030: 7fb4 a23b 1fd4 b73e 658f 33bc 056b 153d
00000040: b0a6 183d ce9f 783c 0752 d9bc 89ef 343b
00000050: 9488 983b 781b 933c 0c25 7a3c 0d5b 35bc
00000060: d251 c8bc 4370 a8bc a8a7 51be cac4 c0bb
00000070: dc50 5abc 6d2a ab3c 2d0e 8a3d 6e34 033c
00000080: 3c74 76bc 432d 27bb 87d3 f83c bae0 89bc
00000090: 2d2f bcbc a5b2 fcbb 0fda d4bc 5a77 dbba
000000a0: 0987 dd3d 6c68 cabc 0fa0 5a3b d51e 733e
000000b0: 20c7 b33b 87af 42bd 5152 db3c a607 ef3c
000000c0: ee7c 59bc e5a0 3f3a 82cd 9b3c 1d62 043d
000000d0: 99f0 a0bb 2e61 193d d95a afbb a411 a3bc
000000e0: 1c3d bfbc 38e2 3f3e 1776 e2be 0035 053d
000000f0: afbb a63b e105 57bc 0cf4 f93c 61ab 9fbc
00000100: c5fa e3bb a96b 233c a0cd c237 73ae 5bbc
00000110: d9be 3bbc 5202 aa3a 29bf adbb f6d0 343d
00000120: cbc1 1f3d 0a0a e3bc d089 823a ff45 eebc
00000130: 4c4f 043c 7902 d83c 4d1f 0f3d 0d4b 363d
00000140: 4d25 c0bc 758e 803c d204 8c3b 7d02 d5b7
00000150: 22b3 593c 9c69 f5bd 1a79 9e3c 1204 2cbc
00000160: b208 1c3a 3433 123d fc45 d6bc 292c 343e
00000170: 359b f53c a473 dcbe 3134 8c39 5c53 b4ba
00000180: 2a93 c539 476b f9ba a9ca 513c 8e0b 193d
00000190: 984f ae3c 8645 d2bb e9bc 1c3a fd3f 2d3d
000001a0: 61ad 803c f716 debb e154 01bf 239a 83bc
000001b0: 7353 cc3c 96f3 71ba eb67 af3c 08ec 073d
000001c0: 54aa dcbc 24e6 ca3b a5b9 fcbb 5f14 a0bc
000001d0: d06e 9bbb dd2d c13c ff69 a23b ff47 83bc
000001e0: 7229 dbbb c564 553d 111c 513b 9915 fdbc
000001f0: b6d9 743a 0797 803c fc83 f63a ede2 ee3c
00000200: 47a4 43bc 537d 37bb 57ac 0a39 c484 42bd
00000210: 65f9 5b3c 5e7d 223b 0892 bb3a e217 833c
00000220: 904d 873b 6b6b 2d3d c4c2 cb3a ed76 e5bc
00000230: 46c4 5f3b 54b4 15bd ba0b 8dbc 6508 d43d
00000240: 7e12 8fbc 6b68 5b3c 90d9 a5bc 2703 eebc
00000250: 34ec 4d3d 85b1 2dbb 8924 80bc c1a9 0a3c
00000260: a068 04bd 2b75 b9bc 3811 71bb b445 4d3b
00000270: 068e 8a3c 80ee 1dbb d62d a2bc f983 7f3c
00000280: 8258 a93d 3e43 f5bc ba4f 1abd 7a6d 8fbc
00000290: 9026 46bc e9b5 103d dec6 46be 2d51 a6bc
000002a0: d1bb 7c39 fdc3 e9bc 69f0 3cbc cc13 d0bc
000002b0: e031 4f39 c3d5 ae3b 2465 703e 88d1 283c
000002c0: 618c 153c beff edbb c28c 06bd 8aa3 fc3b
000002d0: a12d 853c 380f 9dbc 4304 7fbc 150c 243c
000002e0: 3132 283a 01a6 293c dbc3 8abb 360d 143d
000002f0: 5ce9 f93c 865b 5f3a e395 b2bc 443b 7abc
00000300: 5cbc 81ba a3b8 963c f6d9 213d 184d 90bc
00000310: 9b20 25bc 2936 19bb 7f50 1a3d 9394 b3bc
00000320: bd3d 2abd 0d9b 6bbd 378b ac3c 917b e43c
00000330: 5209 fbbb f024 bcbc 692e 5a3d 8534 d63a
00000340: 7462 5dbc a209 cb3d a6ed 6ab9 b92d 2cbf
00000350: d107 aabc 4dcf 4cbc ab3e 663b 1562 5dba
00000360: 7ea3 d3bc 225b bebc 1b22 0f3d 02b2 65bc
00000370: ac02 d03b 2679 e93b 1d51 0a3d 6e00 e0bb
00000380: b1ec c0bb c221 12bc 0df9 c0ba 97fe 663c
00000390: 1d7e 9d3b ca78 29bd 6ddb 40bb 35aa eabc
000003a0: 753f db3c 5e99 5a3c e07d 5eba 669c 783c
000003b0: da87 553c 4827 efbb 4c69 723e 3155 123d
000003c0: 9641 693b dc5e 6d3e 57df ecbc 16e9 a5bc
000003d0: dbad c73c 7f8b a73d 5a12 963b 37db 9d3b
000003e0: e79d 92bb 5fd8 0e3b c58a e13c 4944 c9bb
000003f0: 3fcd aa3c 6e2c eaba 166b bcbc 1887 15bd
