save/lsqmobilenetv2_cifar100_ratio0356bit26fratio0431rs0/critic.pkl (torch, 380421 bytes, 7 tensors)

fc11.weight f4 [300, 10]
00000000: 043e 53bd dfce 5f3e 0c02 43bd 192f 08be
00000010: 236f 89be be34 2b3e 01e9 debe 4b61 d33c
00000020: 6476 a6be 3f4c a0be fa39 47be a015 89be
00000030: 7d19 933e 9d36 723d cf93 553e 4df2 7a3d
00000040: 74c9 a73d 2569 be3d 0025 1ebe 41a8 8cbe
00000050: f1c8 f63d 9ff8 27bd 8fb6 b8bd 0bcc d33d
00000060: a869 493e 07c9 42be 865a d6bd 5ee2 7bbb
00000070: 4a45 9ebd c8c5 233e 0021 233e e3b2 58bc
00000080: c39d 6fbe 4776 a2ba 1abd 4c3e cd7b 2f3e
00000090: 181f 523d 8c4e fc3d bb69 b3bd 7a3e f23d
000000a0: 193a f1bd fe22 8f3e c97e 40be d3e6 1a3e
000000b0: 4ddd fbbc eeba 71be 596d 4cbd 18f9 fb3d
000000c0: bc13 853c f22b 663e d692 32bd 76c1 cd3e
000000d0: 0b08 95bd 609b f2be 2063 69be 3767 c43e
000000e0: 14c4 603e bb7c 16bd e222 83be 18da 543e
000000f0: 2317 923e be82 7d3e c0f9 8fbe db6c 5dbd
00000100: 8bbc c33d 8263 303d fd60 b5bc f6b6 a83d
00000110: c2e9 933e e41f 5d3d 64fa 763e 8803 4a3e
00000120: 08e2 34be ad14 9cbd 4315 e03d d488 08bf
00000130: 3a9a 0a3e 7c6e db3d de48 0b3e 6e47 14bd
00000140: 4188 87be 1365 11be c4ad d13c 9c1c 8cbe
00000150: e602 45be c369 9bbe d1c0 1d3c 387f 54be
00000160: c4dd 89bd 5c19 46be dfdf 0bbe 7729 283e
00000170: 4d03 833d e114 55bd 2498 b8bd 1353 883e
00000180: ec89 2e3e 69cc 2fba 73bd 613e d0f0 b43c
00000190: 0d6a 8abd 3d27 353e bcf8 8a3e 5b55 33bd
000001a0: ecd1 2fbd 85c2 68be aaaa 513e a492 a9bc
000001b0: c91f 8cbe 7bd7 a93d 6f82 523e 3e29 6f3e
000001c0: 12c5 12be c06e 3d3e 4a92 8ebb 5860 d03d
000001d0: c474 8cbc 4a24 3ebe 3156 c4bc 768e 673e
000001e0: 8fc1 273e db15 743e b1e4 febd aafe 133e
000001f0: 1aae 2fbe e328 423e dfaf a13e f219 98be
00000200: a059 8abe ea33 903d 24e9 84bd 1fcd a03e
00000210: 57d5 603e 3705 183d 82d1 90be f09d 7f3d
00000220: 7cf9 4fbe a0de da3b 0001 c83d 0c91 603e
00000230: e843 063e 6eb0 32be af6c b03d 2dbd 69bd
00000240: bcc7 8abe 9207 193c 2837 d73d c53a 6a3e
00000250: 8ede e13d db8e 8c3e 99e1 11be c688 debc
00000260: 7733 0cbe 91c3 023e 206a 85bd ea4d d6be
00000270: 0ac5 45be a5a4 d1be be66 d73d 023f cdbd
00000280: cbf2 6e3e 23d7 9c3e 1037 9d3e cab1 c63c
00000290: 604a 89be bb1c fdbc c0ac 9cbb 5caf 9ebe
000002a0: a773 383e 4fde 58be c4a9 923d 1fc7 543e
000002b0: ef6b 5dbe 9ab2 ca3c be0a 3fbe eef6 493e
000002c0: 4efa 87be e5d3 9a3e 3d95 edbe 0d87 44be
000002d0: 441e 823e 04ff b2be 8669 443e 2f61 97be
000002e0: d33c 10be 4b63 06bf 4907 36be 4ae7 4f3e
000002f0: 9832 423d b9bd 163e 6ae1 a93d 1f5f 1d3c
00000300: a1e7 1f3e f3a4 ac3e 4fc2 b43d 6a25 fe3e
00000310: 20ad c5be 6dc1 e23e 72b3 953e 3061 c03d
00000320: 7de1 223e 0956 80be dfad b4be c64b 223e
00000330: e84d e1bd a6d6 12bd f9db a23d dd0a 6a3e
00000340: 04ed 99be dd18 c63d 4a03 4abe a5c2 803e
00000350: 8609 0dbc 57c6 603e 0120 54be b14a 063d
00000360: 7a81 55bd 320e 7dbc 14a5 60bd ebfb f9bd
00000370: 667e 4c3e 4a5e 1dbe 78bb 74be 3adf bcbc
00000380: 62ea 95be 5830 f5bd 2365 403e d8d1 15bd
00000390: 48ee 8f3e 6b25 88bd 9b3f 7c3d 3eff 05be
000003a0: d76a 4a3e 4850 983e e2b4 2e3e 67f2 fa3d
000003b0: 0bd2 ccbd 4ea0 87bc 7c60 003d 1119 3fbd
000003c0: 66e7 d5bd 8066 993e 0cf9 98be 02c8 6d3e
000003d0: 4ec4 503e aa30 9abe d1f5 2c3d 6cdb 02be
000003e0: 54b5 14be 8998 5abe 2d6d eb3d 3739 b4bd
000003f0: 3080 3abe dc81 8fbd b226 2a3e ec4f 77bd
-0.051572815 0.21856259 -0.047609374 -0.13299216 -0.26842603 0.16719338 -0.43537143 0.025803229
-0.325122 -0.3130817 -0.1945571 -0.2677431 0.28730384 0.059134115 0.20857166 0.061266232
0.08192721 0.092973985 -0.15443802 -0.27472118 0.12050045 -0.041008588 -0.09019195 0.103416525
0.19669211 -0.19021998 -0.10466485 -0.0038434486 -0.077280596 0.15993416 0.15930557 -0.013226244
-0.23400025 -0.0012394869 0.19994012 0.1713707 0.051299185 0.12319669 -0.08760401 0.11828323
-0.117786594 0.27956384 -0.18798365 0.15127115 -0.030745173 -0.23606464 -0.04990897 0.1230337
0.016244762 0.22477701 -0.043597065 0.4018666 -0.07276925 -0.47384167 -0.2279172 0.38359997
0.21949798 -0.036740046 -0.2561255 0.20786321 0.28533277 0.24756905 -0.28120232 -0.05405889
0.09557446 0.043063648 -0.022140974 0.08238022 0.2888928 0.05398549 0.24118954 0.1972791
-0.17664349 -0.07621131 0.10941555 -0.53333783 0.13535395 0.107144326 0.13602015 -0.036200933
-0.2647114 -0.14198713 0.025595553 -0.27365577 -0.19239387 -0.30354127 0.009628491 -0.20751655
-0.067317516 -0.19345611 -0.13659619 0.16422068 0.06397114 -0.052021865 -0.090133935 0.2662588
0.170448 -0.00067061797 0.22044925 0.022087485 -0.06758509 0.1769075 0.27142894 -0.043782573
-0.042924806 -0.22730453 0.2047526 -0.020699807 -0.27368 0.08293053 0.20557569 0.23355576
-0.14332989 0.18499279 -0.004350935 0.10174626 -0.017145522 -0.1856853 -0.02396688 0.22612938
0.1638243 0.23836462 -0.12445963 0.14452615 -0.17156258 0.1896091 0.31579491 -0.29707295
-0.27021503 0.07041152 -0.064897805 0.31406495 0.21956383 0.03711435 -0.28284842 0.06240648
-0.20310014 0.006679371 0.09765816 0.21930331 0.13111842 -0.17450115 0.0861448 -0.057065178
-0.2710551 0.009340184 0.10508567 0.22873981 0.11028777 0.2745274 -0.14246215 -0.027164828
-0.13691507 0.12769915 -0.06514382 -0.4185632 -0.19313446 -0.40945926 0.105176434 -0.100217834
0.23334806 0.30632886 0.30706072 0.024254698 -0.26814556 -0.030897489 -0.0047813356 -0.30993164
0.18012868 -0.21178554 0.071612865 0.20779084 -0.21623205 0.024743367 -0.18656442 0.19723102
-0.26558155 0.30239788 -0.46402922 -0.19192143 0.25413716 -0.34960186 0.19180879 -0.29566333
-0.14085703 -0.5249526 -0.17776217 0.20303074 0.04741153 0.14720811 0.082949474 0.009605198
0.15615703 0.33719596 0.08826124 0.4963792 -0.38608646 0.44288197 0.29238468 0.09393537
0.1590633 -0.2506564 -0.35288903 0.15849218 -0.110011876 -0.035849236 0.07952113 0.22855707
-0.3006364 0.09672711 -0.19727817 0.25148502 -0.008608228 0.2195066 -0.20715334 0.032786075
-0.05212543 -0.015445279 -0.05484493 -0.12206253 0.19970092 -0.15368 -0.23899639 -0.023055661
-0.29280382 -0.119721115 0.1878858 -0.036577076 0.28111482 -0.06647762 0.061584096 -0.13085648
0.19767319 0.2974875 0.17061189 0.12253266 -0.10001 -0.016555931 0.031342015 -0.046654765
-0.104445264 0.29961014 -0.29877508 0.23220828 0.20387384 -0.30115253 0.042226616 -0.12779015
-0.14522296 -0.2134725 0.11495433 -0.08799975 -0.18212962 -0.070071906 0.16616324 -0.060378954

fc11.bias f4 [300]
00000000: 7348 0cbc 0fc1 483d 0246 383d 368c 42bd
00000010: 3af4 573e bd12 b13e 83e4 4f3e 0065 993e
00000020: 8737 c93c 501c 7e3e 8e5d 893c 4d46 0b3d
00000030: 80c6 54be 6da0 873d 3b0a 9fbe 9889 873d
00000040: 8145 973e 76b4 103e 0259 463e 2b86 493d
00000050: 4f82 83be fcf3 5b3d 7258 813d 889b ecbd
00000060: 83ce 483e cac7 4dbd cdb4 35be 31c5 423e
00000070: 2444 aa3d 6418 0b3d 4d53 4e3e b814 cdbd
00000080: 15bb 1d3e 6f09 123e d149 563e 6dcc 4e3e
00000090: 5010 893e 539d bf3d 1cd7 33be 957c 623e
000000a0: 89ce 88be 4ebb 8d3e 2b0a 1f3e 6b5e b0bc
000000b0: d571 9dbd 4538 c2be 6ddb dabd ef79 313e
000000c0: 253d 1c3e d411 253e 82df 29be 888f 0c3e
000000d0: 1432 0b3e eddf 88be 9dd0 ba3d 13d0 383e
000000e0: 1457 1fbe bae0 423e 2a71 7cbe 10bb 423e
000000f0: afaa 3cbe 4a4c 92bd 293d 96be b1ab f8bd
00000100: 7b30 33be 545e 7b3e 3259 8f3d bd59 8c3d
00000110: 761b 66bd 4409 1f3e 85d5 54be 905b 703e
00000120: 1143 5b3e 42d3 9bbe d7bf 403e 9eca 943d
00000130: 757e 863e f6ac 0e3e 24cf 96bc 0b10 813d
00000140: d6c4 65be 4b3c 963e d5ea ca3d 06bc d73d
00000150: 02ac 133e 100c 22be 06d4 963d abf1 d2bb
00000160: 4ff1 413e 7594 853e e394 c0be c2b9 99be
00000170: 8b60 83be 6542 173e 2fb1 f13d 2607 4cbe
00000180: 36c6 4a3e f8e3 03be 0d16 84be add3 273e
00000190: 35d5 a83d 6f32 933e 312e bbbd 623e 9fbe
000001a0: 443a 92be f7ee efbd c9ba 55be 217c 12bb
000001b0: 6f03 e2bd 4a4e cdbe 2c46 133e 4e3d 883d
000001c0: a6f3 7fbd 5f70 873e 5bc4 91be bd10 59be
000001d0: 5bc3 323e d784 e4bd c987 5bbe 1e2e 843e
000001e0: 5ffb 363e b47c 64be a074 90be c73c 6abe
000001f0: aa80 6d3e 613e a43e bf53 9abe 8f15 a73d
00000200: 7df7 98be e68b 95be 22f3 4bbd 3844 9d3d
00000210: 816d d6bd f093 e6bc d6cf 1a3e cf18 5fbe
00000220: a608 8abe f499 893c 8cda 33be 9c15 35be
00000230: 3e67 213e 908d 4f3c ca4a 2b3e ba40 01be
00000240: 0883 25bd ee3b 84be b862 013e 12c5 003e
00000250: 76ba 9f3e b71d 323d 3c93 39bd c402 993e
00000260: 223b 3a3d 12e4 3e3e ebd5 84be 2329 a83c
00000270: e6fb b7bd 585b 55be 0425 8bbe 96c5 923e
00000280: d646 23be de24 743e 1cc7 8dbe 33dc fd3c
00000290: 7226 913e c63c 87be 51d9 023e 0b38 8dbe
000002a0: e636 7fbe ff10 61be 41e7 653e 9f04 8c3e
000002b0: 4d53 b53d 8f57 40be bed0 5f3e 3049 843e
000002c0: c48d 8bbe f40e 1dbe 44e8 43be 89d6 653e
000002d0: 61cb 79be 8f7e 2b3e 806d 9bbe bee1 1abe
000002e0: 7933 b3bd 7320 14be 367d 933e b91b ca3d
000002f0: 60e4 93be 64c7 3dbe a8ea 903e bfec 333d
00000300: fa9c 8dbe c107 a6bd 9032 a3bd 2bd4 21be
00000310: 2c9e 3e3d 82dd fdbd b0ee 063e 180d 60be
00000320: 885f c6bd 56b9 ca3d 9156 7ebe 7845 573e
00000330: f4de 9b3e 01f2 163d 793a 0abe 2f19 7d3e
00000340: d752 2c3e 6ed2 01bd 654c 2b3e f2e6 c7bd
00000350: adc3 91be ab0c 7eba 95cd 09be 1fba b1be
00000360: 2a57 dabd 1d02 d93c fe40 9d3c 33bf 97be
00000370: 2fd0 f9bd 393f a5be ac73 9c3e e374 4bbe
00000380: 80e4 8e3e 3a4d 86bb 6122 363e 305b 3a3e
00000390: 40cb 5bbe 303a 113d 68d3 0c3e 9f10 6c3e
000003a0: dd2d 103e 23c4 96be 32cb 4abd 0893 8fbd
000003b0: f3c4 363e ed93 4b3d efc5 28bc 7801 8a3e
000003c0: 1315 593e a80f a0be db5f bcbd c861 3b3e
000003d0: ced3 30be 176f 15bd 6360 91be a267 11be
000003e0: 935c 913c 753b dbbd 8530 123e eedd 083e
000003f0: 1b1a 84be b1c1 a1bd 2e76 0f3d ad07 3ebe
-0.008562195 0.04901224 0.04498864 -0.047496997 0.21089259 0.3458461 0.20302014 0.2995987
0.02456261 0.24815488 0.016768243 0.03400259 -0.20778847 0.06622396 -0.31062493 0.06618041
0.29545215 0.1413134 0.19369891 0.04920022 -0.25685355 0.05369948 0.06315698 -0.11553103
0.19610028 -0.05023936 -0.17744751 0.19020535 0.08313778 0.033958808 0.20148964 -0.100137174
0.15403397 0.14261411 0.20926596 0.2019517 0.26770258 0.09356179 -0.17562526 0.22117837
-0.26720074 0.27681965 0.15531223 -0.021529397 -0.07687727 -0.37933555 -0.106863834 0.1733167
0.152577 0.16120082 -0.16589168 0.13726628 0.13593322 -0.26733342 0.09121821 0.18048124
-0.15560561 0.19031039 -0.24652544 0.19016671 -0.18424486 -0.07143457 -0.29343536 -0.121421225
-0.17498963 0.24547702 0.069994345 0.06853054 -0.056178533 0.15530878 -0.20784576 0.23472428
0.21412303 -0.30434614 0.18823181 0.07265209 0.26268354 0.13933167 -0.01840932 0.06301888
-0.22438368 0.29342875 0.09908072 0.105339095 0.14421085 -0.15824914 0.07364659 -0.0064375005
0.18939708 0.26089826 -0.37613592 -0.30024534 -0.25659594 0.14771421 0.11801373 -0.19924602
0.19802174 -0.12879932 -0.25798073 0.16389342 0.08243791 0.28749415 -0.0913967 -0.31102282
-0.28560078 -0.11715501 -0.20872034 -0.0022351819 -0.11035811 -0.40098792 0.14382237 0.06652318
-0.06248822 0.2645292 -0.2847012 -0.21197791 0.17457335 -0.1115815 -0.21438517 0.25816435
0.17869328 -0.22313195 -0.28213978 -0.22874747 0.23193613 0.3207884 -0.30142018 0.08158409
-0.2987632 -0.29208297 -0.049792416 0.07679027 -0.10470105 -0.028146714 0.15118346 -0.21786807
-0.26959723 0.016797043 -0.17563838 -0.17684025 0.1576204 0.0126680285 0.16727749 -0.12622347
-0.040408164 -0.25826973 0.12635314 0.12575176 0.31196946 0.04348537 -0.04530643 0.29884923
0.04546655 0.1864169 -0.25944456 0.020527428 -0.08983593 -0.20835626 -0.27176678 0.2866637
-0.1594499 0.23842189 -0.2769097 0.030988788 0.28349644 -0.26413554 0.12778212 -0.2758182
-0.24923286 -0.2197914 0.22451498 0.27347276 0.08853779 -0.18783401 0.21856973 0.25837088
-0.27256596 -0.15337735 -0.19131571 0.2244512 -0.24393989 0.16747497 -0.3035698 -0.15125176
-0.08750052 -0.14465503 0.28806466 0.09868569 -0.28885174 -0.18533093 0.2830403 0.04392695
-0.27658826 -0.08106948 -0.079686284 -0.15803592 0.046537563 -0.12395765 0.1317699 -0.21879995
-0.0968619 0.09898631 -0.2483771 0.21022594 0.30443537 0.036851887 -0.13498868 0.24716638
0.16828476 -0.031694822 0.16728361 -0.09760846 -0.284696 -0.0009691219 -0.1345733 -0.34712312
-0.106611565 0.026490266 0.01919603 -0.2963806 -0.12197911 -0.32274798 0.30557 -0.19868807
0.27908707 -0.0040985616 0.17786552 0.18198848 -0.21464252 0.035455883 0.1375252 0.23053215
0.14079995 -0.29446515 -0.04951019 -0.07010466 0.17848568 0.04970162 -0.010301097 0.26954246
0.21199445 -0.31261945 -0.091979705 0.1829902 -0.17268297 -0.036482897 -0.2839385 -0.14199689
0.017744338 -0.107047 0.14276321 0.1336591 -0.25801167 -0.07898272 0.035024814 -0.18557616

fc12.weight f4 [300, 1]
00000000: 8e75 ffbe a013 77be 50a1 51bf d00f 223e
00000010: c7a0 49bf 38bc 76bf 0e07 5ebf 1513 bd3d
00000020: c666 11bf 0935 a53e f4fd a33e 62f1 1b3f
00000030: 90c9 043e 2897 493f 2108 2bbf 6cb7 a7bd
00000040: f0cb f3bd 7ec2 3f3f d339 a13e 75b0 453e
00000050: fe98 debe f42e 143c 8026 11be 3892 7cbe
00000060: 3059 4ebe 3858 2abf 117f 53bf 9eb8 58bf
00000070: 6835 46bf 6a7d 3abf fd9e 0e3f 3485 323f
00000080: 9836 b9be eefa 973c 0c1f 3abe dfea de3e
00000090: 6690 7a3f 8ce1 103e 4a49 063e d215 6abf
000000a0: 5cdf 543f 7a57 68bf 80f7 07be 6981 263f
000000b0: 8c64 3cbe 1c74 b5be 2aa4 2e3f c99c 19bf
000000c0: 2ef0 4d3f 384e d33e b58c f93e 752f 3a3f
000000d0: 0491 64bf 1e2c 0c3e fa7c 98be 8e5d 16bf
000000e0: a58b 793e 3ad2 233f 7d03 183f fb10 ad3e
000000f0: 56bc 62bf 3948 e83d 49a3 603f 9e97 4ebf
00000100: 07f1 143e 4059 5d3e 14ef fd3e c897 ecbe
00000110: 6088 003e da70 cdbe b467 6fbf d35a f8be
00000120: 083e e13e 6673 0abf 81ee 633d ed7b 51bf
00000130: 2e78 15bf 0411 a6be b280 56bf f356 a23d
00000140: 5d7f b5bd ad23 16bf ba88 cfbe 511c 073f
00000150: ed75 403f 9ab2 14bf 98c2 32bf 2fc8 e03e
00000160: 71e5 41bf d8f8 03bf 30bf 893e ec1b d93e
00000170: 2375 463f 2141 533f 3eca 2fbf db15 7c3f
00000180: 0d81 613f 6334 0fbf 6256 4b3f 2ac5 563f
00000190: 7585 7e3e 3011 30bf ad9c 03bf 8efc 603f
000001a0: e56e 1fbf 4d9f da3e 8097 e5be 25d3 a3be
000001b0: 1fc3 643f 0bb7 77be 715b c9be 01f1 45bf
000001c0: 3b6f 23be 0289 bbbe d53f f83e 2031 0b3f
000001d0: e717 4bbf 20a3 603f d4b7 553f 5e6c ebbe
000001e0: d554 463e 2d3b 4d3e 963d 59bf 3031 c53d
000001f0: e1d0 5c3f a0e4 073f d53e 5d3f acbb 74bf
00000200: 90af 133f 0bd5 9dbe 89b5 4c3f 469f 2ebe
00000210: d8b9 2ebe 271d d63e 7f2a 46bf bbd1 48bf
00000220: 3471 65bf 4a9f 3abf 89db 05bf ef8a 343f
00000230: 74c8 d63e 480a 89be ec5b 0a3f 44a1 01bf
00000240: 0587 dd3e fd3a 373f 2542 033f 4af6 ae3e
00000250: 53ee 5a3f d3b1 483f ac93 40bf 483e a6be
00000260: 2573 683f 8cd8 15bf b042 ef3d 4af7 6ebf
00000270: 0065 093f 6d92 24be e4d0 10bf c8c5 38be
00000280: 1e8d 2cbf cfd3 623e 8108 54bf cd2c 1e3f
00000290: af9b 1dbf cd16 3e3f 0a70 75bf 05bd febc
000002a0: 86a5 0e3f 0338 ec3e 70a4 5d3f 7de7 263e
000002b0: 9a6e 2f3f 65db 0ebf bfcf 38bf 034e 7d3e
000002c0: 0080 813e 493c bebd 3523 533f 314c f13e
000002d0: f00a 7a3e 8d61 9fbe 3044 1f3f a0e1 6bbd
000002e0: 51ed a0be 7454 723e 05b0 1fbd 6721 9f3e
000002f0: e377 9bbe 4deb 67bf 5744 3c3f e070 11bd
00000300: 48f3 1fbe 85e3 20bf e0af 033f 74ce 593e
00000310: aa4e cd3e 1179 173e ac4a fb3e 2f96 0bbf
00000320: e680 6c3e 3043 23bf cc85 74bf 501a d43d
00000330: d0e3 2a3f 664f 903e 0422 8e3e c909 20bf
00000340: cb9f 02be 8862 bf3e 757c 4c3f f86b 3c3f
00000350: 2c53 acbe 46a2 63bf f3e2 09bf cea7 5c3f
00000360: e011 3e3f f06d 53bf aa22 243f d44b 5abf
00000370: 1c1c 14bf 9fda 293f de58 67bf 985b c5be
00000380: 74c3 0bbf 9791 c7be 782d 7a3e 8a6f 393f
00000390: aeb4 9c3e f846 3ebf a5b8 d03c 480b 66bf
000003a0: 2057 7fbf 4277 523f 8934 3f3f 584d 95bd
000003b0: 5ced 54bf 8608 d2be dcd4 7cbd cefe 24bd
000003c0: 7e7f 2e3f 6ee8 83bf aae7 8fbe ff47 273f
000003d0: 7525 ab3e 8dfa d33e 0077 823b 7bf3 033f
000003e0: c3c2 fdbd 006b 563f 4918 65bf a470 77be
000003f0: c4f6 783e 909d 9a3e c049 dabe fa20 583f
-0.49894375 -0.2412858 -0.8188677 0.15826344 -0.7876095 -0.9638095 -0.86729515 0.09232155
-0.56797445 0.32267025 0.32029688 0.60915196 0.12967515 0.7874627 -0.6680928 -0.08189282
-0.11904132 0.74906147 0.3148943 0.19305594 -0.434761 0.009044398 -0.14174843 -0.24665153
-0.2015121 -0.6654086 -0.8261576 -0.84656703 -0.7742524 -0.72847617 0.55711347 0.697345
-0.36174464 0.01855227 -0.18175906 0.43538567 0.97876585 0.1414854 0.13113895 -0.91439545
0.8315332 -0.9075848 -0.13278008 0.65041214 -0.1839773 -0.35440147 0.68219244 -0.6000486
0.8044461 0.41270614 0.48740163 0.72728664 -0.89283776 0.13688704 -0.2978285 -0.58736503
0.24369676 0.63992655 0.5938032 0.33802018 -0.8856863 0.113419004 0.87749153 -0.807001
0.1454507 0.21616077 0.49596465 -0.4620955 0.12552023 -0.4012516 -0.93517613 -0.48506793
0.4399264 -0.54082334 0.055647377 -0.8182972 -0.58386505 -0.32434857 -0.83790123 0.079267405
-0.08862183 -0.58648187 -0.40534002 0.5277758 0.7517994 -0.58085024 -0.69828176 0.43902728
-0.75740725 -0.5155158 0.26903677 0.42404115 0.77522486 0.82521254 -0.6866797 0.9847085
0.8808754 -0.5593931 0.79428685 0.838946 0.24855597 -0.68776226 -0.51410943 0.8788537
-0.62278587 0.42699662 -0.44842148 -0.31997028 0.8936023 -0.24190919 -0.39327577 -0.7732087
-0.159604 -0.36627966 0.484862 0.54371834 -0.7933335 0.8774891 0.83483624 -0.45981115
0.19368298 0.20042105 -0.848596 0.096285224 0.86256224 0.5308323 0.86424 -0.95598865
0.5768976 -0.308266 0.799645 -0.17052945 -0.17063081 0.41819116 -0.77408594 -0.78445023
-0.8962586 -0.72899306 -0.5228811 0.70524496 0.4194981 -0.26765656 0.5404651 -0.50636697
0.43267074 0.71574384 0.51272804 0.3417228 0.85519904 0.7839634 -0.7522533 -0.32469392
0.90800697 -0.5853355 0.116826415 -0.93346083 0.5366974 -0.16071482 -0.5656874 -0.18044198
-0.6740283 0.22151111 -0.82825476 0.6178711 -0.6156568 0.7425354 -0.95874083 -0.03109599
0.5572132 0.46136484 0.86579037 0.16299243 0.6852814 -0.5580352 -0.72191995 0.2473679
0.2529297 -0.09288842 0.82475597 0.47128442 0.24418235 -0.31129113 0.6221342 -0.05758822
-0.31431058 0.23665029 -0.038986225 0.3108017 -0.30364904 -0.90593415 0.7354178 -0.035508037
-0.15620148 -0.6284717 0.5144024 0.21270162 0.40099078 0.14792277 0.49080408 -0.54526037
0.23096046 -0.63774395 -0.9551666 0.10356581 0.66753864 0.28185576 0.27760327 -0.6251493
-0.12756269 0.3737986 0.79877406 0.7360225 -0.33657205 -0.88919485 -0.5386192 0.8619355
0.74246025 -0.82589626 0.64115393 -0.85271955 -0.5785539 0.66349214 -0.90369976 -0.38546443
-0.5459511 -0.38978264 0.24431407 0.7243582 0.30606598 -0.7432704 0.02547867 -0.89860964
-0.9974232 0.82213223 0.7468954 -0.07290143 -0.8317468 -0.41022128 -0.061726436 -0.040282063
0.6816329 -1.0305307 -0.28106433 0.6534423 0.33427015 0.41402093 0.003981471 0.51543397
-0.123906635 0.8375702 -0.8949018 -0.24164063 0.24312884 0.30198336 -0.42634392 0.8442532

fc12.bias f4 [300]
00000000: f1ad fc3e 023b 7cbf 3463 f9bd 1e5a 5abf
00000010: fc94 683f 406c 91be a2dc 6ebf 8934 d4be
00000020: d4c9 5dbf 9d4d 6fbf 0075 5ebf 1c7b 60bf
00000030: 84ed 4cbf 426d c13e a7a2 d23e c1a2 1e3d
00000040: b270 6fbf 80fc 56bf c696 733f 85ca 74bf
00000050: 3a86 ff3e 172a f93e fc8f 6fbf c604 03bf
00000060: 777c 4c3f ece2 ecbe bb57 763f 21c5 703f
00000070: d036 9cbe 38f2 74bf 4bde 873e d5f9 083f
00000080: 5ce1 47bf 2b6f 793e 6d5b 3fbf 5093 4cbf
00000090: 08c5 26bf 204e 453e f1f3 a13e ef1a 0b3f
000000a0: dd8d 253f cc19 cabe 8ca1 70bf cf98 4c3d
000000b0: 057e 35be 5b9e 393f 6220 293f c1c8 933b
000000c0: 2ca7 9a3e dad5 0f3f f25c 2bbf 1327 8ebc
000000d0: ca13 033f 31b5 813d dbed 2fbf 4a2b 01bf
000000e0: 30a3 87be 6c83 533f 19c0 1d3e 21ba 34bf
000000f0: 04c9 18bf d35b dabd 4848 e5be 5e89 4fbf
00000100: 09da d43e 7296 11bc 419c 76bf 7092 7bbf
00000110: 56d8 72bf 59ea 5f3f 4ec5 583e 8b6f 0cbf
00000120: ff2c d2be afa5 0a3f d4cd f9bd fc32 fd3d
00000130: 3863 3b3f 8a83 c03e d075 4bbf 4531 5e3f
00000140: 59f1 983e 3ac0 343f 1568 bcbd 03cc 333f
00000150: 5b50 04be 10b1 aabe 8c53 cabe b158 07bf
00000160: dd80 dd3e 7e3e 8d3e d59e 5e3f ce54 2abf
00000170: bb86 58be 11dd 523f ea35 9cbe 5780 99bd
00000180: abb0 0bbf 104a 3fbc 0aea a3be 4513 2cbb
00000190: d027 8cbc 9305 563e 393d 5c3f 689b 45be
000001a0: fc95 183f 7ec1 9e3d 7cd0 31bf c3d0 9e3d
000001b0: edc2 c43e 1be5 c13e 6c27 603f 8caf de3e
000001c0: 58e8 b93d e1ad 1f3f 19e1 093f e4a8 dfbe
000001d0: 873b 2fbf ff08 363e 2c5c 273f 0191 673f
000001e0: 6028 393e 2c5a 37bf 8071 aebc ec62 f3be
000001f0: 6d79 793e b856 4cbf d58a 4e3e 5cb3 9cbe
00000200: 7869 32bf c445 eb3e 9ccf 12bf 65a4 253f
00000210: 46b6 07bf 3a6b 963c 0c38 f03e b7d1 233e
00000220: 2876 35bf 946f 74bf fee8 5b3f f02a 033f
00000230: 2a22 d03e f8c3 333f 8deb 633e 8c96 dcbe
00000240: 6750 013e 0cdf 05bf 206f 113f 6f7a 73be
00000250: c7a6 1fbf 1cbb f2be ee18 60be 4a07 3ebf
00000260: 5101 3f3f a69e c8be 6231 49bf 5b01 d83e
00000270: 8071 4c3f 32e9 c93c 1c5b 53bf 1c0d 4ebf
00000280: ac77 42bf b399 d03d 8fcf 133f 576a 35be
00000290: bba0 b73e e294 4e3f e038 27bf cd7e 7dbe
000002a0: 80af 58bf 9d33 143f 8071 b4be 2fb1 c33c
000002b0: 52e0 4dbf 91ee 783f 8693 4f3e 232a 113f
000002c0: 469d 69bf 0c80 4d3f 4a32 27be 2ce3 79bf
000002d0: b214 60bf 516d 013f ed89 94be 0406 32bf
000002e0: 23da 56be 35ce 443f f4ac 72be bfb8 743f
000002f0: a133 003d d093 683f 41e6 f7be 9283 44bf
00000300: 4c0b 35bf bba4 5e3e 6b1b 18bf 2bf5 bb3e
00000310: 7794 c93d f2dd 253f 22c8 643f 6563 4c3f
00000320: 6030 043f eb24 1fbf f072 e73e 58ab 09bf
00000330: 4a0e 71bf f50f cd3b 8906 a23e a3f1 25bf
00000340: e61f 4b3f a6f7 74bf 1f4b 23bf b6c0 523f
00000350: 60cd a5bd ba26 32bf b3da 2b3f 302f 8cbd
00000360: 4add afbe 2cf0 a1be f483 07bf 92bd 08bf
00000370: 38da 1dbf 881b f6be 9dea e23e bed4 42bf
00000380: dfe6 5d3f a78a d2be 8194 103f 476c 6c3f
00000390: be90 84be a891 5dbf 87ab 8bbe 42dc aabe
000003a0: a803 2d3f 31df 3bbc b973 a93e 556c 033e
000003b0: 8ac5 4c3f e846 403e dd1a ad3e 9a73 38bf
000003c0: 6e86 10be c8bc 53be 4552 533f 07c1 42bf
000003d0: b06b c6be 8aa6 c7be a0f1 1ebe 2514 39bf
000003e0: 7c8d acbd d431 3b3f 8c2b a13c dbc4 de3e
000003f0: 704b b9bc a0da 6abf 746c 49bf 0145 71bf
0.49351457 -0.9852754 -0.121771246 -0.8529376 0.9085233 -0.284029 -0.9330541 -0.4144633
-0.8663609 -0.93477803 -0.8689728 -0.8768785 -0.8004992 0.3777867 0.4113972 0.038729433
-0.93531334 -0.83979034 0.95151937 -0.9562152 0.49907094 0.48664925 -0.9357908 -0.5117916
0.7987742 -0.46266878 0.96227616 0.94050795 -0.3051057 -0.95682096 0.26536784 0.53506213
-0.78078246 0.24358813 -0.7474888 -0.7991228 -0.65144396 0.19268084 0.31631425 0.5433797
0.6466959 -0.39472806 -0.939965 0.049950417 -0.17723854 0.72507256 0.6606504 0.0045100157
0.30205667 0.56185687 -0.669387 -0.017352616 0.5120207 0.06333388 -0.68722314 -0.5045668
-0.2649169 0.8262241 0.1540531 -0.7059651 -0.59681726 -0.10662045 -0.4478171 -0.8106898
0.41572598 -0.008885967 -0.96332175 -0.9827032 -0.9486135 0.8746696 0.21169016 -0.548577
-0.41049954 0.54159063 -0.12197462 0.1236324 0.7319827 0.37600356 -0.7947664 0.8679393
0.29871634 0.70605814 -0.091995396 0.7023317 -0.12921278 -0.33338213 -0.39516866 -0.5286971
0.43262377 0.2758674 0.8696111 -0.6653565 -0.21145146 0.8236857 -0.30509883 -0.07495182
-0.5456645 -0.011675373 -0.32014495 -0.0026256603 -0.017108828 0.20900564 0.8603092 -0.19297564
0.5960386 0.077517495 -0.69458747 0.07754662 0.38429967 0.37870106 0.87560153 0.43493307
0.09077519 0.62374693 0.53859097 -0.4368354 -0.68450207 0.17776869 0.6537502 0.90455633
0.18081808 -0.71621966 -0.021294355 -0.4753641 0.24362727 -0.7981982 0.20170148 -0.3060559
-0.6969218 0.45951664 -0.57348037 0.6470397 -0.530125 0.018361676 0.4691776 0.15997969
-0.7088342 -0.95482755 0.8590239 0.5123739 0.40651065 0.702209 0.22257824 -0.43083608
0.12628327 -0.5229347 0.5681019 -0.23777173 -0.6236386 -0.47408378 -0.2188451 -0.7422987
0.74611384 -0.3918354 -0.7859098 0.42188534 0.7986069 0.024647329 -0.82560897 -0.80488753
-0.75963855 0.10185566 0.57738584 -0.17716347 0.35864815 0.8069593 -0.6532116 -0.24755402
-0.8464279 0.57891256 -0.35242844 0.023888199 -0.8042041 0.97239023 0.2027112 0.5670492
-0.91255605 0.8027351 -0.16327778 -0.9761226 -0.8753158 0.5055743 -0.2901148 -0.6954043
-0.2098165 0.76877147 -0.23698789 0.955944 0.031299237 0.90850544 -0.48417857 -0.7676326
-0.7072036 0.21742527 -0.59416837 0.36710486 0.098427705 0.64791787 0.8936788 0.79839164
0.51636314 -0.6216571 0.45204878 -0.53777075 -0.9416243 0.0062580057 0.3164561 -0.64821833
0.7934555 -0.9569038 -0.637865 0.82325304 -0.08095813 -0.6959034 0.67130584 -0.06844938
-0.34348518 -0.3162855 -0.5293572 -0.5341426 -0.616611 -0.4806788 0.4431962 -0.7610587
0.86680406 -0.41121408 0.564766 0.9235272 -0.2589168 -0.8655038 -0.27279302 -0.33371168
0.67583704 -0.011466787 0.33096102 0.12834294 0.7998892 0.18777049 0.33809558 -0.72051394
-0.14113781 -0.20677483 0.8254741 -0.76075786 -0.38754034 -0.38994247 -0.1552186 -0.72296363
-0.084254235 0.73122907 0.019674085 0.43509564 -0.02261898 -0.91739845 -0.7868111 -0.94245917

fc2.weight f4 [300, 300]
00000000: 1b15 b0bc 2fbe 3c3d 8ba8 36bd b195 efbc
00000010: 2860 0d3d 5587 64bd 7930 78bb b48c 1bbd
00000020: a0da 4ebc 55c8 413c 0873 213d a83a 5c3d
00000030: 6fdb 4d3d 1394 31bd 515a 42bd de3e e13c
00000040: c2fb 2f3d 2018 45bd 2b1d d5bc c50b b7bb
00000050: 4430 b4bc c159 63bd 6f07 2e3c 5342 3b3d
00000060: b09b 1e3d b306 5b3c d9f3 f8bb c05f 543c
00000070: 87c0 d83c 5da3 103d 97c7 833c 985d 173d
00000080: 449b 53bd 815a 68bd 1598 edb9 e6a9 d73c
00000090: fd18 3f3d 791c aebc 6071 5bbd 2f7f 0c3c
000000a0: c019 96bc d3ff 02bc f62d a83c 3862 59bd
000000b0: 040c 5cbd 7dd2 68bd cb18 dcbc 4ef7 19bd
000000c0: 2567 0c3d a76e 85bd 5a19 66bd 52fb 543b
000000d0: e523 253d db04 3c3d 59b4 fa3c ffc0 95bc
000000e0: c63a 52bc f601 fe3c ae8a 51bc 9625 8bbc
000000f0: a5ad 393d 7d02 0c3b 3d21 2b3d b68d 2fbd
00000100: 2581 5abd a086 60bd e8ca 88bc 04da b5bc
00000110: ebe6 e33c 5fd5 43bd 0809 293c 9793 7d3c
00000120: ff5e 6abd fa14 b73b 8c5c 0d3d 68b3 2dbc
00000130: e553 67bd 9d7a 17bc 6b2c 943c e5d1 4ebc
00000140: bc19 073c c2fd 083d cc9f f5bb 77aa 5f3c
00000150: bd9d 32bc d9bd 67bd f04e dcbc f2b1 3e3d
00000160: ec41 483d 8f3c a0bb 930c 5abd 724b ccbb
00000170: 4145 d13b 9e47 19bd 6e3c bebb 0b27 e53c
00000180: b800 8d3c d246 93bb e129 503c 25a6 3ebd
00000190: 410c 2dbd 7e3c d03c f7e9 663c f664 c4bc
000001a0: ad6a 053c 7d97 023d 3b0f 62bd d730 4b3d
000001b0: e9f2 a63c fcc1 29bc 66cb 5abd 76b8 eb3c
000001c0: 3738 1b3d 00b6 ff3a 6ee9 103d 7451 1e3d
000001d0: 1e71 9fbc aa4a fa3c 4cdf 3bbc 8662 b93a
000001e0: e2b5 013d 0528 33bd 9e85 8a3c c96e 0e3d
000001f0: 0bbe b13c 17d5 28bd 822d 5fbd 753d 343c
00000200: c3c3 25bd 56ad 63bc 655d e23b 611b 39bc
00000210: 45a8 d1bc ec56 38bd cd31 3c3d e46d 6f3a
00000220: 6463 593d 44d7 e0bc d2fb a5bb 4b1b fdbc
00000230: 1549 28bd b05c babc 0867 d53b fc9c 0f3d
00000240: 0fc2 71bd 172e 8f3c 48d4 e6bc 6bd7 183d
00000250: 03b5 05bd 5aa0 36bd 813c cfbc e5c0 8bbc
00000260: 7166 2cbd ad38 243d e10d ca3c 9c3d 663c
00000270: e8b1 de3c c070 c03a b1ea 14bd 3eaa a6bc
00000280: 8942 673b ec68 9ebc 8788 82bc 928f 52bd
00000290: 8559 a8bb b891 163d f8bf 023d c296 c43b
000002a0: 89ce 5f3c 579f d13c 9cc8 443c 5571 543c
000002b0: 617d 16bd 285d 31bd e05e 3c3d 00b7 25bd
000002c0: 88ec d93c 46a2 0abd 8110 723b 3f15 61bd
000002d0: 4657 513d a8d5 fc3c dd49 ac3a bc9b 683c
000002e0: b8e3 fd3c 5642 7fbd d816 f7bc 4aa2 0fbd
000002f0: 0445 423d dec3 873c c21f 50bc 9291 46bd
00000300: 5220 213d eb3e 00bc 23fe e0bc 13f0 2a3c
00000310: 61be 1fbd afc1 3cbd fca6 7dbd c392 4b3d
00000320: bd55 2cbd 195d 3dbd e17c 7bbd 14ce 2ebd
00000330: 3a6b 1ebd d4b2 7fbd a109 c0bc 9d8e 113d
00000340: f002 37bb a524 ffbc 24f0 05b9 eba7 08bc
00000350: b126 013d 41b9 4d3c d318 e93b 126f 2cbd
00000360: ebd3 18bd 9ddd 97bc fdb4 28bd 795f 383d
00000370: a8a7 93bc 733e a7b8 837d 12bd 50d8 fbbc
00000380: d0ba 3b3a 2e63 a33a f758 313d 208b 8ebc
00000390: 771b efbc 751a 29bd 7d0c 37bd 5442 fd3c
000003a0: 7a0c 03bd 3c77 3fbd 72d1 093d 69d8 063d
000003b0: 2eef fabc ee18 6c3c fe75 32bd fe24 72bd
000003c0: ad7d 023d 5272 663d 3239 74bd 6811 ea3c
000003d0: c473 84bc 53a0 63bd d778 603d aa21 203d
000003e0: eab4 15bd 29bb 49bd 382f 163d 2d07 beba
000003f0: e005 e03c 1628 95bc 9c41 3b3d 7358 7a3c
-0.021494439 0.04607981 -0.04459433 -0.029246183 0.03451553 -0.055793125 -0.0037870689 -0.03797598
-0.012625366 0.011827548 0.039416343 0.053766876 0.050258096 -0.043354105 -0.047449414 0.027495798
0.042964704 -0.04811871 -0.026014885 -0.00558612 -0.021995671 -0.055505518 0.0106218895 0.04571755
0.038722694 0.013368296 -0.0075974283 0.012962282 0.026458992 0.035312045 0.016086383 0.036954492
-0.051661745 -0.056726936 -0.00045317473 0.026326131 0.04665469 -0.021253811 -0.05357492 0.008575245
-0.018322825 -0.007995564 0.020529728 -0.053072184 -0.053722396 -0.056841362 -0.026867291 -0.037589364
0.034278054 -0.06515246 -0.05617652 0.0032498431 0.040317435 0.045903068 0.030603575 -0.018280504
-0.0128313955 0.031006794 -0.0127894115 -0.016985696 0.045331616 0.0021363788 0.041779745 -0.042859755
-0.053345818 -0.05481589 -0.016698316 -0.022198685 0.027820071 -0.04781091 0.010317095 0.015477083
-0.0572195 0.0055872174 0.034512088 -0.010601856 -0.056476492 -0.009245542 0.018087586 -0.012623285
0.008245882 0.033445127 -0.007495856 0.013651482 -0.010901866 -0.056577537 -0.02689311 0.04655642
0.048890993 -0.0048900316 -0.053234648 -0.0062345797 0.0063864295 -0.037421815 -0.0058055436 0.027972719
0.017212257 -0.0044945264 0.012705297 -0.046545167 -0.042248014 0.02541947 0.0140938675 -0.023973923
0.008143109 0.03188275 -0.055190306 0.049607124 0.0203795 -0.010361191 -0.053416632 0.028774481
0.037895408 0.0019509196 0.035378866 0.0386519 -0.019463118 0.03055318 -0.011466812 0.0014143742
0.031667598 -0.043739337 0.016909417 0.03477362 0.021697065 -0.041218843 -0.05448676 0.011000981
-0.040469896 -0.013896307 0.006908106 -0.011298032 -0.025592932 -0.04500477 0.04594593 0.00091335014
0.053073302 -0.027446397 -0.0050654197 -0.030896803 -0.04108532 -0.022749275 0.0065125264 0.03506182
-0.05902296 0.017478032 -0.028177395 0.037314814 -0.03264333 -0.044586517 -0.025297405 -0.017059753
-0.042089883 0.040093113 0.024664821 0.014052775 0.027184442 0.001468204 -0.03635663 -0.02034485
0.003528746 -0.01933714 -0.015934242 -0.05140645 -0.0051376247 0.036760062 0.031921357 0.005999417
0.013660082 0.025588674 0.01201072 0.012966474 -0.036740664 -0.04330173 0.045988917 -0.040457726
0.026602045 -0.033846162 0.0036936107 -0.054951902 0.05110862 0.030863598 0.0013144572 0.014197286
0.030992374 -0.062319122 -0.03016226 -0.03506688 0.0474291 0.016572889 -0.012702884 -0.04847867
0.039337464 -0.007827501 -0.027464932 0.010433215 -0.03899992 -0.04608315 -0.061926827 0.04970051
-0.042073954 -0.046231363 -0.06139839 -0.042677 -0.038676478 -0.062426403 -0.023442091 0.035536397
-0.0027925335 -0.031145403 -0.00012773328 -0.008340816 0.03153104 0.012556375 0.007113555 -0.042098112
-0.037311476 -0.01853829 -0.04118823 0.045012925 -0.01802428 -7.9748126e-05 -0.03576423 -0.030742794
0.0007161321 0.0012465471 0.043297734 -0.017400324 -0.029187901 -0.041284997 -0.044689644 0.030915417
-0.03199432 -0.04674457 0.03364701 0.03292123 -0.030631628 0.014410241 -0.043569557 -0.05911731
0.031858135 0.056261368 -0.05962486 0.028572753 -0.016168483 -0.05557282 0.05480274 0.039094605
-0.036549486 -0.049250755 0.036666125 -0.0014497988 0.027346551 -0.018207591 0.045716867 0.015279877

fc2.bias f4 [300]
00000000: c537 3a3d ed1d d93a 0a02 023d 78d4 99bd
00000010: a8e0 3c3c 53ac 37bd a1ea 39bc 3ed4 e4bc
00000020: f233 2fbd 1439 71bd a94b 3fbc 2cd5 fdbb
00000030: af8d 66bb ef2d 1f3d 7141 08bd df18 5d3c
00000040: 133c 7dbd 9216 ddbc 3f51 323d 7b45 08bd
00000050: fc7a a93c 27d4 15bd c851 7fbd c1a4 8fbd
00000060: 1f85 50bd 7df1 003d 5e20 3e3d 5f1d a93c
00000070: 5f7b 86bd 41e8 68bd 73d9 0f3d 87a5 dbbb
00000080: ce75 10bd cac5 db3b e4cf 80bc a1a6 b43c
00000090: 8efa e6bc 9bf7 d0bc ba32 b63a a227 813c
000000a0: 9fe6 57bc e309 ad3b 0d17 98bd b137 1c3b
000000b0: a82c ce3c 5db4 20bc b375 5cbd f8db 913c
000000c0: e1b3 1ebd c7a6 0bbd 8efb 373d ed14 eebc
000000d0: ee69 3b3d 972c d13b c2cf bebc f0e6 4f3d
000000e0: b674 dcbc 0978 233d dc09 a33c 8f48 3a3c
000000f0: 4c6f c7bb 156f 313c a8f3 f83c cc17 ba3b
00000100: 4815 dbbc c9a5 4dbd f438 1dbd f498 1ebd
00000110: 2193 48bc fb12 d23c a11a 81bd ffe2 423d
00000120: b5ef b13c e2b7 163d 2413 44bd 54fa 0b3d
00000130: c3a6 3fbd 160b 213d 0ceb d13b 4143 d53c
00000140: a441 52bd 9d5f a8bc ce03 d33c 0c41 783c
00000150: 475e 31bc a5a0 843c 6b52 84bd 1658 663d
00000160: 8a9d 22bd 848a 043d d72e 263d 1564 693d
00000170: fad1 c23b 057c 1b3d 4dea 813c e314 09bc
00000180: a100 d03b d12d 2abd 5c6e ae3c 6a9c adbc
00000190: 87f6 88bd fc79 263d 84b1 8c3c 56bd 0bbc
000001a0: fd4f 603c a7ac c03c 279a a4bc c9f5 73bd
000001b0: cd64 dbbb 833c 2b3d 5af8 f03c e691 10bd
000001c0: b9df 1e3d cda8 173d a5d5 f63c f217 3c3d
000001d0: 7ccd 3a3d 0f13 2f3a f8af b23b f15c 64bd
000001e0: 19db cdb9 f104 69bd 4fa2 953c bca2 543d
000001f0: bc57 953c c020 3bbd 31ad 013d 4a1d 043d
00000200: 44cd 49bd c3a4 28bb 6322 23bc 7650 26bd
00000210: 4d17 8fbc e4c3 113d 5a26 78bd 0c8f 59bd
00000220: 3f4c 013c 14eb 9b3d c595 f43b 5fe0 5d3d
00000230: 9e16 193d 2b6d f73c ee51 433d 4a76 423d
00000240: 7b3c c93c 20dd 57bd 7a18 77bd 27b8 89bc
00000250: 9d23 8b3c 2e75 4d3a ea44 c63c 82ae b3bc
00000260: e2a2 3abd 74c6 2abc 7daf 7ebd fce3 94bc
00000270: 5e40 ae3c 71f0 8dbb 80be adbc ab86 063d
00000280: 55e1 50bc b3c2 68bd 55e5 d83c 334a b93b
00000290: 6243 50bd 2e2c b1bb 7611 94bc 8056 1e3d
000002a0: e929 9f3c b3c3 423d aa67 d33c 523c 9239
000002b0: 8416 fabc f230 5e3d 5948 173d 513a b9bc
000002c0: 2d28 653d 0063 4d3c 75b1 933b 8b7b 403b
000002d0: b54b bebb 0d83 cabc 0f53 36bc d7f2 133d
000002e0: 78ac e93c 096f 803d b679 1cbd 5b02 8cbd
000002f0: 4cbb 973c 17fe 5c3c 3f81 3c3b 43ae bb3b
00000300: 45bd 4b3d 106c 3cbd a391 34bd 0777 d23b
00000310: 03c8 c1bc 5cc4 2bbd 7aef 10bc 44e7 67bd
00000320: 63db 11bd 0ebd 163b 3b04 d8bc f928 b1bb
00000330: 77e5 8abd baea 353d eb74 efbc 14db fb3c
00000340: d0f0 153d 4453 223d bf56 94bd 46e8 a63c
00000350: 9bdf 92bb b1c7 24bd 8213 45bd bb2e 033d
00000360: 8525 b2bc 8320 0cbd 14e5 44bd f025 6abd
00000370: 51db 903c d9d0 c8ba f261 28bc 2a27 9f3c
00000380: 71f8 2c3d 31cd d8bc 2406 83bd 618f 893b
00000390: 776b 19bd b912 19bc 0d66 19bd 90c2 0b3d
000003a0: 9bda 05bc f669 563d fd08 503d 97e0 63bd
000003b0: 4fd1 3abd 0931 79bd bcac 403d 2c2e 72bd
000003c0: dce1 87b9 ac4c a43d ab00 bc3b bcba 073b
000003d0: edad 61bd e451 593d c016 2cbd 6ea1 9fbb
000003e0: a8ae 0a3d 2abe 453d c239 93bc cd72 71bd
000003f0: 401f 6d3c 7dba d2bc b0f2 963b ac56 fcbc
0.045463342 0.0016564705 0.031740226 -0.07511228 0.011528172 -0.044842076 -0.011347444 -0.027933236
-0.04277415 -0.058892325 -0.011675754 -0.0077463593 -0.0035179665 0.038862165 -0.033265535 0.013494699
-0.06182487 -0.026988301 0.043534514 -0.033269387 0.020688526 -0.036579277 -0.062333852 -0.07013846
-0.050908204 0.0314803 0.046417587 0.020643888 -0.065665 -0.05686212 0.035119485 -0.006703082
-0.035268597 0.006706928 -0.01572413 0.022052111 -0.028195646 -0.025508692 0.0013900616 0.015765969
-0.013177543 0.0052807196 -0.074262716 0.0023836906 0.025167778 -0.009808627 -0.053823184 0.017805085
-0.038745765 -0.0340946 0.044917636 -0.029062713 0.04575532 0.0063834894 -0.023292426 0.05075735
-0.02691112 0.039909396 0.019902162 0.011369838 -0.0060862657 0.010829707 0.030389622 0.0056791063
-0.026743546 -0.050206933 -0.038384393 -0.038720086 -0.0122421095 0.025643816 -0.06303907 0.04757976
0.021720747 0.036796458 -0.047869816 0.03417428 -0.046789896 0.039317213 0.0064061936 0.026033046
-0.05133213 -0.020553404 0.02575865 0.015152227 -0.0108257 0.016189883 -0.064610325 0.05623635
-0.039701022 0.03235866 0.040572014 0.05698021 0.0059454413 0.03796007 0.015858794 -0.008366796
0.006347731 -0.0415476 0.021292858 -0.021192748 -0.06687646 0.040643677 0.01717449 -0.008529028
0.013690946 0.023519827 -0.020093037 -0.05956057 -0.006695366 0.041805755 0.029415298 -0.03529539
0.038787577 0.037026215 0.03013117 0.045921274 0.04560612 0.000667856 0.005453106 -0.0557527
-0.00039263887 -0.056889478 0.018265871 0.051913008 0.018230312 -0.04568553 0.03165931 0.032254495
-0.049268022 -0.0025732971 -0.009956929 -0.040604077 -0.017467165 0.035587206 -0.06058345 -0.053114936
0.007891714 0.07613197 0.007464143 0.054169055 0.037375085 0.030203423 0.047685556 0.04747609
0.024564972 -0.052701116 -0.060326077 -0.016811443 0.016984755 0.00078375905 0.024202783 -0.021933798
-0.045565493 -0.0104232915 -0.062179077 -0.018175118 0.021270927 -0.0043316414 -0.021209002 0.032843273
-0.012749036 -0.056826305 0.026476542 0.005654597 -0.05084551 -0.005406878 -0.018074732 0.03865671
0.019429164 0.047549915 0.025806267 0.00027892232 -0.030528314 0.054245897 0.03693423 -0.022610815
0.055946518 0.0125358105 0.0045072385 0.0029370512 -0.005807365 -0.024720693 -0.011128201 0.036120262
0.028524622 0.06271178 -0.03820201 -0.06836387 0.018521927 0.013488314 0.002876356 0.0057275607
0.04974105 -0.046001494 -0.044084202 0.0064228806 -0.023654943 -0.04193531 -0.008846158 -0.056617036
-0.035609614 0.002300087 -0.026369205 -0.0054064956 -0.06782048 0.044413306 -0.029230556 0.030744113
0.03660661 0.03963019 -0.07243108 0.020374428 -0.0044822223 -0.040229503 -0.048114307 0.032026988
-0.021746406 -0.034210693 -0.04807003 -0.057165086 0.017682703 -0.001532103 -0.010277258 0.019427855
0.04222912 -0.02646503 -0.063976556 0.0041980003 -0.037456002 -0.009342843 -0.03745084 0.034121096
-0.008169795 0.052347146 0.050789822 -0.055634107 -0.04560977 -0.06083778 0.047039732 -0.059126064
-0.00025917485 0.080224365 0.0057373843 0.0020710668 -0.05509751 0.053056613 -0.042013884 -0.004871539
0.03385797 0.048277058 -0.017971877 -0.058947373 0.014472783 -0.02572369 0.0046065673 -0.030803047

fc3.weight f4 [1, 300]
00000000: c86c f43c ac22 debb 231e d23a 2d8c 88bc
00000010: f15e 03bc 3baf 163d cc6d 9d39 cdc3 c6bc
00000020: c26d da3a 0fbc e73c cf52 9bbc 6448 37bd
00000030: 4e6d cebc 0815 a93d de53 88bb 3dd7 293d
00000040: c5b6 343d 4f10 81bc 8a96 973b d02a cd3c
00000050: 73dc e2b8 3838 20bc d8b8 28bc 0d5b 35bc
00000060: d251 c8bc ab6d 1d3c a230 90bc cac4 c0bb
00000070: dc50 5abc 428d 4bbc b5f5 e73c 6bd4 babc
00000080: f178 35bd 2e2d 27bb 13c3 55b9 e78b 03bd
00000090: f329 55bd c9ab fdbb 0fda d4bc 0534 063b
000000a0: 0163 973d dd4b 073b 0fa0 5a3b d63b 713d
000000b0: bdf0 c7b9 9a8f cdbc b186 d8ba 06e0 a339
000000c0: ee7c 59bc d2f0 043d e89b b6bc 83f2 273d
000000d0: 83b6 c93c 2e61 193d 2b09 cd3c 2d90 1b3c
000000e0: 2a20 78bc 450b 3fbc 4905 d0bd ca9c b43a
000000f0: afbb a63b ba6a 85bc 14de fd3c 2e18 d53a
00000100: f359 03bc 1e29 d8bc 09bb 43b9 ab0e 8f3c
00000110: 778f cdbb f9d6 db3c 29bf adbb c87c 373d
00000120: af96 bcbc e54c e4bc 2d99 11bd a9f4 c4bc
00000130: d5ba 6c3c c5e7 cabc 4673 3d3d 4122 ad3c
00000140: 4d25 c0bc 115c 3d3d e1e0 36b8 64de bfb7
00000150: 22b3 593c 7c49 3cbd 6f4b 1abc 22c6 22bd
00000160: 775b 053b 3433 123d 4c95 1d3a c69e 6f3d
00000170: 3834 253d 267b 52bc d947 0e3a ebb9 5cbb
00000180: 9988 a13b add7 84bb f27a 6a3c debb 193d
00000190: 7ed6 c2bc ef7e ba39 5f74 cf3b fd3f 2d3d
000001a0: 0f4f bb3c f716 debb f9c4 24bd ee93 dabc
000001b0: 7353 cc3c b9f6 ab3c eda0 be3c dbc0 5dbb
000001c0: d66b 253d feeb 8b3c 12da 1bbd 43e1 aa3c
000001d0: de44 edbb de60 b6bb a2a2 533d 1cbd 1fbd
000001e0: 278b 0fbd c564 553d a33e 1abc 478c 0f3a
000001f0: 8438 fa3c 48b7 3f3d cd12 b2bb eab8 8f3a
00000200: 47a4 43bc 3034 463b dbbd e63c c484 42bd
00000210: 0c5e 6138 90f8 153c e18c f5bc e217 833c
00000220: 35b9 c13b fe4a 173d 8689 e63a 777a 22bd
00000230: 46c4 5f3b e95a 803c a044 7a3b 368f 0c3d
00000240: 70b3 45ba bfc0 a43b e0d1 c4bc 7c73 113b
00000250: 98b2 4e3d 8cf3 7dbb ecb9 f3ba 81f8 023d
00000260: a068 04bd c7c3 c03b 247f 05bd f3f1 033d
00000270: c2c9 8f3c 3acb 54bb 7d52 073c 9804 64bc
00000280: d9f6 fe3c 3e43 f5bc 1b64 af3b 17ce 3abd
00000290: fc93 49bc de91 123d 5cf7 12be 9910 07b9
000002a0: c174 c4b9 3c6a 613c f357 6e3a 11a4 d53b
000002b0: df6c 61bc f621 07bc 77f8 573d cce6 2b3c
000002c0: 4d64 513d beff edbb e2cc f1bc d6d0 9839
000002d0: 69df 4eba f195 463c 56a6 7c3c ab53 8fbc
000002e0: ed15 45bb 3d27 a43c be60 583a d899 843d
000002f0: 2e9b 0b3d a333 413b 285b 1f3c bf29 dd3b
00000300: 58f1 38bd f8d6 f4bb f6d9 213d d855 b5bb
00000310: d108 ca3a 2936 19bb 7f50 1a3d 9394 b3bc
00000320: 3f91 2abd e48b 82bd cabd ac3c 8b4e 82bb
00000330: 3372 23bc f567 bebc eaa5 353d 07d0 a03b
00000340: 90ef 8f3c 6522 023d a6ed 6ab9 0141 88bd
00000350: 9e41 aabc 5682 013c 0f94 17bd 1dfb d938
00000360: 2721 6bbd 225b bebc 1b22 0f3d 02b2 65bc
00000370: d7ac cebc b0a3 07bc 3d5d 133d de85 353c
00000380: 27cd 42bb 6910 9abc e7b4 1cbc e36f 4d3d
00000390: 1d7e 9d3b d722 2ebd 93f7 d4bb 43e0 ebbc
000003a0: 62b1 85bb 4b13 58bc ef32 0fbb 0653 3d3d
000003b0: 7b99 6a3c 4827 efbb bb0c 833d 3ed5 123d
000003c0: 7d64 763b 669c 763d 29a3 9e3c 16e9 a5bc
000003d0: b37f cd3c e608 ba3c 5a12 963b f6e5 1c3d
000003e0: 0080 813b 664f a03a c58a e13c 4944 c9bb
000003f0: 68d5 aa3c b1e1 01bb 5937 54bd 0c78 91bc
0.029837027 -0.0067790356 0.001603071 -0.016668404 -0.008018241 0.036788207 0.0003002718 -0.024263287
0.001666479 0.028287916 -0.018960385 -0.04474677 -0.025198605 0.082559645 -0.0041603884 0.041465033
0.044119615 -0.015754847 0.0046261 0.025044829 -0.00010817582 -0.009779029 -0.010297976 -0.0110690715
-0.024453077 0.009608666 -0.017601315 -0.005882834 -0.013324942 -0.012423815 0.028315404 -0.022806367
-0.04430479 -0.0025509107 -0.00020385934 -0.032115843 -0.05204196 -0.0077414257 -0.025982885 0.0020477783
0.0739193 0.0020644583 0.0033359563 0.058894955 -0.00038135602 -0.025092889 -0.0016519633 0.00031256693
-0.013274414 0.032456227 -0.022291139 0.04100276 0.024623161 0.037446193 0.025028786 0.009494823
-0.015144387 -0.011660402 -0.10157258 0.0013779637 0.0050882916 -0.016286243 0.030989684 0.0016257816
-0.008017051 -0.026386794 -0.00018666325 0.017463049 -0.006273206 0.026835905 -0.005302329 0.044796735
-0.02302107 -0.027868697 -0.03554647 -0.024042444 0.014448841 -0.02476872 0.04625251 0.021134498
-0.023455286 0.04623038 -4.3601616e-05 -2.2872533e-05 0.0132873375 -0.045968518 -0.009417399 -0.039739735
0.0020348707 0.035693362 0.00060113217 0.058501028 0.040333003 -0.012846744 0.0005427576 -0.0033680152
0.004929614 -0.004054031 0.014311539 0.03753268 -0.023783918 0.00035571257 0.006331011 0.042297352
0.022864847 -0.00677764 -0.04022691 -0.026681866 0.024942135 0.02099167 0.023270095 -0.0033836875
0.040386043 0.017080303 -0.038049765 0.020859366 -0.0072408756 -0.0055657467 0.05166877 -0.038998708
-0.035044815 0.052098054 -0.009414348 0.000547592 0.030544527 0.04680565 -0.00543437 0.0010965143
-0.011941022 0.0030243509 0.028166702 -0.047489896 5.373177e-05 0.0091535 -0.029974403 0.0160026
0.005911971 0.036936752 0.0017588593 -0.039667573 0.0034144088 0.01566835 0.0038187876 0.034316264
-0.0007541692 0.00502786 -0.024025857 0.0022194078 0.05046329 -0.0038749902 -0.0018594838 0.031975273
-0.03232634 0.0058827135 -0.032591954 0.032213163 0.01755226 -0.0032469765 0.008259413 -0.013917111
0.031123566 -0.02993929 0.0053525097 -0.0456067 -0.012303349 0.03578364 -0.14352173 -0.00012880786
-0.00037471022 0.013758238 0.0009092085 0.0065198024 -0.013758867 -0.008247843 0.05272719 0.010492038
0.051121045 -0.007263153 -0.029516641 0.00029147294 -0.0007891567 0.01212071 0.015420517 -0.01749595
-0.0030072883 0.020038242 0.0008254162 0.06474656 0.034083538 0.002948024 0.009726323 0.0067493613
-0.04515204 -0.0074719153 0.039514504 -0.005533915 0.0015414004 -0.002337823 0.037674423 -0.021921432
-0.041642424 -0.06374338 0.021086592 -0.003976648 -0.009975958 -0.02324293 0.04434768 0.0049076113
0.017570287 0.031771082 -0.0002240451 -0.066530235 -0.020783242 0.00790461 -0.037006434 0.0001039414
-0.057404663 -0.023236815 0.034944635 -0.014019491 -0.0252289 -0.008278772 0.03597759 0.01107928
-0.002972433 -0.018806653 -0.009564615 0.05015553 0.0048062936 -0.042513695 -0.0064992397 -0.02879346
-0.0040799836 -0.013188194 -0.0021850427 0.046221755 0.014318819 -0.007298384 0.063989125 0.035847895
0.0037596517 0.060207747 0.01936491 -0.020252746 0.025085306 0.022709321 0.0045798244 0.038305245
0.0039520264 0.0012230694 0.02753199 -0.0061421734 0.020853713 -0.001981836 -0.051810596 -0.017757438
